raf_results/checkpoints_full_0.1_-1.0_0.0045_-0.0007_5e-12_100_0.001_0.01_0.01_linear_euler_100_7/best-Conn_Pop1_Pop2-weight.npy (npy, 20608 bytes, 1 tensors)

array f4 [5120]
00000000: dc26 febe eb66 683e 9cca de3d 0d37 5e3c
00000010: 729d e9be 3221 32bf cbab 313e 0345 9c3e
00000020: a139 3dbf 18ed 13be da25 94be e0d0 93bd
00000030: 6614 ecbd ce8b 48be 38da d13d be99 2f3e
00000040: 67f8 fd3e 5935 1c3f 951d ba3d f5ed 9b3d
00000050: 8f11 283f d5f2 8fbf 5ec3 31be be23 10bf
00000060: f0d2 f5be cdc1 d0bb 5727 083f e16c ec3e
00000070: 80e1 8c3e 08a3 a3bd d0e9 03be 724e 0d3f
00000080: 62ce a23e dc0d 753e 92fd afbd b493 45bf
00000090: 0aeb b33d 73ec 08be d329 bebe 16fa 68bf
000000a0: c7e4 3bbd 1bbc 8cbd 96a9 2ebd 0e2d a4bc
000000b0: 7b0a 003d 464d 00be 84d4 023c 60db 89bc
000000c0: 0418 d2bd be15 82bc a375 11be d7b4 56bd
000000d0: f3aa 02be ef9c 24be 4ca9 41be 6ca4 013d
000000e0: b803 0ebe a83c 5abe f4b8 8b3e 3b07 0d3a
000000f0: 544e 8d3e 8f38 1b3e c257 9abe d68b 463e
00000100: a5cf 643d 21b7 43bd 494b 12bf 9679 813d
00000110: 5e81 b6be 69c3 443e 3b0b 1c3d 3503 90be
00000120: e508 9ebe 84cb ef3d c622 d5bd 3094 ddbd
00000130: 0254 8bbd bbbd 743e c480 22be 4aff c33c
00000140: 54a9 54bf e6ed 193e 13da 8dbf 609f 7ebf
00000150: f2a9 253e dc07 f03e a5c2 38bf fbba 963e
00000160: baa0 3b3e 8b9a 2e3f 280e 48bf c129 c23d
00000170: 087c e73d 8d58 3f3e 6a38 53bf 7c1a 10bf
00000180: 98c8 1e3e 7efb b4be 82d2 1d3f b08c c53e
00000190: 744a 33be 7790 9d3e 9469 203f a080 bb3e
000001a0: 8e32 90bf 48fb 6ebf 93b0 82be 8843 ccbe
000001b0: cf44 86bf 3e0f 803e e5b2 453e 2ddc b53e
000001c0: 329f 16bd 02cf f2be 06d9 c53d 6b55 ae3e
000001d0: fbf8 ebbe 9773 193f 6f78 b93d c89c 373e
000001e0: a65a db3c 9135 a7be 7e66 813f 3579 093f
000001f0: 9115 fc3e 054d 953e ed49 1f3f 56d6 d6be
00000200: 7286 cabd 6a8e a03d fd8e 89be 4231 1cbf
00000210: 2b90 143f 3de6 43bf 10e0 a83e 6915 623e
00000220: aead 57bf 69d4 85bf 584a 993e 969c aabe
00000230: 8627 c3bd 1762 32be c0ab 60bf 5f13 b8be
00000240: 0c28 30bf 16ee 5c3d 98d4 233f 8e45 c6bb
00000250: de81 e43e d342 7cbc fa7e 4dbc 41ff 843e
00000260: 630e e73e e973 84be e9b2 11bf 1bda 0dbe
00000270: d696 e23e df2f 9e3d 9849 cd3c 086a 85be
00000280: d3c1 22bf 3d9b 183e ade9 623e 7973 8b3e
00000290: ec64 9abf 4cf5 06bf f35c 61bf b2fc 343c
000002a0: 1525 16be 5dd7 f63e b8ac d7bd bb17 0e3f
000002b0: fc50 eabd c7b1 d8bd 4bfb 7dbe ff8b 25bd
000002c0: 8384 b5be 270b a13e ea3e b0bc 8994 753e
000002d0: 1e96 29be ee73 ba3e 8eeb 593f 0dd5 313f
000002e0: 2f70 983d d462 a63e b85b 18bd 22cb 063f
000002f0: db1b d83c f8b3 28bf d886 87be 5b9b 77be
00000300: 8f31 92be d038 c7be 7285 c9be ceaa 93bd
00000310: a83c 0cbf d547 3cbe 4f20 20bf a464 d1be
00000320: 6c5a 603e 781a 81be 08ab 29bd 9893 183d
00000330: 3320 9fbe b0d3 eabe fb4c 093e 251d 11be
00000340: 4354 60bd e4ef 37bf 111a 9d3d 4046 e93e
00000350: 8312 b03b 2c24 8abe 5809 333d b10a 8c3e
00000360: cadd e73d d4b0 353d b226 43be e484 e1be
00000370: ddc4 763e d89a 9d3d 8953 6dbe ccd7 b03d
00000380: e7c8 7f3d 34b7 fdbc 3aa2 c8be ee09 c73d
00000390: 29f5 74be bec2 7f3e 39ab 0c3b 542e 62be
000003a0: c2d0 b8bd 8a2f c83d 9385 d2bd 07a9 71be
000003b0: 3664 36be 6687 453e 62cc 30be ad43 913d
000003c0: 9c13 06bf 5c43 8c3e c81e ddbe 1011 8a3e
000003d0: e328 24bf 88fb a7bf ab33 2b3e 47ec 41bf
000003e0: 216e 973f 23d0 8bbe ba5f a43e 3a2b eb3d
000003f0: 8ba7 64bf b88b b7be d187 a23f eef4 91bf
-0.49639022 0.2269551 0.108784884 0.01356293 -0.45627934 -0.695819 0.1735069 0.30521402
-0.7391606 -0.14445913 -0.28935128 -0.07217574 -0.11527328 -0.19584581 0.102467 0.17148492
0.49603578 0.610189 0.090876736 0.07613746 0.6565179 -1.1245981 -0.17359683 -0.5630454
-0.48012495 -0.006370759 0.5318503 0.46176818 0.27515793 -0.0799008 -0.12882161 0.55197823
0.31798083 0.23931068 -0.085932866 -0.771785 0.087850645 -0.13371448 -0.37141284 -0.910066
-0.045872476 -0.06871816 -0.0426422 -0.020041015 0.031259995 -0.12529477 0.007985238 -0.016828239
-0.10258487 -0.015879508 -0.14205031 -0.052418556 -0.12760524 -0.1607549 -0.18912238 0.031650946
-0.13868606 -0.21312201 0.27289546 0.00053798006 0.27598822 0.15158294 -0.3014508 0.1938928
0.055862088 -0.047782067 -0.57146126 0.06322019 -0.35645574 0.19215168 0.038096648 -0.28127447
-0.3086616 0.117087394 -0.10407023 -0.1081928 -0.068031326 0.23900501 -0.15869433 0.023925442
-0.83070874 0.15032157 -1.1082176 -0.99461937 0.1617811 0.46880996 -0.72172004 0.2943953
0.18323031 0.68204564 -0.781466 0.0948062 0.11302954 0.18686123 -0.82507956 -0.5629041
0.15506208 -0.35348123 0.61649334 0.385839 -0.1750887 0.3077428 0.626611 0.3662157
-1.1265428 -0.93352175 -0.2552534 -0.39895272 -1.0489749 0.2501163 0.19306524 0.35519543
-0.036772914 -0.4742356 0.096605346 0.34049544 -0.46088395 0.59942 0.09056174 0.17930901
0.026776623 -0.32658055 1.0109403 0.5370057 0.49235204 0.29160324 0.62222177 -0.419604
-0.09888925 0.07839663 -0.26866904 -0.6101266 0.5803248 -0.7652319 0.32983446 0.2207848
-0.8424939 -1.0455447 0.29939532 -0.3332259 -0.09529023 -0.17420231 -0.8776207 -0.3595228
-0.68811107 0.053937994 0.6399627 -0.006050772 0.4463033 -0.0153967915 -0.012542481 0.25975993
0.45128164 -0.25869682 -0.5691362 -0.13852732 0.44255704 0.077239744 0.025059506 -0.26057458
-0.63577 0.14902969 0.22159453 0.27236536 -1.2062049 -0.52718043 -0.88032454 0.011046575
-0.14662583 0.48211184 -0.1053099 0.5550496 -0.11441228 -0.10580783 -0.24802892 -0.040416714
-0.3545266 0.3145382 -0.021514375 0.23982443 -0.16561171 0.36416572 0.8512505 0.69465715
0.07443272 0.32497275 -0.037196845 0.52653706 0.02638047 -0.6589961 -0.26470065 -0.24180357
-0.28553435 -0.38910532 -0.39359623 -0.07210313 -0.54780054 -0.18386777 -0.625493 -0.40897095
0.21909493 -0.25215507 -0.041422874 0.03725013 -0.31079254 -0.4586463 0.13408272 -0.14171274
-0.05476786 -0.7185042 0.076709874 0.4556141 0.0053733005 -0.26980722 0.043710083 0.27351907
0.113216 0.04435809 -0.1905773 -0.440467 0.24098535 0.0769555 -0.23176397 0.0863491
0.062447455 -0.030971147 -0.3918627 0.09718691 -0.23921646 0.24976632 0.0021464361 -0.22087985
-0.090241924 0.09774692 -0.102793835 -0.23599635 -0.17811665 0.19289932 -0.17265466 0.07092986
-0.5237367 0.2739514 -0.43187547 0.26966143 -0.6412489 -1.3123636 0.16718929 -0.75751156
1.1830484 -0.27307233 0.32104284 0.11482854 -0.8931815 -0.35848784 1.2697698 -1.1402872
