lif_results/checkpoints_full_20.0_5e-13_100_0.001_0.1_linear_euler_100_0/best-Conn_Pop1_Pop2-weight.npy (npy, 20608 bytes, 1 tensors)

array f4 [5120]
000000 01 08 1d bf ac e8 32 bf fe f0 8f 3f d2 6f 62 3f
       -0.6134034 -0.6988628 1.124542 0.88451874
000010 44 71 ec bf ae af a8 3e 0d 1c 73 3e 8c 18 8d be
       -1.8472066 0.32946533 0.2374117 -0.2755779
000020 9f f0 54 bf 6e 7f 0c 40 f9 1b c7 bf b7 3e 60 bf
       -0.8317966 2.1952777 -1.5555412 -0.87595695
000030 3b 61 13 bf c3 73 7d bf 9d 08 24 3d d6 71 c4 3e
       -0.57570237 -0.99004763 0.040047277 0.383681
000040 7e 5f 17 3f 54 90 88 3f 77 21 db 3f 48 93 f1 3d
       0.59130085 1.0669045 1.7119588 0.1179567
000050 e7 23 ec ba 77 ec 9b be e0 e4 ee bd 0b 5c ba 3e
       -0.0018016071 -0.30453846 -0.11664748 0.36398348
000060 1b 8e 7a 3d df 14 f4 be 79 90 9e bd 96 47 f0 3d
       0.06117068 -0.47672173 -0.077424 0.11732404
000070 c0 c0 43 be f9 d5 78 bd 78 bd 1b 3d 54 29 54 be
       -0.19116497 -0.060750935 0.03802249 -0.2071889
000080 6e dd 06 be ca b7 db 3e aa 96 ba bc 49 d9 1c 3d
       -0.13170406 0.42913657 -0.02277692 0.038293157
000090 e6 74 7d 3e 40 3a c2 3e 1c 29 63 bf 8a ec a4 3d
       0.24751624 0.37935066 -0.887346 0.08052929
0000a0 b7 af 90 be e5 1c 8f be 77 50 fd 3e 02 55 6e 3e
       -0.2825906 -0.27951732 0.49475452 0.23274615
0000b0 99 bd a9 3e 01 1e fb 3e d3 79 63 3f 2a ac 8f be
       0.33152464 0.4904633 0.88857764 -0.28061038
0000c0 3f 67 e7 3e 78 8d d0 be b9 27 5a bd 05 46 8b be
       0.45195958 -0.40732932 -0.05326054 -0.27201858
0000d0 34 80 4d be e3 45 f2 bd a0 1f 15 3e 41 df 0d 3f
       -0.20068437 -0.11829736 0.14562845 0.55418783
0000e0 18 2a 17 be 7f 28 8b bf 45 97 ef 3e 5e cc bd bd
       -0.14762151 -1.0871733 0.46795097 -0.092674956
0000f0 00 8c f2 3e d5 6c e7 3e 20 25 8f 3f d9 64 1e 3e
       0.47372437 0.4520022 1.1183205 0.15468158
000100 7f 3b 18 c0 f4 b1 34 c0 10 e8 a6 3f 4c ca d8 3f
       -2.3786314 -2.8233614 1.303957 1.6936736
000110 0e ef 87 be 81 2b 42 bf ef a6 e4 be 19 1b 3c 3f
       -0.26549572 -0.7584763 -0.4465861 0.7347885
000120 45 8d 17 3e bd 5f cd bf 81 ca 0c bf 58 31 29 bf
       0.14799984 -1.6044842 -0.54996496 -0.6609092
000130 ac 12 58 3f b7 2f 97 3f 6d b5 1d c0 89 04 8a be
       0.8440349 1.1811436 -2.4641984 -0.26956585
000140 5a 36 d4 3d 35 72 15 bf b1 04 0e 3e 24 f0 09 3e
       0.10361929 -0.5837739 0.13868977 0.13470513
000150 dd 49 27 3f 7a 2a 3b 3f 21 fd 14 bf 5a d4 63 bf
       0.6534708 0.7311169 -0.58198744 -0.889959
000160 99 62 a4 3d 32 44 ae 3e e4 93 11 be 6c 9d 74 3e
       0.080266185 0.34036404 -0.14216572 0.23888177
000170 45 94 0d be 89 06 70 3e 0f ef 25 3f ef 89 bb be
       -0.13826092 0.23439993 0.648179 -0.36628672
000180 36 56 9b bf 16 89 3c bf 7e 1f 82 3e 39 78 5f 3d
       -1.2135684 -0.73646677 0.25414652 0.054558013
000190 4a a5 2f 3f 19 d2 25 3e 8b 68 74 be 24 61 46 3e
       0.68611586 0.16193427 -0.23868005 0.19372994
0001a0 a0 03 10 3f e5 99 4c bf a0 f6 be bc 2a e3 ca bd
       0.5625553 -0.79922324 -0.02331096 -0.09906609
0001b0 44 3d 80 3e f3 4c 3a be 06 ed ae bd 9c cb 27 bf
       0.25046742 -0.18193416 -0.085413024 -0.6554506
0001c0 63 9a 6a be e4 b0 7a be 74 ff f1 3d 2b f7 ea 3d
       -0.22910456 -0.24481541 0.11816302 0.11472925
0001d0 0d ae fa be 5f da 77 3e e5 69 36 bf 57 52 f2 3e
       -0.48960915 0.24204396 -0.7125533 0.47328445
0001e0 34 8b df bc 64 79 8e 3e 12 0d c6 be 3c bf 87 3d
       -0.027288057 0.2782699 -0.38681847 0.06628272
0001f0 0b c0 b0 bd d9 6c de 3e eb 29 1b bf f1 40 38 bf
       -0.08630379 0.4344242 -0.60610837 -0.7197409
000200 1b 4d 30 be 6d 09 e3 3e c9 09 06 3e b3 83 63 bd
       -0.17216913 0.4434313 0.1308967 -0.05554552
000210 91 84 fc 3d 2c 16 14 be 46 91 90 3d bb d7 51 be
       0.123299725 -0.14461583 0.07058959 -0.20492451
000220 4f 68 05 3f 06 2e 93 be dd b3 2d bf b4 9a 95 3e
       0.5211229 -0.2874605 -0.67852575 0.29219592
000230 40 0c 08 be be d5 e7 3d 28 30 15 bf 2e 51 72 be
       -0.13285923 0.11320065 -0.58276606 -0.2366378
000240 19 79 17 be a0 d9 16 3f 5a f6 57 bf 99 2b 4a bf
       -0.14792289 0.5892582 -0.8436028 -0.78972775
000250 b8 ec 86 3e 72 5a 16 3f c5 8d a7 3e 87 99 10 3f
       0.26352477 0.5873176 0.3272535 0.56484264
000260 43 6e 10 3e fb 01 04 3e de 3b 67 bd f9 6d 9f bc
       0.14104562 0.1289138 -0.05645358 -0.019461619
000270 a1 42 84 be 45 ae c5 be 3d 57 a1 be 80 0b 14 3e
       -0.25832084 -0.3860952 -0.3151187 0.14457512
000280 6e b1 85 bf c5 b1 fa 3e 4d 5f 57 3f 1c 40 61 3d
       -1.0444772 0.48963752 0.8412979 0.05499278
000290 f7 5d 1f bc 76 2c fb 3e 5d 8c c2 3f 88 84 2b 3c
       -0.009726993 0.49057359 1.5199085 0.01046861
0002a0 47 54 e9 3e 7e e1 94 be 0e 76 6a bc 3f 85 45 bf
       0.4557211 -0.29078287 -0.014310373 -0.7715644
0002b0 0f 84 f9 be 90 00 c9 be 0b c9 87 3e bc e7 97 3f
       -0.48733565 -0.39258242 0.2652057 1.1867595
0002c0 43 b9 ea be 63 3d c2 bf 17 61 e5 3e a0 85 3f 3e
       -0.45844468 -1.5174984 0.44800636 0.18703318
0002d0 db 1e aa 3d 37 ff 3f be 13 67 3e be a7 df b3 3d
       0.083066665 -0.187497 -0.18594007 0.08782893
0002e0 0e cd f5 3e 79 2f 70 3f 1e 85 55 bf b9 5a 24 bf
       0.48008007 0.9382244 -0.83406246 -0.6420093
0002f0 1c 1e 93 3e 66 af b6 3e 2f 3c 3e be 21 7a 88 3e
       0.2873391 0.35680693 -0.18577646 0.26655677
000300 6e 9e b8 3c da 0e 76 3e 05 e9 91 3e 1c 2a 2a be
       0.022536483 0.24029103 0.28498092 -0.16617626
000310 74 45 9d bf 4e 6e 4e bf b4 75 a0 3e 9d 03 1e be
       -1.228682 -0.8063706 0.313398 -0.15431066
000320 49 fe 0c 3c 05 fb e4 bc 1c db 8b be d3 7c 11 bc
       0.008605548 -0.027951727 -0.27315605 -0.008879858
000330 24 bf 98 3e 90 02 67 3f 56 7a 17 bf 6e d6 cf be
       0.2983333 0.90238285 -0.59171045 -0.40593284
000340 55 bd bc 3e 10 a3 a5 3e c4 41 a1 bd 2d e5 19 3e
       0.368632 0.3235097 -0.07873872 0.1502883
000350 f1 b7 f3 3e c5 da 98 3e 9c 92 b9 3d 47 3a 2d bd
       0.47601274 0.29854408 0.09061167 -0.042291906
000360 75 6c 9f bf fb 1a 4f bf e4 16 59 3e 3d 2b 98 be
       -1.2454973 -0.80900544 0.21200138 -0.29720488
000370 31 6f 53 be a5 60 84 3e 24 28 a6 3e a4 fc 9e 3e
       -0.20647885 0.25854984 0.324525 0.31052125
000380 48 79 70 3d d3 d3 a5 bd 85 98 5f bf c7 f0 02 be
       0.058709413 -0.08097043 -0.873421 -0.12787162
000390 99 1e a6 be 24 61 04 3e 3d 30 8a 3d d5 9c 18 bf
       -0.3244522 0.12927681 0.06747482 -0.59614307
0003a0 50 fd bc be 5d 57 82 3e cd 50 0c 3e 60 95 82 3e
       -0.36912012 0.25457278 0.13702698 0.2550459
0003b0 fe 75 3f be ce 5f f9 bd 5e e9 3f 3f a7 1c 49 3e
       -0.18697354 -0.121764764 0.74965465 0.19639836
0003c0 ce f1 c2 bf e1 01 69 3f aa 78 87 bf d4 fc 98 be
       -1.5230043 0.9101849 -1.0583699 -0.29880393
0003d0 e3 cf 86 3d 55 59 34 bf 3e 2b ab be 13 e0 1a be
       0.0658262 -0.7044881 -0.3343143 -0.1512454
0003e0 12 89 0a 3f 3c a7 d7 3c aa 68 64 be 17 f8 43 be
       0.541154 0.02632486 -0.22305551 -0.19137608
0003f0 2e 16 fa bd 82 c1 b0 3e 69 e0 ac bf 73 df 97 3e
       -0.12211262 0.34522635 -1.3505985 0.29662666
