lif_results/checkpoints_full_20.0_5e-13_100_0.001_0.1_linear_euler_100_0/best-Conn_Pop0_Pop1-weight.npy (npy, 716928 bytes, 1 tensors)

array f4 [179200]
00000000: 4bbf 88bd baef 9b3f bb42 2740 2b41 cc3f
00000010: 6475 07bf 9ac6 b03f 90bb 78be 944c 48bf
00000020: a4eb 7440 e265 a5be 884d 1cbe 1c45 0e40
00000030: 0404 88bf def8 0ac0 9f79 1cbf 1d06 043e
00000040: 820d 9dbf 6340 1940 4b29 36bf cb5d 98be
00000050: 8c3a 8dbf 15a7 dbbf 872b f2be 2d44 993e
00000060: 302e 2e3f ab1c bebf 8dea 90bf 4ccc 49be
00000070: 1e77 cabd 8792 1bbf b531 f83e 9324 e4be
00000080: d5d1 f7bf 8cda afbf 3aee 6abe 6fd6 aebe
00000090: 21e7 bebf 98e4 013f 1bce 51be 076c 0dbf
000000a0: 2a36 00c0 2030 cc3e e297 65be ebae 2d3f
000000b0: bec0 35bf 7b49 efbf bcf4 fe3d 7d26 0dbf
000000c0: 856c 8c3e 0fee 113f 290d 6740 aad0 92bd
000000d0: f499 a2bf 3c1a 923f 9a19 f7be 878c abbf
000000e0: 6362 b1bf dc50 0fbf a48c a23f 9291 ebbe
000000f0: bd5a 8b3e fee3 1340 cb82 9b3f b11d 3c3f
00000100: ee13 f13e de8d d83f f08e 073f 35b7 febf
00000110: 416a f7be 5159 21bf 267e 163f 255d e3bd
00000120: 3717 7abe 1561 fabf b924 413f 97d2 97be
00000130: 672b 833e 8e3c b43f 99ed 06bf 3ea1 c0bf
00000140: 9303 5bbf 8ab5 9dbe c2a4 6c3f 2147 13bf
00000150: d862 23c0 b2f9 52be 7a1a 633f c04a 2e3f
00000160: 40ca 09c0 bd0d fa3e 1d41 1040 f64c f63f
00000170: 5c16 10bf 4f38 83bf d6ee d33c 5d8b 7f3f
00000180: 1148 d2bf b4dd 9e3e 8283 10be afd3 873f
00000190: 3999 4cbf f986 bf3f 9979 9dbf f3ac a13f
000001a0: fd33 d63f b08b 42bf 0343 c7bf 5e8b 283f
000001b0: c60b 0bbe 5327 06bf e3f2 a23f d1b7 833f
000001c0: 64ba a23f b0ba 0fc0 2a23 313f 5884 793f
000001d0: dec4 2dbf b1ed b6bf 4148 193d b486 f3be
000001e0: f878 b5bf a7e4 523c 3260 febe dac2 a23f
000001f0: e757 033f 35d2 943d d6c0 a43f 8928 bdbf
00000200: 14c4 33bf c634 563e a9da 37bf 7278 9e3f
00000210: 38af e1bf 0450 d13e 706f 9b3f ec0b be3f
00000220: 4975 a43e d436 cabf 33ef a43e e325 93be
00000230: c6fb 3240 cd74 b6bf 2f77 23bf e80d 37bf
00000240: 1efa ddbe fab8 4dbf e13b 27be 3277 133f
00000250: 02ea 8c3f 9969 c1bf 9dbc fc3d 0104 63be
00000260: 8eea eb3f a496 0bbd 4b09 1c3d d6c9 593f
00000270: 515d 813e b22f eb3f 9923 a43f bc8a 4abf
00000280: 0e1f 6cbf ed37 f13f 89c8 0cc0 8942 77bf
00000290: c052 2c3f 6173 18c0 3e8f 433d fa7b ee3e
000002a0: 0397 a4bf b677 813e 8a95 c63e f71c afbf
000002b0: 85dd 723f c175 483f 707e 473c a22e 353f
000002c0: ffc6 fabe 872b e4bf d6be 17c0 8f85 003f
000002d0: 5a72 393e 4208 5ebf d99f 513f 1c74 d73f
000002e0: 2072 833f d1e6 52be 2706 bdbf 140d bf3f
000002f0: db56 e73d 70fd 903d 2f46 d13f abc2 843f
00000300: 138e 583f 311c 623f 5e49 3c3e 0c8c 1a3f
00000310: dac6 b3bd 0168 d8bf d4ad 02bc 6738 863f
00000320: bc36 08c0 1fd6 70bf 9710 223f 47e9 fe3f
00000330: 0113 90be c26b 0dc0 7668 9f3e edf2 18bf
00000340: f3d7 22bf e539 d53f 896d 98c0 6f6a bfbe
00000350: 363b 5dbf 7071 543f 1d0e fdbe f62d a53e
00000360: 827b 1bc0 301a 063f 34fb 46bf fa19 55bf
00000370: 0125 65bf a846 133f 72e0 91bf 2097 29c0
00000380: c86c 0e3f dedf 983f 357e 1dbd f4c3 9b3f
00000390: 7fa4 bc3d e2f8 fe3e e8ad 8bbd 8fd5 67bf
000003a0: dc0d f4be c213 b0bf 1be1 40bf c39d b6be
000003b0: b222 37c0 92b0 a53e ad69 aa3f 8431 873e
000003c0: 26fd fa3e a625 de3e a747 ae3f 5387 40be
000003d0: c60c e23f c030 fc3e a829 973f 7d9d 30bf
000003e0: 6112 d1be a022 1b40 c5c0 b0bf 6c3a 533f
000003f0: e386 0840 1d50 cd3e 04b3 d63f 245b 44bf
-0.06677111 1.2182534 2.613448 1.5957388 -0.529135 1.3810608 -0.242903 -0.7824185
3.8268824 -0.32304293 -0.15263951 2.222968 -1.0626225 -2.1714396 -0.6112308 0.12892957
-1.2269747 2.3945549 -0.7115676 -0.29759058 -1.1033492 -1.7160364 -0.47298834 0.29934826
0.68039227 -1.4852499 -1.1321579 -0.1970684 -0.09886001 -0.6077046 0.48475423 -0.44559154
-1.9360911 -1.373857 -0.22942439 -0.34147975 -1.4914285 0.5073943 -0.20488779 -0.5524296
-2.003306 0.39880466 -0.2242122 0.6784503 -0.70997226 -1.86943 0.12449023 -0.55136853
0.27426544 0.57003874 3.6101782 -0.07168706 -1.2703233 1.1414256 -0.4826172 -1.340226
-1.385815 -0.55982757 1.269917 -0.460095 0.27217665 2.3107905 1.214929 0.73482805
0.47085518 1.6918294 0.5295248 -1.989966 -0.48323253 -0.6302691 0.5878624 -0.1110175
-0.24422918 -1.9560877 0.7544666 -0.29652855 0.2561905 1.408098 -0.52706295 -1.5049207
-0.8555233 -0.30802566 0.924389 -0.5753041 -2.552908 -0.20603064 0.88712275 0.6808281
-2.1529694 0.48838606 2.2539742 1.9242237 -0.5628412 -1.0251559 0.025870722 0.99822026
-1.6428243 0.3102852 -0.14112666 1.0611476 -0.799213 1.4963065 -1.2302734 1.2630905
1.6734616 -0.75994396 -1.5567325 0.6583766 -0.1357871 -0.52403754 1.2730373 1.0290471
1.2713132 -2.2457695 0.6919428 0.97467566 -0.6787852 -1.4291288 0.037422422 -0.47563708
-1.4177542 0.012871898 -0.49682766 1.2715714 0.51306003 0.07266656 1.2871349 -1.4777995
-0.70221066 0.20918569 -0.71818024 1.2380507 -1.7631598 0.4088136 1.2143383 1.4847388
0.3212073 -1.5797982 0.32213745 -0.28739843 2.796617 -1.4254395 -0.63853735 -0.71505594
-0.43354887 -0.80360377 -0.16331436 0.5760375 1.1008914 -1.5110351 0.12340663 -0.22169496
1.8430955 -0.03407921 0.0380948 0.850736 0.25266507 1.837393 1.2823364 -0.7911794
-0.92234886 1.8845192 -2.1997397 -0.965859 0.67313766 -2.3820422 0.04774403 0.46578962
-1.2858585 0.25286645 0.38785964 -1.3680714 0.9486926 0.7830468 0.012176141 0.7077428
-0.48979947 -1.7825783 -2.3710227 0.50203794 0.18110028 -0.8673135 0.81884533 1.6832309
1.0269203 -0.20595862 -1.4767503 1.4925866 0.11295863 0.07079589 1.6349543 1.0371908
0.8459179 0.88324267 0.18387362 0.60369945 -0.08778162 -1.690674 -0.007976014 1.0485963
-2.1283407 -0.9407672 0.63306564 1.991494 -0.281395 -2.209702 0.31134385 -0.59745675
-0.6361076 1.6658293 -4.763371 -0.3738589 -0.86418474 0.8298559 -0.4942483 0.32261628
-2.4294133 0.5238371 -0.77727056 -0.8324276 -0.8950959 0.5752969 -1.139662 -2.649849
0.55634737 1.1943319 -0.03845044 1.2169175 0.09211063 0.49799258 -0.06820279 -0.9056024
-0.47666824 -1.375603 -0.75343484 -0.35667238 -2.8614926 0.32361275 1.33135 0.26404965
0.49021262 0.43388098 1.3615617 -0.18801622 1.7660148 0.49255943 1.1809587 -0.6899031
-0.40834334 2.4239883 -1.3808829 0.8251102 2.1332328 0.40100184 1.6773381 -0.7670157
