lif_results/checkpoints_full_20.0_5e-13_100_0.001_0.1_linear_euler_100_2/best-Conn_Pop1_Pop2-weight.npy (npy, 20608 bytes, 1 tensors)

array f4 [5120]
000000 f8 17 2e be 02 7b 3c 3f 19 2d b1 bf c1 f4 22 c0
       -0.17001331 0.73625195 -1.3841888 -2.5461886
000010 11 8c fa bf 52 3e 4c 3e b9 e7 ed bf 50 3b ea bd
       -1.9573995 0.19945648 -1.8586341 -0.11437094
000020 17 84 8d c0 01 48 99 3f 25 d0 24 3e d1 6b 37 3d
       -4.4223742 1.1975099 0.16095026 0.044780556
000030 60 3e d3 3f a0 c4 6a 3e 33 bd aa bf 83 a3 0b c0
       1.650341 0.22926569 -1.3338989 -2.181855
000040 19 bf 97 3f 2c 80 a0 3f e5 c1 87 3f f0 e3 58 3f
       1.1855193 1.2539115 1.0606047 0.84722805
000050 a3 09 46 bd e7 1b d8 3e f3 14 b4 3d 12 9d 63 3e
       -0.048349034 0.42208788 0.08793058 0.22227886
000060 4c 45 fb bd 32 bc 9c be 79 1f 9f be f4 66 0e 3e
       -0.12269077 -0.30612332 -0.310787 0.13906461
000070 ee fc 16 bf 47 a2 00 3f a3 fb 74 3e 38 14 9e be
       -0.5897969 0.50247616 0.23924117 -0.308748
000080 63 d1 ff be 28 77 35 3d e7 3f 27 bc cb 16 fa bd
       -0.49964437 0.04430309 -0.010208107 -0.12211379
000090 b3 12 f0 be 50 60 b4 3e f4 ae 40 bf 7a d0 0d 3e
       -0.46889266 0.3522973 -0.7526696 0.13849059
0000a0 36 d3 ca 3e ca 70 e7 bc 74 88 33 3d 75 76 05 bf
       0.39614266 -0.028252024 0.043831304 -0.52133876
0000b0 7e 35 c3 bd 36 e3 41 3e db 07 fc bd 67 84 1d 3f
       -0.09531687 0.1893433 -0.12306186 0.61530155
0000c0 85 63 d0 be db cf e4 3e 29 d0 c9 be 1b 75 18 bf
       -0.40700927 0.4468983 -0.39416626 -0.5955369
0000d0 19 70 ea 3e de 61 10 bd dc b0 d4 bd 10 ca 6a bf
       0.4578865 -0.035249583 -0.10385296 -0.9171457
0000e0 aa bf 77 3e 30 66 84 3e 78 0c d8 be 60 92 00 3e
       0.24194208 0.25859213 -0.42197013 0.12555838
0000f0 fc 4c 86 be e1 2a ba 3e ed 13 ed 3c 23 9f b8 3e
       -0.2623061 0.3636084 0.028940165 0.36058912
000100 64 90 72 3d b8 b1 d3 bc 6d 0a 8e bf dd 11 23 be
       0.059219733 -0.025841579 -1.1096932 -0.15924783
000110 58 d9 f5 be 50 36 1e 3e a9 37 7e 3d c6 2a 24 bf
       -0.48017383 0.15450406 0.0620648 -0.6412777
000120 63 a5 de be b9 f0 bf 3e de 13 89 3e 73 06 23 3e
       -0.43485555 0.37488344 0.2677297 0.15920429
000130 c9 d8 91 be 62 f1 80 bb 8c 90 3c 3f 65 62 96 3e
       -0.28485706 -0.003935025 0.7365806 0.29371944
000140 ba fc 9c 3e 6e 62 a9 3e 2b e5 4f 3f 13 b4 f9 be
       0.30661565 0.33082908 0.8120906 -0.48770198
000150 f8 de 71 be 99 31 d2 be c9 40 37 3e b4 6e 18 3f
       -0.23620212 -0.41053465 0.17895807 0.5954392
000160 30 4e 30 bf 4d b7 eb 3e 24 65 ae bd 92 14 41 3d
       -0.68869305 0.46038285 -0.08515385 0.047138758
000170 9c 16 c5 3e bf 16 ad be ce 3a 21 bf 2d 55 34 bf
       0.38493812 -0.33806416 -0.62980354 -0.7044247
000180 33 cc 7a be 7e f1 08 3f fd b4 2c bf 60 ea 73 bc
       -0.24491958 0.5349349 -0.67463666 -0.014887422
000190 b1 30 07 be a3 3d 83 3d 7e 7a 34 bf 13 45 a3 bc
       -0.13202168 0.06408241 -0.7049941 -0.019930398
0001a0 c9 e9 4a 3d dc a3 32 3f 19 69 4a bf a3 02 1e bf
       0.04953936 0.6978128 -0.79066616 -0.61722773
0001b0 56 2f d8 3e d5 65 84 3e 26 b0 a7 3e d4 85 17 3f
       0.42223614 0.25858942 0.32751578 0.5918858
0001c0 2e 1f 82 3d 7c 11 8d 3e e2 04 b6 3c bd d9 8f 3e
       0.06353603 0.27552402 0.022219125 0.2809581
0001d0 0b 22 4d bf 06 31 14 bf 12 93 16 be 30 d1 73 bd
       -0.8013007 -0.57887304 -0.1470454 -0.05952567
0001e0 9e 7e 80 3e 7d 9c 10 be 90 bf d2 3e eb 1f 67 3d
       0.250966 -0.14122196 0.41161776 0.056426924
0001f0 dc 8b a0 be 51 68 0c bf 85 03 1b 3f c5 22 9d 3e
       -0.31356704 -0.54846674 0.60552245 0.3069059
000200 32 e4 23 be 6d 7e 97 be 5d b2 e6 bd b1 97 2b be
       -0.16005018 -0.29588643 -0.11264489 -0.16757084
000210 56 69 f4 3e 6c 63 4f bd 2b 0b 9a be ca 7c 2c 3e
       0.47736615 -0.050631925 -0.30086645 0.16844478
000220 cc c4 84 3e 23 9c 2a 3e 05 a9 c3 be 1a 46 2e be
       0.25931394 0.16661124 -0.3821489 -0.17018929
000230 72 3d 0e be 79 2b 8e 3e e6 4b 0d bf c0 66 10 3f
       -0.13890627 0.27767542 -0.55193937 0.56406784
000240 0e 98 a4 bd 28 23 dd be 76 07 56 bf 56 97 c6 3d
       -0.08036815 -0.43190885 -0.83605134 0.09696834
000250 20 c3 8d be e0 61 8b 3e cb 94 27 3e c2 65 45 be
       -0.2768793 0.2722311 0.16365354 -0.19277099
000260 56 0d fb be f2 66 80 3e 69 36 53 3d 3a a6 b6 3c
       -0.49033612 0.2507854 0.05156556 0.02229606
000270 02 e1 c0 bd 79 9d b3 3e e6 a0 93 be e1 b1 a2 3e
       -0.09417917 0.3508108 -0.28833693 0.31776336
000280 b9 43 c5 bd 15 cc f8 be 45 2a ac bd aa eb e6 bd
       -0.09632058 -0.48593202 -0.084065 -0.11275418
000290 ef 1b 82 be 49 71 30 be 9f c6 08 3e 79 c8 93 3e
       -0.25411937 -0.17230715 0.13357018 0.28863886
0002a0 5e f4 45 3e 8e 49 fb be 75 1f 9d bc e9 06 f9 3d
       0.193315 -0.49079555 -0.019180039 0.12159521
0002b0 5d 2a 98 bc 2f a1 88 3e 95 74 87 bd 81 f0 60 3e
       -0.018574888 0.26685473 -0.06614033 0.21966745
0002c0 7e 6f 7c 3e 00 7f 9a 3e 0f eb 78 be fb b2 df be
       0.24651906 0.30175018 -0.24308418 -0.4369124
0002d0 da c6 5e bf f9 de 03 3e cc c3 db 3e d1 ca 60 3f
       -0.87022173 0.12878026 0.4292282 0.87809473
0002e0 c5 86 f6 bf 0b 5d 39 bf c7 ae 88 bf be a1 a4 be
       -1.9259878 -0.724076 -1.0678338 -0.3215465
0002f0 d6 6e a3 3e af ad 55 bd 98 8c e6 bd 35 c7 f6 3f
       0.319205 -0.05216759 -0.11257285 1.9279543
000300 a8 66 f4 bd 3b c1 16 bf 9e 5b a5 bf f1 36 59 3f
       -0.119336426 -0.58888596 -1.2918584 0.8484946
000310 b2 ca fe 3e 0f 1a ea bd c6 e9 2f 3f c8 a5 8c 3e
       0.4976402 -0.114307515 0.68716085 0.2747023
000320 7b 10 ce bc f9 49 d8 3e d0 a2 ba bd 9c e3 41 3e
       -0.025154343 0.42243937 -0.09113085 0.18934482
000330 ce ac 27 be e4 78 ef bd 4e e1 85 be 18 d5 6b 3e
       -0.16374514 -0.1169298 -0.26148456 0.23030508
000340 25 72 04 bf 2c 3e 02 3f 96 94 89 3e b8 6a 73 be
       -0.5173667 0.50876117 0.26871175 -0.23771179
000350 72 8b 06 bf 25 c3 89 bc 15 55 95 bd 33 60 b7 bd
       -0.52556527 -0.016816685 -0.07291619 -0.089538954
000360 ab 9d d6 be 2b 8e af 3e 3b a9 5f bf 46 ed 19 3e
       -0.41917166 0.34288153 -0.873676 0.15031919
000370 97 e5 fb 3d ba 89 67 be e2 16 a3 be ec 37 ee be
       0.1229965 -0.22611132 -0.31853396 -0.4652704
000380 e3 a7 10 3d 78 59 01 3d af 03 93 3e a7 ce b2 be
       0.03531636 0.031579465 0.28713748 -0.34923288
000390 52 03 8d be 55 aa ed bc 9b ef 4e be 63 3f 5c 3e
       -0.27541596 -0.029011885 -0.2020859 0.21508555
0003a0 4b 0d 7f 3e 17 ab 80 bd c9 24 85 bd 5d c1 1f be
       0.24907415 -0.06282633 -0.06501157 -0.15601106
0003b0 d6 8e fd 3e a4 98 47 be fe 88 9a 3e 05 42 44 3e
       0.49523038 -0.19491822 0.30182642 0.1916581
0003c0 79 c2 f6 bd be e1 d9 3e 78 ef 80 3f 61 ca 3c be
       -0.120488115 0.4255504 1.007308 -0.18436576
0003d0 7e 6c 31 be 02 f8 88 be 3e 03 ff bd 1a c7 ac 3e
       -0.17326543 -0.26751715 -0.1245179 0.33745652
0003e0 48 6c 02 bf 2f 64 ee 3e ac 89 19 3e 92 09 14 bf
       -0.50946474 0.4656081 0.14993924 -0.57827103
0003f0 3f d0 cc be f4 0a 99 3d 81 40 3e be d0 6e 87 be
       -0.4000263 0.07472792 -0.18579294 -0.2645173
