lif_results/checkpoints_full_20.0_5e-13_100_0.001_0.1_linear_euler_100_2/best-Conn_Pop0_Pop1-weight.npy (npy, 716928 bytes, 1 tensors)

array f4 [179200]
0	0xbddb11ca	-0.10696752
1	0x3eade004	0.33959973
2	0x3facc050	1.3496189
3	0x3fc936e8	1.5719881
4	0x3fc77591	1.5582753
5	0xbf504fa4	-0.8137152
6	0x3f34c7c1	0.706173
7	0x3ddb0505	0.10694317
8	0xbfebe259	-1.8428451
9	0xbf65b54e	-0.89729774
10	0x3d9c0c6d	0.076195575
11	0xbfb742d8	-1.4317274
12	0x3f3f4cd5	0.7472661
13	0x3d5bbbd5	0.053645927
14	0x3ee6c98e	0.4507565
15	0xc0079554	-2.1184893
16	0x3f739755	0.9515279
17	0xbff4f4a1	-1.9137155
18	0xbe35bae4	-0.17747074
19	0xbf899795	-1.0749384
20	0x3f9cb651	1.2243139
21	0xbf039e8b	-0.5141379
22	0xbf456954	-0.7711384
23	0x3f84dc6f	1.0379771
24	0x3f586d62	0.84541905
25	0x3f8d4b66	1.1038635
26	0xbdc4176c	-0.0957478
27	0xbfd26b66	-1.6439025
28	0xbea14546	-0.31498164
29	0x3ed92e12	0.4241796
30	0x3e2cca2e	0.16874
31	0x3ecc6e13	0.3992773
32	0x3e80fbc2	0.25192076
33	0xbf83b22c	-1.0288749
34	0xbf0afdac	-0.5429332
35	0x3ec113cf	0.37710425
36	0x3f04a310	0.51811314
37	0x3fc94b12	1.5726035
38	0xbf2de29a	-0.6792389
39	0xbdb98550	-0.090586305
40	0xbfdce275	-1.7256609
41	0xbe78aad6	-0.24283919
42	0xbf1d7e80	-0.6152115
43	0xbe9ea819	-0.30987623
44	0x3ff30dca	1.8988583
45	0xbf56d19a	-0.83913577
46	0xbfb7bd99	-1.4354736
47	0xbf557f12	-0.8339702
48	0xbfb65908	-1.424592
49	0xbf88cae9	-1.0686923
50	0xbd9e5700	-0.07731438
51	0xbf07e834	-0.5308869
52	0xbf32e2c2	-0.69877255
53	0x3f86347b	1.0484766
54	0x3fd53899	1.6657897
55	0xbd6cd5f3	-0.057821225
56	0xbfbe151e	-1.4850194
57	0xc0009581	-2.009125
58	0xbe5fcd80	-0.21855736
59	0xbe9ef48e	-0.31045955
60	0xbef07963	-0.4696761
61	0x3f606613	0.8765575
62	0xbfad8183	-1.3555149
63	0x3fc01b98	1.5008421
64	0xbf8ad576	-1.0846393
65	0x3fdb62bc	1.7139506
66	0x3e092b94	0.1339553
67	0xbee53d94	-0.44773543
68	0xbeeb2cb6	-0.4593255
69	0x3fcc6926	1.5969589
70	0xbfaccd02	-1.3500063
71	0xbeaac802	-0.3335572
72	0x3eecb20d	0.46229592
73	0xbf86f7f2	-1.0544417
74	0x3e44fc77	0.19236933
75	0xbdd36554	-0.10322061
76	0xbf64918e	-0.892846
77	0xbe2fb04f	-0.171571
78	0x3f500ac9	0.81266457
79	0x3e8d5957	0.27607223
80	0x3f1310b9	0.5744739
81	0xbfeb97a2	-1.840565
82	0xbebdfbed	-0.37106267
83	0x3e4e4837	0.20144735
84	0xbea3fa9a	-0.3202713
85	0xbfc74807	-1.5568856
86	0xbf0e9035	-0.5568879
87	0xbecededd	-0.40404406
88	0x3fe6f471	1.8043348
89	0x3ddc215c	0.1074855
90	0x3d7a9a6f	0.061182436
91	0xbf000092	-0.5000087
92	0xbf16766b	-0.5877444
93	0x3e1fc406	0.15602121
94	0x3fb2a9ce	1.395807
95	0xbdefabc8	-0.117026865
96	0xbdf79743	-0.12089398
97	0xbec6be2f	-0.38816974
98	0x3ebb48c6	0.3657896
99	0xbfd1bf3d	-1.6386486
100	0x3fc3be1a	1.5292389
101	0xbfece445	-1.8507162
102	0xbf5a323a	-0.8523289
103	0x3fad86b3	1.3556732
104	0x3fb6bcd2	1.4276373
105	0xbea08edf	-0.31359002
106	0x3f2dcf05	0.6789401
107	0x3f883d23	1.0643657
108	0xbefff8a6	-0.4999439
109	0x3f6d6152	0.92726624
110	0xbff4884b	-1.9104093
111	0xbec06ced	-0.37583104
112	0xbfb9c69e	-1.4513738
113	0xbe1b43b3	-0.15162544
114	0x3ddb6fda	0.10714693
115	0xbce74ed5	-0.028235832
116	0x3fedd001	1.8579103
117	0x3e36aaab	0.17838542
118	0x40728e82	3.789948
119	0x3c8041ed	0.015656436
120	0x3fd5ff8f	1.6718615
121	0xbf4fbf7a	-0.81151545
122	0xbfad4962	-1.353802
123	0xbfc64337	-1.5489262
124	0xbf55f073	-0.8357002
125	0xbf0027b5	-0.5006059
126	0xbdfae532	-0.12250747
127	0xbddf05f5	-0.10889808
128	0xbf036cb5	-0.5133775
129	0xbff9239a	-1.946399
130	0x3fa0f6ca	1.2575314
131	0xc02facbb	-2.7449176
132	0xbe52bcc5	-0.20579822
133	0x3fff84e6	1.9962432
134	0x3f8a5b52	1.0809119
135	0xbedd5c1d	-0.4323434
136	0x3f012b64	0.50456834
137	0xbf9f7af8	-1.2459402
138	0x3fd94d7d	1.6976773
139	0x3fb46017	1.4091824
140	0xbd9060bc	-0.070497006
141	0x4017a171	2.3692286
142	0x3f72adf8	0.94796705
143	0xbd158f4d	-0.036513615
144	0x3ef6ffc9	0.48242024
145	0xbd918f40	-0.07107401
146	0x3fccf38f	1.6011828
147	0xc002fe97	-2.046789
148	0x3fec36f7	1.8454274
149	0x3f2dac2d	0.67840844
150	0xbfe96510	-1.8233967
151	0x3f4e9905	0.8070224
152	0xbeb462d2	-0.35231644
153	0x3f1fd297	0.6243071
154	0xbee547ae	-0.4478125
155	0x3e02838b	0.12745492
156	0x3ea25063	0.31701955
157	0x400098e1	2.009331
158	0xbf7aae02	-0.97921765
159	0xbe9610f2	-0.29309803
160	0x3e040069	0.12890781
161	0x401f1532	2.4856687
162	0x3f9539c0	1.1658249
163	0x3f5b550f	0.85676664
164	0xbf855d78	-1.0419149
165	0x3db82a9b	0.08992501
166	0x4029a023	2.650399
167	0xc0148222	-2.3204427
168	0x3f93d566	1.1549499
169	0xbd96914a	-0.073519304
170	0x3e2b4933	0.16727142
171	0x3e4e1b04	0.20127493
172	0xbecc2b39	-0.39876726
173	0xbd5b82a7	-0.053591397
174	0x3e99ff7e	0.30077738
175	0xbcefb503	-0.029261118
176	0x3f70e72b	0.94102734
177	0xbf3e1ddf	-0.7426433
178	0x3eeb0384	0.4590112
179	0x3ead3de0	0.3383627
180	0x3fc3e9f1	1.5305768
181	0xbf54e452	-0.8316089
182	0xc000b48e	-2.0110202
183	0x3ed833ad	0.42226925
184	0x3f6071e8	0.8767381
185	0xbe72ff64	-0.23730236
186	0xbe5edab8	-0.21763122
187	0xbeb6bc88	-0.35690713
188	0x3f2c2722	0.6724721
189	0x3df4b369	0.11948282
190	0x3e12c64f	0.14333461
191	0x3e93319b	0.28748783
192	0xbfcb34a4	-1.587544
193	0xbf1c10b4	-0.60962987
194	0xbfee2e7b	-1.8607935
195	0xbf5fec4c	-0.87469935
196	0xbf8c3fb5	-1.0956942
197	0xbf9bea33	-1.2180847
198	0x3ed77716	0.42083043
199	0xbf31e1c7	-0.69485134
200	0xbfd536c6	-1.665734
201	0x40257eab	2.5858562
202	0xbfc2c223	-1.5215496
203	0x3e63eb62	0.2225776
204	0x3cdfc5c0	0.027315974
205	0xc01f650a	-2.490542
206	0xbf59f1c5	-0.85134536
207	0x3f352652	0.707616
208	0xbf262476	-0.64899385
209	0xbffd9cb7	-1.981345
210	0x3fd286ac	1.6447349
211	0xbf6618e1	-0.8988171
212	0xbfaeef55	-1.3666788
213	0xbf394b7a	-0.72380793
214	0xbec37ca4	-0.3818103
215	0xbf6e515d	-0.930929
216	0x3f090367	0.53520817
217	0xbf8b4e08	-1.0883188
218	0x3efef509	0.49796322
219	0x3f00d039	0.5031772
220	0xbeb93301	-0.36171725
221	0x3e082a59	0.13297404
222	0x3e7c468e	0.2463629
223	0xbf0adffa	-0.5424801
224	0x3ee7ff6b	0.45312056
225	0xbfbbfb89	-1.4686137
226	0xbfbe55a1	-1.4869882
227	0xc00d2223	-2.2052085
228	0x3dd5e342	0.104437366
229	0xbfbf2b04	-1.4935002
230	0x3ead2655	0.33818308
231	0xc0034b11	-2.0514567
232	0x3dc40e3a	0.09573026
233	0x3ea5c45b	0.3237637
234	0x3f8ef6dd	1.1169087
235	0xbeee2133	-0.46509704
236	0xbfaf7cc9	-1.3709956
237	0x3f83af5b	1.0287889
238	0x3f96545a	1.1744492
239	0xbe82a905	-0.25519577
240	0x3f5a362b	0.85238904
241	0x403c86a0	2.9457169
242	0x3ea00c93	0.31259593
243	0xbeb1f149	-0.34754398
244	0x3f234f60	0.6379299
245	0xbec97945	-0.39350334
246	0x3f822276	1.0166767
247	0xbc9f4020	-0.019439757
248	0x3f28c93b	0.65932053
249	0x400b0c5e	2.1726298
250	0x3f8445aa	1.033376
251	0xbf3728af	-0.71546453
252	0xbf64a4bd	-0.8931387
253	0x3d7eb8cf	0.062187966
254	0x3fb70d38	1.4300909
255	0x3fc2922d	1.5200859
