raf_results/checkpoints_full_0.1_-1.0_0.0045_-0.0007_5e-12_100_0.001_0.01_0.01_linear_euler_100_6/best-Conn_Pop0_Pop1-weight.npy (npy, 716928 bytes, 1 tensors)

array f4 [179200]
000000 14 b9 ee bd f9 6b 74 be 95 52 65 bd 60 55 3f bf
       -0.116563946 -0.23869313 -0.05598696 -0.74739647
000010 99 94 05 3c 47 7e 92 bd 63 4d 3d be 3a 0b 9b 3d
       0.008153104 -0.07152992 -0.18486552 0.07570501
000020 63 e5 b7 be c4 97 b8 be 7b c0 fc be a7 6d 21 be
       -0.35917196 -0.36053288 -0.493656 -0.15764485
000030 5a 04 0d 3d a3 0e 14 be 6a e8 05 bd 60 88 d8 3e
       0.034427978 -0.14458708 -0.03269235 0.42291546
000040 93 84 d6 3d 6c ef c0 be 23 52 72 be 84 b7 80 3e
       0.10474505 -0.37682664 -0.23664145 0.2514001
000050 e5 af 07 bf c8 27 69 bc 83 db b6 be c6 63 d6 3c
       -0.5300277 -0.014230676 -0.3571435 0.026170623
000060 03 3b fd be 1e 9b 08 3c b1 fb f1 3c 60 d4 2a be
       -0.49459085 0.008337764 0.029538961 -0.16682577
000070 4a 43 f8 be ab 78 13 3e 29 05 90 3e d2 8d b3 3e
       -0.48488837 0.144015 0.28128937 0.35069138
000080 2e df 92 be 03 44 e9 be e8 8c 9b 3e b8 4d f1 be
       -0.28685898 -0.455597 0.3038094 -0.47129607
000090 e3 fe fb 3c 63 3e 53 3e ef b7 0f be 1a 2b c2 be
       0.030761188 0.20629267 -0.14035009 -0.3792351
0000a0 8b d4 ae bd 98 56 ad bd 6f 3a 98 be 21 d0 91 3d
       -0.08536633 -0.08463782 -0.2973208 0.071197756
0000b0 e9 ca 7f bd 1b 8f 1a be b3 59 c3 3e b8 7f e9 be
       -0.06244937 -0.15093653 0.38154373 -0.45605254
0000c0 b3 6d 6c be 8c ee 71 bc f9 69 d3 bd 09 b3 36 be
       -0.23088722 -0.014766347 -0.10322947 -0.17841734
0000d0 d9 cd aa bd be 29 73 bd 3d ef 99 be d1 9d fd be
       -0.083400436 -0.05936598 -0.30065337 -0.49534467
0000e0 a5 2e 09 bf c9 36 10 bf 95 0b 9a 3d ef b9 f2 be
       -0.535868 -0.56333596 0.0752174 -0.4740748
0000f0 f1 5c 31 be b4 bf 32 bf 8d 25 09 3e 1d be 48 3d
       -0.1732061 -0.69823766 0.1339323 0.04900943
000100 85 04 63 3e b8 ba af be 76 ee c8 be 14 49 2a be
       0.22169693 -0.34322143 -0.3924443 -0.1662944
000110 33 00 ce be 16 c5 de be 00 32 e9 be 9d 54 9f 3e
       -0.40234527 -0.4350974 -0.4554596 0.31119242
000120 56 09 7a be 7d 51 c5 be c5 2f 77 bd f0 09 71 3e
       -0.24417624 -0.38538733 -0.06034829 0.23538947
000130 83 9b 32 be dd 86 70 bd 60 ef 21 bf e3 78 f4 be
       -0.17442136 -0.058722366 -0.6325588 -0.4774848
000140 5b cf c0 be e1 a3 8d be 0d 6d 63 bd 33 b1 c5 3d
       -0.376582 -0.27664092 -0.05552392 0.09652939
000150 08 58 47 3d bd a9 1c bd 3b 9e 5c be 7c 05 67 bd
       0.048667938 -0.038247813 -0.21544735 -0.056401715
000160 be 29 9d be c8 24 90 be 8a 45 98 be 5d c7 68 be
       -0.3069591 -0.28153062 -0.29740554 -0.22732301
000170 e2 48 87 bc f6 4f 4d bf b6 2c bf be 38 ab 9a be
       -0.016514245 -0.80200136 -0.373388 -0.30208755
000180 36 6c ba be ba 77 1d 3e b4 0c 08 bf 9e 07 cc be
       -0.36410683 0.15377703 -0.53144383 -0.3984956
000190 fa f9 c9 be da 16 eb 3e 5f 96 bb be c0 5d af bc
       -0.3944853 0.45915872 -0.36638162 -0.021407008
0001a0 78 cb 68 be 69 cc 94 be 8b 38 75 3e 63 2d b4 bd
       -0.22733867 -0.29062203 0.2394735 -0.08797719
0001b0 6a af 61 3d 27 b2 b3 be 9d 98 69 be 14 91 2b bd
       0.05509893 -0.35096857 -0.22812124 -0.041886404
0001c0 49 0b a7 be 13 ea 0a be f0 b7 0a be 3d 3b f7 be
       -0.32625797 -0.13565855 -0.13546729 -0.48287383
0001d0 fc d2 f7 be 42 aa fb bd 3b 78 0d bf 51 0d 41 be
       -0.48403156 -0.122883335 -0.5526158 -0.18852736
0001e0 0c 04 1f be 59 49 67 be ca 46 e1 bd 2c d4 06 be
       -0.15528888 -0.22586574 -0.1099983 -0.13166875
0001f0 4e d9 85 be d8 98 0b bf 14 8c ad be 65 8b 27 3e
       -0.26142353 -0.54530096 -0.33895934 0.16361769
000200 d4 ff 02 3e 29 01 db be da 23 ed be 09 b6 48 be
       0.12792903 -0.42774323 -0.46316415 -0.19600691
000210 a2 97 fe bc a2 5f 98 be c2 7a 0c bf f6 c5 e5 3d
       -0.031078164 -0.29760462 -0.54874814 0.11219399
000220 58 47 5e be 60 99 5e be 0b 63 e8 be 2c 49 9b 3e
       -0.21706903 -0.21738195 -0.45388064 0.30329263
000230 0e 0d 72 3e 81 81 bc be dd 42 09 3e 53 5b dd be
       0.23637792 -0.36817554 0.13404413 -0.43233737
000240 4b 84 b5 3d 3f 9e 3c be 23 46 c2 3e 9c e1 88 3c
       0.088631235 -0.18419741 0.37944135 0.016709141
000250 84 15 70 be db 38 ed 3c 4d 8a b0 be 8b 4e 16 bf
       -0.23445708 0.028957775 -0.34480515 -0.587136
000260 49 8f 97 be 63 fc a3 3d 4c f8 07 be e4 32 0a bf
       -0.29601505 0.08007123 -0.13278311 -0.539839
000270 72 0d 78 be 31 1f 23 bf 66 04 e1 3d f9 f1 c4 be
       -0.24223879 -0.6371947 0.10987167 -0.3846586
000280 ea 3e 70 3e de 8c 86 be 68 de 67 be 39 cb d9 be
       0.234615 -0.26279348 -0.22643435 -0.4253786
000290 94 1b 23 be 1f 69 20 be a7 60 be be e7 3c 6b 3d
       -0.15928489 -0.156651 -0.37183115 0.057431128
0002a0 b2 dc 97 3b e3 e8 92 3d d2 48 01 be 92 0c ec be
       0.004634463 0.07173326 -0.12625435 -0.4610334
0002b0 48 2f b9 bd 9c cf 43 be d3 88 1d bf 03 be 5a be
       -0.09042221 -0.19122165 -0.615369 -0.21361546
0002c0 5b 46 9a be c6 72 34 be 94 0c 23 be 54 f1 4d bd
       -0.30131802 -0.17621908 -0.15922767 -0.050278977
0002d0 95 66 cb bd fa 59 91 be 24 b9 c0 be be 51 f6 be
       -0.09931675 -0.2838896 -0.3764125 -0.4810924
0002e0 f5 71 eb 3e 69 b0 b9 bd ce 82 ab be f5 8a c1 be
       0.4598538 -0.09066851 -0.33498234 -0.37801328
0002f0 c4 1d b4 3d 9e ba 7b be 04 16 2e be 2f 94 48 3d
       0.0879474 -0.24582908 -0.17000586 0.048969444
000300 cd 3a 9b be c2 f2 23 bf bb 2c 18 be 7c 19 c1 3e
       -0.303183 -0.64042294 -0.14860813 0.37714756
000310 29 bc e9 be ec 99 b4 bd a8 83 f6 bc 16 dd b8 be
       -0.45651367 -0.08818421 -0.030092075 -0.36106175
000320 61 05 1a 3e 04 f9 96 bd b8 82 3c 3e 75 5b 7f bc
       0.15041114 -0.07371715 0.1840924 -0.01558577
000330 b9 96 88 be be 52 99 bd 89 6b 28 3e cd af 32 be
       -0.26677492 -0.07486485 0.16447271 -0.17449875
000340 34 9c 4c 3e 3e c5 2e be c0 42 53 bd db 3b 26 3d
       0.19981462 -0.1706743 -0.05157733 0.040584426
000350 e6 e9 ca 3e 0a 8a 57 be 7a f4 3b be 06 6e 5a be
       0.39631575 -0.21048751 -0.18354979 -0.21331033
000360 ec fc ea be 92 58 87 be 03 9d 28 bb f5 2f c8 be
       -0.4589609 -0.2643476 -0.0025728352 -0.39099088
000370 ae df 95 be be 29 64 3e b8 1b fd 3b d0 06 67 be
       -0.29272217 0.22281548 0.0077242516 -0.22561193
000380 f5 e0 9a be fa c4 bc be 68 0e 1b 3c 4c 22 c9 3d
       -0.30249754 -0.3686903 0.009463884 0.09820995
000390 cd 3f 8e 3f a9 3d c0 3d 6b d7 2f 3e c1 0e c1 be
       1.111322 0.09386761 0.17172019 -0.3770657
0003a0 64 58 6e be c1 37 5b 3e 52 c5 27 3e 13 06 5b be
       -0.23275906 0.21407987 0.16383865 -0.21389036
0003b0 b6 90 b7 3c 06 79 85 be 53 25 99 be c7 42 8c 3e
       0.02240787 -0.26068896 -0.2991129 0.27394697
0003c0 e9 19 86 be 3c 88 d1 bc 06 f9 da 3d 71 6e a0 be
       -0.26191643 -0.025577657 0.10692029 -0.3133426
0003d0 2c 06 e5 be 35 58 f0 be 9b 4a 18 3d 4c 0b 08 be
       -0.4473127 -0.46942297 0.037180524 -0.1328556
0003e0 05 97 92 3e 6b 48 4c 3e a0 7c d4 be d2 48 13 bf
       0.28630844 0.199495 -0.4150133 -0.5753299
0003f0 80 7b 13 3c 4c 76 bd 3c 67 fb 93 3e 5c 09 b2 be
       0.009001613 0.023127697 0.28902742 -0.34772766
