raf_results/checkpoints_full_0.1_-1.0_0.0045_-0.0007_5e-12_100_0.001_0.01_0.01_linear_euler_100_4/best-Conn_Pop1_Pop2-weight.npy (npy, 20608 bytes, 1 tensors)

array f4 [5120]
0	0x3bbf66f4	0.0058411304
1	0xbea568e6	-0.32306594
2	0x3dade92d	0.084917404
3	0x3e388300	0.18018723
4	0x3ee01999	0.4376953
5	0x3e20c213	0.15699033
6	0x3ccf4b3d	0.025304431
7	0x3d7abd52	0.061215706
8	0x3ed24583	0.41068658
9	0xbee603de	-0.44924825
10	0x3db75e00	0.08953476
11	0x3e876692	0.26445442
12	0xbec8fc25	-0.3925487
13	0x3ccf5707	0.025310053
14	0xbc0f49e4	-0.008745644
15	0x3ea867b2	0.32891613
16	0xbe8d6da4	-0.27622712
17	0xbf09046f	-0.5352239
18	0x3e894183	0.26807794
19	0xbe82a9bb	-0.2552012
20	0x3cfdc676	0.030978423
21	0xbf46ca72	-0.7765266
22	0x3e8cf9de	0.27534384
23	0xbe126504	-0.14296347
24	0xbeafe1fd	-0.34352103
25	0xbdc5c9c6	-0.09657626
26	0x3f0d0777	0.55089515
27	0x3edb57c0	0.42840385
28	0x3e50ed9d	0.20403142
29	0xbf333970	-0.7000952
30	0xbe7e9e88	-0.24865162
31	0xbd9f619f	-0.077822916
32	0xbe9af1c7	-0.30262586
33	0xbda790ef	-0.08181941
34	0xbc816201	-0.015793802
35	0x3e8aa1a3	0.27076444
36	0x3e634296	0.2219337
37	0x3e846473	0.25857887
38	0x3edfd98e	0.4372067
39	0xbeb8fcf4	-0.36130488
40	0xbe00f505	-0.12593468
41	0xbdc0485d	-0.09388802
42	0xbd825a27	-0.063648514
43	0x3d50af87	0.050948646
44	0xbe9928f4	-0.29914057
45	0x3ee2351f	0.44181153
46	0x3e396764	0.18105847
47	0xbe08504c	-0.13311881
48	0x3f7906e9	0.9727617
49	0x3eb9b3ef	0.3627009
50	0xbdd4d5bc	-0.10392329
51	0xbf64b7e4	-0.89343095
52	0xbcfae893	-0.030628478
53	0xbe70ef65	-0.23528822
54	0x3dbf1c7e	0.09331606
55	0x3dbb5547	0.09147125
56	0xbe5c4a31	-0.21512677
57	0x3dccf268	0.10007173
58	0x3e0b2208	0.135872
59	0xbd75f40b	-0.06004719
60	0x3e94f8c9	0.29096058
61	0x3e51fb37	0.20505987
62	0x3f194d8a	0.5988394
63	0x3f381525	0.71907264
64	0xbf1d43a9	-0.61431366
65	0xbfa40f94	-1.2817254
66	0x3f08e68d	0.5347679
67	0xbe4055d5	-0.18782742
68	0xbe41c3bc	-0.18922323
69	0xbe49828a	-0.19678703
70	0x3f230f08	0.6369481
71	0xbe899daf	-0.26878116
72	0x3dcea3c7	0.10089832
73	0xbf947042	-1.1596758
74	0xbdc1036a	-0.09424479
75	0xbe3d0698	-0.18459547
76	0xbe1ad96a	-0.15122
77	0x3f16577d	0.58727247
78	0xbeed4bdb	-0.46346936
79	0x3e999f6a	0.30004436
80	0x3e83a9fc	0.25715625
81	0x3e27d10a	0.16388336
82	0xbdf97f1b	-0.121824466
83	0x3e990d6f	0.29893062
84	0x3ddd2d58	0.10799664
85	0xbe33cef4	-0.17559415
86	0x3dee89e2	0.11647393
87	0x3b44050b	0.0029910232
88	0xbf865bad	-1.0496727
89	0x3e89f234	0.269426
90	0xbe8868c0	-0.26642418
91	0xbf0f0de0	-0.55880547
92	0x3ede1ec3	0.43382844
93	0xbf04dcbd	-0.5189932
94	0x3e2c5c1d	0.16832013
95	0xbea3c2fb	-0.31984696
96	0x3e734759	0.23757686
97	0x3ba8e5fb	0.005154369
98	0xbf4ecbc7	-0.8077969
99	0x3e478618	0.19484746
100	0xbfa3aaee	-1.2786539
101	0xbeb8119e	-0.3595094
102	0xbf49e24b	-0.7886092
103	0xbf771766	-0.9652008
104	0xbf3f2abd	-0.7467459
105	0x3ec80cf2	0.39072376
106	0xbc8978bd	-0.016781205
107	0xbf3f439f	-0.74712557
108	0x3f3dc866	0.7413391
109	0x3f37e846	0.71838796
110	0xbf7e1bc9	-0.99261147
111	0xbf193c90	-0.59858036
112	0x3ed0f360	0.4081068
113	0x3eff0ba2	0.49813563
114	0xbf820707	-1.0158395
115	0xbdb3437f	-0.08753108
116	0x3f2fa91b	0.6861741
117	0x3f7154c9	0.94269997
118	0x3fa2b7e8	1.2712374
119	0x3ddbce9b	0.10732766
120	0x3edc7eda	0.4306553
121	0x3e3b587e	0.18295476
122	0xbe385eb8	-0.18004882
123	0x3e7e2f26	0.24822673
124	0x3dac3876	0.084092066
125	0xbd98a52b	-0.07453378
126	0xbf35fb35	-0.71086437
127	0x3e49943e	0.19685456
128	0xbf0475d6	-0.51742303
129	0x3e5e4d64	0.2170921
130	0x3d696d5c	0.05698906
131	0xbe8c468d	-0.27397576
132	0xbe96e978	-0.29474998
133	0x3e233cfe	0.15941235
134	0xbe0ea250	-0.13929105
135	0xbe36491e	-0.1780133
136	0xbea5ed6c	-0.324077
137	0x3ec488ef	0.38385722
138	0xbe5d04c1	-0.21583845
139	0x3d677a04	0.056512848
140	0xbbca9bca	-0.0061831223
141	0x3d2b4de3	0.041822325
142	0x3e919955	0.28437296
143	0x3e877ca8	0.26462293
144	0xbe289493	-0.16462927
145	0xbf2d88f1	-0.6778708
146	0x3d87c0d5	0.06628577
147	0x3d7050b9	0.058670733
148	0xbe65c786	-0.22439393
149	0x3e47dddf	0.19518231
150	0x3e2f41eb	0.1711499
151	0xbf4e0a74	-0.804847
152	0xbeebc0b8	-0.4604547
153	0xbf3c7528	-0.73616266
154	0x3ec55512	0.38541466
155	0xbe25c5c4	-0.16188723
156	0x3f0f21b1	0.55910784
157	0x3e8f4c10	0.2798772
158	0xbe7afc7f	-0.24510382
159	0x3eae0815	0.3399054
160	0xbf6dc2da	-0.92875445
161	0x3f01bc84	0.50678277
162	0xbf26aa15	-0.65103275
163	0xbeea1787	-0.45721075
164	0xbf085200	-0.5325012
165	0x3db09497	0.08622091
166	0x3e4fdd6c	0.2029931
167	0xbf41cdd7	-0.7570471
168	0x3f3a79b7	0.7284197
169	0xbd59ac9c	-0.05314313
170	0xbe59afa6	-0.21258411
171	0xbf597828	-0.8494897
172	0x3e031f77	0.12804972
173	0x3ee9e4d6	0.456824
174	0xbeccfbe3	-0.40035924
175	0x3db490d0	0.08816683
176	0x3eca3f7a	0.39501554
177	0x3f5fb110	0.8737955
178	0x3f26f9eb	0.65225095
179	0x3e01054c	0.12599677
180	0x3f107dae	0.5644177
181	0x3edaf455	0.42764536
182	0xbc6c0abd	-0.014406857
183	0xbf09726f	-0.53690237
184	0xbeec1e45	-0.46116844
185	0xbf5718e4	-0.84022355
186	0x3f2a1f4d	0.6645401
187	0x3eaaf000	0.3338623
188	0xbe0d7f7c	-0.13818163
189	0xbe89c7d2	-0.26910263
190	0x3e216188	0.15759861
191	0xbf0201fb	-0.5078427
192	0x3ef57687	0.47941992
193	0xbfb807d2	-1.4377387
194	0xbedb8bd5	-0.4288012
195	0xbf8ae482	-1.0850985
196	0x3f30d26a	0.69071066
197	0x3eb9a9c2	0.36262327
198	0x3ea45080	0.32092667
199	0xba7383ae	-0.0009289336
200	0xbf25a8bc	-0.64710593
201	0xbc5c4822	-0.013444932
202	0xbf390213	-0.7226879
203	0xbed41891	-0.41424993
204	0xbe66c152	-0.22534683
205	0x3e5fd161	0.21857215
206	0xbdeadefa	-0.11468311
207	0xbf013b74	-0.50481343
208	0x3e9c0c5c	0.3047818
209	0x3efff7cf	0.4999375
210	0x3d80e00a	0.06292732
211	0xbf195829	-0.59900147
212	0x3c72259c	0.014779475
213	0x3cf24f0d	0.02957871
214	0xbe119fa3	-0.14221053
215	0xbd98fefc	-0.074705094
216	0x3ef95c91	0.48703435
217	0x3eae554e	0.34049457
218	0x3ed5b4ed	0.41739598
219	0x3d9b6ebc	0.0758948
220	0x3e157272	0.14594439
221	0xbde8c9fb	-0.1136665
222	0x3de01b1b	0.1094267
223	0xbed6787a	-0.4188879
224	0x3dd8ce13	0.105861805
225	0xbe8eabae	-0.27865356
226	0x3da90184	0.08252242
227	0xbc52eaff	-0.01287341
228	0xbee242d6	-0.44191617
229	0xbf5df794	-0.867059
230	0x3e1ede0e	0.15514395
231	0xbe9171f0	-0.2840724
232	0xbc9cbeb4	-0.019133903
233	0xbed6a8be	-0.41925615
234	0x3f1bccc9	0.6085935
235	0x3e0d89a8	0.13822043
236	0x3e9b0c5f	0.30282876
237	0x3ed91384	0.42397702
238	0x3e77d751	0.2420323
239	0xbd8a21f0	-0.06744754
240	0x3e07477f	0.13210867
241	0xbe288d93	-0.16460256
242	0x3e2784a8	0.16359198
243	0x3c773fcd	0.015090895
244	0xbf38ba24	-0.7215903
245	0x3dd41738	0.10355991
246	0x3e3b0e2e	0.18267128
247	0xbe31b32e	-0.17353508
248	0x3f4a2459	0.7896171
249	0x3f21544e	0.63019264
250	0x3ca69bbc	0.020337932
251	0xbf573f3e	-0.84080875
252	0xbddb3007	-0.1070252
253	0xbf16a8d1	-0.58851343
254	0x3e3ad566	0.18245468
255	0xbbc5b2a7	-0.00603326
