if_results/checkpoints_full_5e-12_100_0.001_linear_euler_100_2/best-Conn_Pop1_Pop2-weight.npy (npy, 20608 bytes, 1 tensors)

array f4 [5120]
0	0xbe75d3e8	-0.24006617
1	0x3da016bb	0.078168355
2	0x3e01945c	0.12654251
3	0xbd02e391	-0.031955305
4	0xbcfa2c7f	-0.030538796
5	0xbd83266d	-0.064038135
6	0x3e6ca3c2	0.23109344
7	0xbc88cdd5	-0.01669971
8	0xbd101eed	-0.035185743
9	0xbd486f7f	-0.048934456
10	0xbb11b869	-0.002223516
11	0xbd065a6c	-0.032801077
12	0xbd21e213	-0.03952224
13	0xbdcc2b1b	-0.09969159
14	0x3d5548b2	0.05207128
15	0x3e694b7b	0.227827
16	0x3d57114a	0.052506723
17	0xbc71712c	-0.014736455
18	0x3e2c837f	0.16847037
19	0x3d1fb55e	0.038991325
20	0x3e06e5a0	0.13173532
21	0x3e4e5998	0.20151365
22	0xbe30e3a8	-0.17274344
23	0xbdf62ea0	-0.12020612
24	0xbd9d3afd	-0.07677267
25	0xbe080926	-0.1328474
26	0xbed26e34	-0.41099703
27	0x3e8ca9f7	0.27473423
28	0xbe722d17	-0.23650013
29	0x3e2acc0d	0.16679402
30	0xbe134251	-0.14380766
31	0x3e0d20a6	0.13781986
32	0x3d8c133d	0.06839607
33	0x3de19f30	0.11016691
34	0xbdcaa368	-0.098944485
35	0xbeb40f7d	-0.35168067
36	0xba639abd	-0.00086824206
37	0x3ea4c4b7	0.32181332
38	0xbe953271	-0.29140046
39	0x3d20016f	0.039063867
40	0xbdf17a03	-0.1179085
41	0xbdf1dc77	-0.118096285
42	0x3e0c5c8e	0.13707182
43	0xbd849103	-0.06472971
44	0xbe135fdd	-0.14392038
45	0xbe14dce9	-0.14537396
46	0x3ea34fdb	0.31896862
47	0x3ce5b562	0.028040592
48	0x3e227940	0.15866566
49	0xbe24b252	-0.16083649
50	0x3e22a802	0.15884402
51	0x3c07709c	0.008266594
52	0xbdf85dd6	-0.12127273
53	0xbd988c84	-0.07448676
54	0xbc8e50e8	-0.017372563
55	0x3e8ebbe2	0.27877718
56	0x3e0e940f	0.13923667
57	0xbdc19d4e	-0.094538316
58	0xbd9f4178	-0.07776159
59	0xbd80d47c	-0.06290528
60	0x3d50e51c	0.050999746
61	0x3e0286d8	0.12746751
62	0xbd256f54	-0.040389374
63	0xbd4e3e11	-0.05035216
64	0xbdda00fc	-0.10644719
65	0xbe8b574b	-0.27215037
66	0xbe3a34e5	-0.1818424
67	0x3e58c327	0.21168195
68	0xbcbcbac4	-0.023038276
69	0x3d7101d3	0.05883963
70	0xbd8287e6	-0.06373577
71	0x3e7c0b12	0.24613598
72	0x3bf270df	0.007398709
73	0xbe269414	-0.16267425
74	0xbe8974e0	-0.2684698
75	0xbdd17b94	-0.10228649
76	0x3d601141	0.054703955
77	0x3e571372	0.21003512
78	0x3ab7599c	0.0013988498
79	0x3e34e285	0.17664535
80	0xbe64dcc3	-0.22349839
81	0xbce1eb25	-0.027577946
82	0x3e3e0212	0.18555477
83	0xbdd190f5	-0.102327265
84	0xbe00076b	-0.1250283
85	0xbd9193c0	-0.07108259
86	0x3edb3c87	0.42819616
87	0x3d88abcd	0.066733934
88	0x3e213fc6	0.15746984
89	0xbe1e78c0	-0.1547575
90	0x3def13fe	0.11673735
91	0xbe285cbb	-0.16441624
92	0xbdd13969	-0.10216028
93	0xbdf84c8f	-0.121239774
94	0x3c528324	0.012848649
95	0x3ea44b30	0.32088614
96	0x3dfc8e78	0.12331861
97	0xbe09e2f2	-0.13465479
98	0x3ce8133d	0.028329486
99	0x3c89ed24	0.01683671
100	0x3e9e71fb	0.30946335
101	0x3e38bfe6	0.18041953
102	0x3f064748	0.52452517
103	0x3f51371a	0.81724703
104	0xbe506127	-0.2034956
105	0xbe93618c	-0.2878536
106	0xbedc8e17	-0.43077156
107	0x3f17569d	0.59116536
108	0x3f36784e	0.7127732
109	0x3e101da6	0.1407381
110	0xbf857ec6	-1.0429313
111	0xbeb1a77a	-0.34698087
112	0xbe9f306f	-0.3109164
113	0xbe5037bb	-0.2033376
114	0x3da78232	0.0817913
115	0x3e97c4b8	0.29642272
116	0xbf3f3a99	-0.7469879
117	0xbf047d07	-0.51753277
118	0x3e792bea	0.24333158
119	0xbdc9d3a5	-0.09854821
120	0x3e9b18be	0.30292314
121	0x3e41b039	0.1891488
122	0xbe93fb93	-0.28902873
123	0xbd6be2fa	-0.05758951
124	0xbdc3083c	-0.09523055
125	0xbcc9e6d3	-0.024646198
126	0xbf296052	-0.661626
127	0x3e496c2d	0.19670172
128	0xbeed74e9	-0.46378258
129	0x3e8cb5ca	0.27482444
130	0xbe18fe1c	-0.14940685
131	0x3e83a223	0.25709638
132	0x3e5feac8	0.21866906
133	0x3e3f99ee	0.18711063
134	0xbdbf5263	-0.09341886
135	0xbf0a0693	-0.5391628
136	0xbd8fc94e	-0.07020818
137	0x3eb4c44b	0.3530601
138	0xbf36e09a	-0.71436465
139	0x3d9002f8	0.07031816
140	0xc0171ec5	-2.361253
141	0x3fd4c1e2	1.6621668
142	0xbf3976d8	-0.72446966
143	0xbf3e0568	-0.74227
144	0x400bf665	2.1869137
145	0x3fa26903	1.2688297
146	0xc01af9c5	-2.4214947
147	0xc054e03f	-3.326187
148	0xc010ddb0	-2.2635307
149	0x3ed370ae	0.41296905
150	0x3f97975e	1.1843069
151	0xbfcf5720	-1.6198463
152	0xc04885c3	-3.1331642
153	0xbfce1b8f	-1.610216
154	0x3f0b8502	0.5449983
155	0x3f7dac3c	0.99090934
156	0xbdcc1a8b	-0.09966
157	0xc008dc3c	-2.138442
158	0xbf928cbe	-1.1449201
159	0x3f9d143f	1.2271804
160	0xbe8b4697	-0.27202293
161	0x3c22a938	0.00992804
162	0x3e12b229	0.14325775
163	0xbd452bf2	-0.048137613
164	0x3d206494	0.03915842
165	0x3e1d5fd6	0.1536859
166	0x3ec69586	0.38785952
167	0xbdfa6815	-0.12226883
168	0x3e4156ea	0.18880811
169	0xbd4b8782	-0.049689777
170	0x3d94b796	0.07261579
171	0xbe5887fc	-0.21145624
172	0xbdfe1ee7	-0.12408238
173	0xbdf988c5	-0.1218429
174	0x3dbb4617	0.09144228
175	0x3e7357d8	0.23763978
176	0x3bad4b04	0.0052884836
177	0xbebff364	-0.3749038
178	0x3e75e21a	0.24012032
179	0x3d813fed	0.06311021
180	0x3d93c9b7	0.072162084
181	0xbdd6a0f9	-0.10479922
182	0xbec5fdc1	-0.3867016
183	0xbb0768de	-0.002066187
184	0x3e6f922d	0.23395605
185	0x3f21a2bc	0.6313894
186	0xbfb0fe41	-1.3827592
187	0x3e969211	0.29408315
188	0xbe1dbed8	-0.15404832
189	0x3f53f062	0.8278867
190	0x3d9d8e10	0.07693112
191	0x3ec4f98a	0.38471633
192	0xbf6a356d	-0.9148777
193	0x3e9853cb	0.2975143
194	0x3f35d7cd	0.7103241
195	0xbf508e8b	-0.81467503
196	0xbf07a9d1	-0.52993494
197	0xbfa6ba17	-1.302554
198	0xbe37db26	-0.17954692
199	0x3d570727	0.052497055
200	0x3d1af11c	0.037827596
201	0xba21f5a1	-0.0006178264
202	0x3f76db79	0.9642864
203	0x3f749a4f	0.95547956
204	0xbf2e7de7	-0.6816086
205	0xbdb05bd9	-0.086112686
206	0x3f6978de	0.91200054
207	0xbe05e8d3	-0.13077097
208	0x4004b06e	2.0732684
209	0xbf5afbb4	-0.8554032
210	0xbf740b11	-0.95329386
211	0xbed1946e	-0.40933555
212	0xbf1562bf	-0.583538
213	0xbf248d8d	-0.6427849
214	0x3e1bdbc1	0.15220548
215	0x3eb3541a	0.35025102
216	0xbf917ee8	-1.1366854
217	0x3f215b83	0.6303026
218	0xbfe1f8b9	-1.7654029
219	0xbfb49ea6	-1.4110916
220	0x3f9735da	1.1813309
221	0xbef11b42	-0.4709111
222	0x3f18b0ce	0.5964478
223	0x3f0fc984	0.56166863
224	0x3f22254c	0.6333816
225	0x3edb6484	0.42850125
226	0x3e9e0402	0.30862433
227	0x3ec4f405	0.38467422
228	0xc00e0aea	-2.2194161
229	0xbf1766f5	-0.59141475
230	0x3dcc4f54	0.09976068
231	0xc050304e	-3.2529483
232	0x3f596e5a	0.8493401
233	0xbfde37f7	-1.7360829
234	0x3efdbc83	0.49557886
235	0x3ea88e82	0.32921225
236	0xbf38e979	-0.7223125
237	0x3ef2d1f5	0.4742581
238	0xbfbbae45	-1.4662558
239	0xbf78faba	-0.9725758
240	0xbea8c38d	-0.32961693
241	0xbcf0d1c7	-0.029396905
242	0xba559898	-0.00081480434
243	0xbc838bc4	-0.016057856
244	0xbe3f1d8a	-0.18663612
245	0x3c2f5881	0.010702253
246	0x3ee55f89	0.4479945
247	0xbcb2c60f	-0.021822957
248	0x3e91b207	0.28456137
249	0xbe106126	-0.14099559
250	0xbe17ec6e	-0.14836285
251	0xbd2d76b7	-0.042349543
252	0xbdbfaafc	-0.093587846
253	0xbd989fa0	-0.07452321
254	0x3e091bbb	0.13389485
255	0x3e80b155	0.25135294
