if_results/checkpoints_full_5e-12_100_0.001_linear_euler_100_2/best-Conn_Pop0_Pop1-weight.npy (npy, 716928 bytes, 1 tensors)

array f4 [179200]
000000 a6 22 0f 40 fb 8c 51 3f 9c 22 a3 3e 23 4c a7 3f
       2.2364898 0.81855744 0.31862342 1.307011
000010 04 8b b5 3f 6d d6 bc bf 9d ad 45 3f 89 c5 d3 bf
       1.4183049 -1.4752938 0.7721804 -1.6544658
000020 b5 83 b6 3f 1a d0 12 c0 f0 c5 2e 3e 7a eb cc 3f
       1.4258944 -2.2939515 0.17067695 1.6009362
000030 60 18 95 3f d4 51 80 3f 63 c8 3c 40 45 cc 3d bf
       1.1648064 1.0024972 2.9497306 -0.74139816
000040 6e 44 62 3f bc ee 26 40 ee 02 9f be d8 79 9a bf
       0.88385665 2.6083212 -0.31056923 -1.2068434
000050 09 de 86 3d 3e 21 8e bf 37 bb 03 40 f4 58 fb 3f
       0.065853186 -1.1103895 2.0583017 1.9636521
000060 8f bf 95 bf 2c 00 65 3d 0d f1 f6 3e 0c 26 80 bf
       -1.1699084 0.055908367 0.48230782 -1.0011611
000070 b2 05 0a 3f 2d b1 87 3e bc d0 60 bf 29 00 6a bf
       0.5391494 0.26502362 -0.87818503 -0.91406494
000080 cc 0a 29 be bc 1c 86 3e bb 3a 3c be 80 4f 66 3e
       -0.16508025 0.26193798 -0.18381779 0.22491264
000090 37 77 c2 bd 99 b3 fc bf 78 fb 01 bf 52 04 e5 be
       -0.09495395 -1.9742309 -0.50774336 -0.4472986
0000a0 9f 05 85 3d 7e dc 2c 3f 28 8b 3d 40 c4 e9 1b 40
       0.06495213 0.67523944 2.9616184 2.436143
0000b0 85 9d d9 3e a6 ce 01 40 7d be f1 3e d8 9f 78 be
       0.4250299 2.0282378 0.47215644 -0.24279726
0000c0 c8 6c d3 3e d3 8d a9 bb 8e dc 99 3d b3 a5 da 3e
       0.4129393 -0.0051743775 0.075127706 0.42704543
0000d0 ca af ed 3f 0f d9 c4 3f 97 0f 4e 40 55 55 07 c0
       1.8569272 1.5378741 3.2197015 -2.1145833
0000e0 46 54 a9 3f 41 12 37 40 47 4c e0 3e d3 04 3b 40
       1.3228843 2.8604891 0.43808195 2.9221694
0000f0 9d 3e 67 3f b6 14 eb 3e 22 4e 47 3e ad f5 8f 3c
       0.90329915 0.4591424 0.19463399 0.017573202
000100 50 a0 30 40 07 d7 be 3f ac 07 22 3f 24 b0 e7 3d
       2.7597847 1.4909371 0.63292956 0.11312893
000110 ad 8e 3d 3f ab 5a 9f 3f 47 8a df 3f e9 89 56 3f
       0.7404583 1.2449545 1.7464074 0.83804184
000120 df 06 13 3f 24 94 e1 3f f0 b0 f1 bc 39 f7 f6 3f
       0.5743236 1.7623334 -0.029503316 1.9294196
000130 e9 3b 4a 3e 4b 8f 9c 3f 57 ce e2 be 66 c4 81 3f
       0.19749416 1.223123 -0.4429805 1.0138061
000140 3a 9f 58 3f d7 1e a3 3f 75 88 0d 3f fe 28 15 40
       0.8461796 1.2743787 0.5528634 2.330627
000150 70 45 85 3d 33 c1 3d bf ed e6 1e bf d7 bb 71 be
       0.06507385 -0.74122924 -0.62071115 -0.23606811
000160 78 4b 17 3f 91 1b bf 3e 89 88 07 3f 6e 8f bf 3e
       0.5909953 0.3732572 0.5294271 0.37414116
000170 8a 6f 16 3f 5f 7b 63 3e af 11 1f 3f 90 6c 76 3f
       0.58763945 0.22215031 0.6213636 0.96259403
000180 f0 1f 6e 3f ec 41 39 bf 2c b4 b5 3f 5f 1d d2 3f
       0.9301748 -0.72366214 1.4195609 1.6415213
000190 c8 ce f6 bc b1 ba 1b bf ab 40 a7 bf b2 9f e4 3f
       -0.030127898 -0.60831743 -1.306661 1.7861235
0001a0 98 9c 75 40 1a 8a 43 40 8b 59 bf bc 13 56 a9 3e
       3.8376827 3.055304 -0.023358127 0.33073482
0001b0 12 17 50 bf 02 04 eb 3e 21 bf 8d be 09 12 1c be
       -0.812852 0.45901495 -0.27684882 -0.15241255
0001c0 b4 41 41 3f 63 4b 26 40 e2 68 91 3f 22 a8 c7 bd
       0.7549088 2.5983512 1.1360133 -0.09748866
0001d0 50 6e af 3d 44 bb 03 c0 52 09 ef 3f 41 98 01 3f
       0.08565962 -2.0583048 1.8674719 0.50622946
0001e0 51 e9 8b 3f 71 26 93 3e 07 cb d2 bc 2a 36 b7 bf
       1.0930578 0.28740266 -0.025731577 -1.4313405
0001f0 d7 35 54 bf 6a 5a e7 3d fa fd c8 3d 04 7d c7 3f
       -0.82894653 0.11296542 0.09814067 1.5585027
000200 37 a2 9b 3e ff b5 e8 3d a1 00 9b 3f 19 8e 1a bf
       0.30397198 0.11362838 1.2109567 -0.60373074
000210 e4 86 da 3e 1e a5 9a 3f 4c a0 69 3d 22 79 85 3f
       0.42681038 1.208164 0.057037637 1.0427592
000220 74 d6 0c c0 6d 9b 3c be b4 4f 0f bf 85 19 15 c0
       -2.2005892 -0.18418665 -0.5598099 -2.3296826
000230 40 07 17 40 f7 b5 41 40 16 93 8b 3e 17 16 04 bf
       2.3598175 3.0267313 0.27260655 -0.51596206
000240 51 35 d7 3e ee 5e 05 bf 21 40 ac 3f 75 71 d6 3f
       0.42032865 -0.52097976 1.345707 1.6753374
000250 8b 15 66 3f d9 72 ec be 58 cc bd 3f 4b 88 85 3e
       0.8987662 -0.46181372 1.4827986 0.26080546
000260 74 5a 3a 40 54 91 21 3f a1 49 1a be 4c b3 17 40
       2.9117708 0.6311238 -0.1506715 2.3703184
000270 bc c2 44 bd f7 13 0c 40 4a 5d fb 3e b8 3c be 3f
       -0.048037276 2.1887186 0.4909461 1.486228
000280 91 73 a0 3f 65 fd 52 3e 81 86 c4 3c cb d5 6d 3f
       1.2535268 0.20604475 0.023989918 0.9290435
000290 58 2f 37 3c 3b d4 df 3f 98 5f 52 3f c7 1f 5e 3e
       0.011180721 1.7486643 0.82177114 0.2169181
0002a0 68 64 8d 3f f2 7b 18 3f 13 ae c1 be c4 d7 ac 3f
       1.1046267 0.59564126 -0.3782812 1.3503346
0002b0 f8 8f d9 3e 75 a0 33 3e e6 92 a5 3e 75 8e a6 3e
       0.42492652 0.17541678 0.32338637 0.3253056
0002c0 71 34 a6 3f 77 1e d6 3f e1 3a 3e 3f 5c f7 d6 3f
       1.2984754 1.6728047 0.7430859 1.6794238
0002d0 42 a8 ca be 75 3d df bf 35 42 03 40 b7 ef be 3e
       -0.39581496 -1.744063 2.050916 0.37292263
0002e0 04 ae 37 3f 4e 66 33 40 68 2f 4c bf fb 7f 2f 3f
       0.717499 2.8031192 -0.79759836 0.6855466
0002f0 56 47 52 3f 04 a6 33 bf 42 4a 74 3e c6 78 eb 3e
       0.821401 -0.70175195 0.23856452 0.4599058
000300 05 4c ee 3f e8 e6 16 c0 e1 04 9d 3f 71 3b d3 3f
       1.8616949 -2.3578434 1.2267114 1.6502515
000310 86 79 67 3e 6e 6d dd 3d 02 80 00 bf ac b9 2b 40
       0.22604951 0.10811888 -0.50195324 2.6832075
000320 ea ce 95 3f 98 2d 20 bf 02 be bd 3e 9a f6 91 3f
       1.170377 -0.6256957 0.37059027 1.1403382
000330 92 8f 95 3f bc e7 04 3e a9 9e 57 3f 39 e5 cd 3e
       1.1684439 0.12979025 0.8422647 0.40213946
000340 d3 cd bd 3e 92 a3 43 bf 12 df 8d bc 81 0a 5c 3f
       0.37071094 -0.76421463 -0.017318282 0.8595353
000350 00 af b0 3f 97 1c 46 3f a3 cd a7 3f e7 18 fc 3d
       1.3803406 0.77387375 1.310963 0.12309437
000360 fc 5b 1d c0 f0 4f 14 3f 25 57 8f 3f f5 de d1 3f
       -2.4587393 0.57934475 1.1198469 1.6396166
000370 e7 3e 6a be 64 4e ed 3f 79 6f 30 3f ab 5f d7 3f
       -0.22875558 1.8539548 0.68920094 1.682607
000380 a2 0c b2 3e 4b b5 0d 3f be 66 bf bf e9 6d bd 3f
       0.34775263 0.55354756 -1.495323 1.4799167
000390 a3 8a 33 3f e6 8b 7d bf d8 fb c1 3f 40 e7 c3 3f
       0.7013342 -0.99041593 1.5154982 1.5304947
0003a0 65 fa 5a bf 09 c8 23 3f 59 46 2a be ae 1e 86 bc
       -0.8553832 0.63977104 -0.16628398 -0.016372051
0003b0 12 6e ba be c8 82 93 3e 10 9e b5 3f 3f 3c 06 bd
       -0.36412102 0.28810716 1.4188862 -0.0327723
0003c0 e4 29 3b bf 4b 26 b3 3d 1b 6e 07 3f 32 9b 4b 3f
       -0.73110795 0.08747538 0.5290238 0.79533684
0003d0 cb 26 25 3f db 8f 06 40 2d 1b a3 be 7b 08 87 be
       0.6451232 2.1025302 -0.3185667 -0.26373658
0003e0 dd d0 2f 3f 25 f5 92 3f b4 a0 a7 3f c8 25 0f bd
       0.68678075 1.1481062 1.3095918 -0.03494814
0003f0 08 37 36 40 d3 1e e0 bf ae f3 5f 40 16 24 63 bd
       2.8471088 -1.7509407 3.499248 -0.055454336
