lif_results/checkpoints_full_20.0_5e-13_100_0.001_0.1_linear_euler_100_5/best-Conn_Pop1_Pop2-weight.npy (npy, 20608 bytes, 1 tensors)

array f4 [5120]
00000000: 4c6d 3abf a3bf a43e ed70 aabe d76d 513e
00000010: 7a63 a7be 005d b1bd 65a9 7e3e f752 8fbe
00000020: 1fd3 14bf b8fb d0be e9e4 0cbe 85be e63e
00000030: f6ad 513e 079b 55bf 1be5 283f ef01 8d3e
00000040: 902e 153f 2fdb 00be f01a 053f ae26 423e
00000050: 6242 693e 8b73 063e 948d 2f3e d770 66bc
00000060: 9159 ab3d 574c e83e ed17 f9bd a282 763e
00000070: aa76 03bf f79a 2e3f 504c 84be fac8 38bf
00000080: abc5 76be 7474 13bd ffbb de3d cf17 57bf
00000090: ccb1 123e 7fc8 db3d 6100 a8be e907 123e
000000a0: cbf5 8bbf ef05 f83e 9cbf 073f ba65 363f
000000b0: 6128 403f 1ddb f03e 3d55 63bf aa75 60bf
000000c0: fd95 eebf 308c 9a3f a79f 0b3f 53e8 c7be
000000d0: f6d0 7c3e a8e1 49bf 0d43 01c0 09ac 2f3f
000000e0: 16bc cc3d 64f7 4cbf f907 143f dee3 4a3e
000000f0: e500 69be 189d 4a3e 5b8d 05bf 3081 8cbf
00000100: f164 48bd 27f1 4dbe d9e2 cfbd 1d6d 3b3f
00000110: f976 51bf 671d c33c 8733 3fbf 297c bb3e
00000120: 7292 db3e 3fe3 933c e6cf 8fbe 3b8b 80be
00000130: cfc6 3c3f 7cc8 0a3c 1ea2 b83e ad80 8c3d
00000140: 31f2 e43e 470f 053f fe2d eb3d 428d 453d
00000150: 2ed4 5e3e b5ef 063f d393 8abe 80a8 e03e
00000160: 76f8 13be a923 953e 2e54 d2be 382a ffbe
00000170: 4029 c13e 3242 e7bd 4c48 67be 408e 50bf
00000180: b02b 4fbd 646c 773d 8fc9 5dbe b204 fabe
00000190: f1ff a93b 4cae 07bf d3bc 323e bf9c 63be
000001a0: 46b7 083e 39ca 8a3c bfb7 7fbc 8a05 0d3f
000001b0: 19f1 f73d c982 18bf 24fa c63e 54d5 863d
000001c0: ecd9 493e 07ae 2e3d f206 e2be 2ac2 d63d
000001d0: 9c26 cc3e 23c6 46be ce4e 3abf 60fb 6cbe
000001e0: b94b fc3e 1995 583e 7215 8dbf 53e6 31bf
000001f0: 2c52 6b3f 7ef6 de3e 6dc7 903c 6041 2e3f
00000200: fd59 063f 51ef 903d 004c 0bbf cda8 72bf
00000210: af88 adbe 7952 ad3e 0d7b c53e af3d f1bd
00000220: 5cfa 65bd a33c 1e3e 29e6 e93e 6607 9fbe
00000230: 8770 bfbd 1fac 583f 0f15 973e ae93 1e3f
00000240: d6e5 f2bf 58ac 3ebe a292 6abf ba0d fbbf
00000250: f591 d9bf 9cfe e33f 9286 62bf 02c3 bd3f
00000260: 2620 4fbe 30a3 92bf 6571 8b3e 56aa dc3d
00000270: 3a70 90bf 8fdb 133f 4c54 5840 68de 5abd
00000280: aa0a 443e d450 7a3f f235 083f e089 ed3e
00000290: 992c 313f ecd8 8ebf db33 e8bb f78c 04bd
000002a0: fb17 73bf 16de 90bf 38c7 4c3f 173b 80bf
000002b0: d0cc b83e bffb 64bf 5fc9 5dbe e5a7 d23d
000002c0: 00f6 153e 950b ad3e 8b60 9dbf 0bff ed3e
000002d0: 7008 bfbe cbdb a33d 8224 8b3e 1953 993d
000002e0: 041e 2d3e 5ade f13e eb8f 2b3f 5959 5bbe
000002f0: b051 c73e dd73 cfbe 93a2 11be bc91 53be
00000300: 57e0 5bbe 2f9a f5bb b6cb b43d 1723 043f
00000310: a5dc 8bbe 17f7 45bf 1c64 ec3e 2b42 04be
00000320: eb4d cc3e 0eaa acbe 91bc 75bf 8f41 b93e
00000330: 3744 d83e 8210 91be 5677 0dbf 443d 403e
00000340: 9d30 1c3f adc2 e1bd 8e59 ce3e c097 47bf
00000350: f28d 1e3e 9b4c 6f3e ab7f c93d 702e 5e3e
00000360: 674f f9be 3eae a7bc 67ef 5dbf 12e0 193e
00000370: f264 e3bd 717e 8a3e dee9 f9bd 7ceb 22bf
00000380: d287 5fbd 7b87 543e 0c4f cfbf 289f 8a3e
00000390: 91c0 8dbe d7ee 6f3e 3d7d 813e 85af 473f
000003a0: b426 8bbe ff36 d63d 5c9c 7fbe e873 da3e
000003b0: 2be0 49bf 0c30 24be 9704 be3e 1dbf 4a3e
000003c0: 8720 27bf 6014 3e3f b20b e3be f282 00be
000003d0: 80e5 f1bf a22a 27bf 8966 81c0 89ae bebf
000003e0: 7e89 3fc0 ce9d fc3e 9353 27be 97ba c83f
000003f0: 171e 7a3f d2ab 84bc cb36 fcbe b179 2b3f
-0.72823024 0.32177457 -0.3328928 0.20452057 -0.32693082 -0.086603165 0.24869306 -0.27992985
-0.58134645 -0.40817046 -0.13759197 0.4506723 0.20476517 -0.8343968 0.6597459 0.27540538
0.58274174 -0.12583612 0.5199423 0.18960068 0.2277923 0.13130014 0.17143852 -0.014064989
0.08366693 0.45370743 -0.121627666 0.2407327 -0.5135294 0.6820521 -0.25839472 -0.72181666
-0.24098842 -0.03599973 0.10875701 -0.84020704 0.14325637 0.10731601 -0.3281279 0.1426083
-1.0934385 0.48442027 0.5302675 0.7124897 0.75061613 0.4704217 -0.8880194 -0.8767954
-1.8639523 1.2074032 0.54540485 -0.39044437 0.24689087 -0.7885995 -2.0197175 0.6862188
0.09996812 -0.8006499 0.57824665 0.19813487 -0.22754247 0.19786489 -0.52168816 -1.0976925
-0.04892439 -0.20111524 -0.1015069 0.7321337 -0.8182216 0.023817731 -0.74688 0.36618164
0.42885166 0.018052695 -0.280883 -0.25106224 0.7374086 0.008470651 0.36061186 0.068604805
0.44716027 0.51976436 0.11483382 0.048230417 0.21760628 0.52709514 -0.27065906 0.43878555
-0.14450249 0.2912877 -0.4107985 -0.49836898 0.37726784 -0.11291923 -0.22586173 -0.81467056
-0.050578773 0.060406104 -0.2165892 -0.48831707 0.0051879813 -0.5300033 0.17454843 -0.22227763
0.13351163 0.01694213 -0.015607773 0.55086577 0.121065326 -0.5957456 0.38862717 0.06583658
0.19712037 0.042646434 -0.44145924 0.104862526 0.39873207 -0.1941152 -0.72776496 -0.23142767
0.49276522 0.21150626 -1.102217 -0.6949207 0.9192226 0.43547434 0.017673219 0.68068504
0.5248106 0.07076896 -0.5441284 -0.9478882 -0.33893344 0.33851984 0.38570443 -0.11779343
-0.056146964 0.15452819 0.4568341 -0.31060332 -0.09347635 0.84637636 0.29508254 0.6194409
-1.897639 -0.18620431 -0.91629994 -1.9613564 -1.6997668 1.7812076 -0.8848659 1.4825137
-0.20227107 -1.1456051 0.2723495 0.107746765 -1.1284249 0.57756895 3.380145 -0.05343476
0.19144693 0.97779584 0.53207314 0.46394253 0.69208676 -1.1159949 -0.00708626 -0.032360997
-0.94958466 -1.1317775 0.79991484 -1.0018033 0.3609376 -0.89446634 -0.21658848 0.102859296
0.14644623 0.337979 -1.2295088 0.46483645 -0.37311125 0.080009066 0.2717629 0.07486553
0.16905981 0.47239953 0.67016476 -0.21420802 0.3892951 -0.40518084 -0.14222173 -0.20661062
-0.21472298 -0.0074951868 0.08827917 0.5161604 -0.27316776 -0.77330154 0.46170127 -0.12915866
0.39903197 -0.3372349 -0.95990855 0.3618283 0.42239544 -0.28332907 -0.5526022 0.18773371
0.6101168 -0.110234596 0.403027 -0.7796593 0.15483835 0.23369066 0.09838804 0.21697402
-0.48693392 -0.020468827 -0.86693424 0.15026882 -0.11103238 0.27049592 -0.1220281 -0.6364057
-0.054572888 0.20754807 -1.6195998 0.27074552 -0.2768598 0.23430954 0.25290862 0.78002197
-0.27177966 0.104597084 -0.2496199 0.42666554 -0.7885768 -0.16033953 0.37112877 0.19799466
-0.6528401 0.7424984 -0.4434486 -0.12549952 -1.8898163 -0.6529943 -4.0437665 -1.4897014
-2.9927669 0.49339145 -0.16340475 1.5681943 0.97702163 -0.016195212 -0.49260554 0.6698256
