lif_results/checkpoints_full_20.0_5e-13_100_0.001_0.1_linear_euler_100_5/best-Conn_Pop0_Pop1-weight.npy (npy, 716928 bytes, 1 tensors)

array f4 [179200]
0	0xbf128ee7	-0.572493
1	0x3f23238d	0.6372612
2	0xbf37b108	-0.71754503
3	0xbfe70180	-1.8047333
4	0x3f6d7e19	0.92770535
5	0xbff54852	-1.9162695
6	0xbdaa65b5	-0.0832018
7	0x3dca4aed	0.09877572
8	0x400558ff	2.083557
9	0x3f946074	1.1591935
10	0x3f9778c7	1.1833733
11	0xc02a1d66	-2.6580443
12	0xbf936498	-1.1515074
13	0x3f82739e	1.0191534
14	0x3f94968a	1.1608441
15	0x3eae2e22	0.34019572
16	0xbf4cdc25	-0.80023414
17	0x3f1f994c	0.6234329
18	0x3ec5002c	0.38476694
19	0x3f41eefe	0.757553
20	0xbe3a0b71	-0.18168427
21	0xbf057d51	-0.5214434
22	0x401304a2	2.2971578
23	0xbfd01782	-1.6257174
24	0x3fa47101	1.2846986
25	0x3f4c35a0	0.79769325
26	0x3d1cbcd6	0.038266025
27	0xbf582cac	-0.84443164
28	0xbe73bf8b	-0.23803537
29	0x3f6d438b	0.9268119
30	0xbf0b2014	-0.5434582
31	0xbe790ed3	-0.24322061
32	0xbe013b6b	-0.12620322
33	0x3f0ea5ea	0.55721915
34	0x3fb98f2e	1.449682
35	0x3d93758b	0.07200154
36	0xbf20fc59	-0.6288505
37	0x3f2226f7	0.63340706
38	0x3f8267f9	1.018798
39	0xbf554ecf	-0.8332338
40	0xbf071824	-0.5277121
41	0x3fd16d4c	1.636148
42	0x3fb84348	1.4395533
43	0xc0079c1c	-2.1189032
44	0x3ef249e3	0.47321996
45	0xbf28f920	-0.66005135
46	0x3ebf7b7c	0.373989
47	0x3cf9f117	0.030510468
48	0xbf262d60	-0.64912987
49	0xbee71cd0	-0.4513917
50	0x3ef683bb	0.48147377
51	0x3fb0d1f3	1.3814071
52	0x3f0f96ff	0.56089777
53	0xbf42312c	-0.7585628
54	0x3ef16c5f	0.47152993
55	0x3f5750c9	0.84107643
56	0x3f89d223	1.0767254
57	0xbe53b982	-0.20676234
58	0xbe8c8f3c	-0.2745303
59	0xbfa3ae1c	-1.2787509
60	0x3e81ece9	0.2537606
61	0xc0044673	-2.0667999
62	0xbd0e97e1	-0.03481281
63	0x3dc8b3e8	0.097999394
64	0x401d4893	2.4575546
65	0xbf046764	-0.5172026
66	0xbe08c630	-0.13356853
67	0xbfc986fc	-1.5744319
68	0xbe3d77c5	-0.1850272
69	0xbe2b0df1	-0.16704537
70	0xbf91bbc7	-1.138543
71	0x3eb0da7f	0.345417
72	0x3f1f13a6	0.62139356
73	0xbff5bae1	-1.9197656
74	0xbff1fd01	-1.8905336
75	0x3ebb7b97	0.3661773
76	0xc00bb970	-2.1831932
77	0x3ec50c0b	0.3848575
78	0xbf901a91	-1.1258107
79	0xbdcdf88b	-0.100571714
80	0xbfa18cbd	-1.2621075
81	0x3f3b5557	0.73177093
82	0xbf804fc9	-1.0024348
83	0x3ee5dced	0.44895115
84	0xbfb13973	-1.3845657
85	0x3f3ee033	0.7456085
86	0x3cdac016	0.026702922
87	0x3fb5d24b	1.4204801
88	0x3f832908	1.0246897
89	0x3fe5eb66	1.7962463
90	0xbee3656f	-0.44413325
91	0xbf525a74	-0.8216927
92	0x3e60e509	0.2196237
93	0x3f254ece	0.6457337
94	0xbfcba05d	-1.5908314
95	0x3fbaa962	1.4582942
96	0xbfb9fb50	-1.452982
97	0x3d66c809	0.056343112
98	0xbfa44ede	-1.2836568
99	0xbe4ce67b	-0.20009796
100	0x3f8776d7	1.0583142
101	0x404c0104	3.187562
102	0xbf30c624	-0.6905234
103	0xbfd9d8ec	-1.7019324
104	0x3eb21f94	0.34789717
105	0x3f070034	0.52734685
106	0xc017164d	-2.3607361
107	0x3e669e49	0.22521318
108	0xbebcd80c	-0.3688358
109	0x3e82fcb5	0.25583425
110	0x3f940632	1.1564391
111	0x402eb3bc	2.72972
112	0xbd900267	-0.07031708
113	0xbcfc268a	-0.030780096
114	0xc0015a5f	-2.0211408
115	0xbef8651a	-0.48514634
116	0xbf9fd3b8	-1.2486486
117	0xbd9c8922	-0.076433435
118	0x3ea083fe	0.31350702
119	0xbe909e0d	-0.28245583
120	0xbf85403a	-1.0410225
121	0x3e18186d	0.14853068
122	0xbec738d7	-0.38910553
123	0xbfa042fa	-1.252044
124	0xc01eb132	-2.4795651
125	0x3f93205f	1.1494254
126	0xbfd314cd	-1.6490723
127	0x3d9fa557	0.07795208
128	0xbea53bad	-0.32272092
129	0xbf45eddb	-0.77316064
130	0x3f0d8c9e	0.5529269
131	0x3f4150f5	0.75514156
132	0xbf875290	-1.0572071
133	0xbf33a9e3	-0.701811
134	0xbf9867fb	-1.1906732
135	0xbec5cf7e	-0.38634866
136	0x3fbc3b5c	1.4705615
137	0x3f86b224	1.0523114
138	0xc006fdca	-2.10924
139	0x3fb669c7	1.4251031
140	0x3e8eee36	0.27916116
141	0xbde68972	-0.11256684
142	0xbfb1c7f9	-1.3889152
143	0x3f6034c8	0.8758054
144	0x3e325ddf	0.17418621
145	0xc00abd47	-2.1678026
146	0x3ea2283f	0.3167133
147	0xbfa1758d	-1.2613999
148	0xbfc54497	-1.5411557
149	0x3f8f57b6	1.1198642
150	0x3eae5cb8	0.34055114
151	0xbff3633b	-1.9014658
152	0xc0011a9a	-2.0172486
153	0x40114eb6	2.2704291
154	0xbeb6f1cf	-0.3573136
155	0x3fa6577e	1.299545
156	0x3f1640af	0.5869245
157	0xbfc38d0d	-1.527742
158	0x3ffc245d	1.9698597
159	0x3fb59235	1.4185244
160	0x3f9b53d9	1.2134963
161	0x4012f553	2.2962234
162	0xbd29f5b3	-0.041494083
163	0x3de142bb	0.10999056
164	0xbe205e1f	-0.15660904
165	0xbf503688	-0.8133321
166	0x3dd01053	0.101593636
167	0x3f93f2bd	1.1558453
168	0xbebb3c76	-0.36569566
169	0xbee1eb88	-0.4412501
170	0xbeb0618a	-0.34449416
171	0xbec1b715	-0.37834993
172	0x3e93dbad	0.28878537
173	0xbf42d9c3	-0.7611353
174	0xbf2b7d23	-0.6698782
175	0x3ff59a3b	1.9187692
176	0xbf9d935b	-1.2310594
177	0x3d5be1e9	0.05368224
178	0x3e4ff410	0.20307946
179	0x3ea68083	0.32519922
180	0x3de41922	0.11137606
181	0x3e8d6018	0.27612376
182	0xbfaec285	-1.3653113
183	0xbe0b723c	-0.13617796
184	0xbfd4f69a	-1.6637757
185	0xbf3f1f26	-0.74656904
186	0xbfac7de8	-1.3475924
187	0xbf5f1026	-0.87134016
188	0x3eb57aa0	0.35445118
189	0x3fdc3949	1.7204982
190	0xbf19f3a7	-0.6013741
191	0xbea1a6e2	-0.31572634
192	0x3f595de1	0.8490887
193	0x3f6aec37	0.91766685
194	0xbf8c7330	-1.0972652
195	0xbd0013b4	-0.03126879
196	0x3fdbd92a	1.7175648
197	0xbf380b45	-0.71892196
198	0x3f8bffcc	1.0937438
199	0x3efda783	0.49541864
200	0x3f0a7bc0	0.5409508
201	0xbe89ec5c	-0.2693814
202	0x3dee8a80	0.116475105
203	0xbf480203	-0.7812807
204	0xbeb29068	-0.34875798
205	0x3fb494c6	1.4107902
206	0xbd5baac5	-0.053629655
207	0xbf74818e	-0.95510185
208	0xc03fff73	-2.9999664
209	0xbf5658e9	-0.83729416
210	0x3f3791e4	0.71706986
211	0x3ee19e81	0.4406624
212	0xbc9bb701	-0.019008162
213	0x3ec4c8be	0.38434404
214	0x3f56cb7f	0.8390426
215	0xbfa6de6c	-1.3036628
216	0xbfac0230	-1.3438168
217	0x3ef2ce05	0.47422805
218	0xbe570980	-0.20999718
219	0xbed56936	-0.41681832
220	0x3f911020	1.1333046
221	0xbf679682	-0.9046403
222	0x3f023d5e	0.5087489
223	0x3f131c9e	0.5746554
224	0x3e71145b	0.23542921
225	0x3f98587f	1.1902007
226	0x3e878780	0.26470566
227	0xbf68f406	-0.9099735
228	0x3ecc7284	0.39931118
229	0xbf39cff3	-0.7258293
230	0xbea5ac10	-0.32357836
231	0x3fe4a9ed	1.7864357
232	0xbfeae838	-1.8352118
233	0xbecfb542	-0.40567976
234	0x3c61953a	0.013768489
235	0xc05137bc	-3.2690268
236	0xbebb1784	-0.36541378
237	0xbf8d1adb	-1.1023821
238	0xbf60ac0f	-0.8776254
239	0x3f422eb3	0.7585251
240	0xc008edbc	-2.1395102
241	0x3f024fd9	0.5090309
242	0x3f74f524	0.95686555
243	0x3e6189b1	0.22025181
244	0x3f231d39	0.63716465
245	0xc03aafbc	-2.916976
246	0xbf20c9fe	-0.62808216
247	0xbf78b149	-0.97145516
248	0x3f6c6431	0.9234038
249	0xbfbba953	-1.4661049
250	0xbf49811b	-0.78712624
251	0x3f9b9bfb	1.2156976
252	0x3f90be83	1.130814
253	0x3f9401d8	1.1563063
254	0x3e132d90	0.1437285
255	0xbf86a4d9	-1.0519058
