raf_results/checkpoints_full_0.1_-1.0_0.0045_-0.0007_5e-12_100_0.001_0.01_0.01_linear_euler_100_3/best-Conn_Pop1_Pop2-weight.npy (npy, 20608 bytes, 1 tensors)

array f4 [5120]
00000000: 221c 443e 75fb 423c fb89 99be afdb f23c
00000010: 396d 0e3e 943a b4bc 3231 c1be 005e 43bd
00000020: 8090 0abe a050 d53d ab9d 423e c10c 92bd
00000030: 3908 70be a608 013e 5a8e ccbd 3539 8e3d
00000040: a499 4d3c b616 2a3c ab7b 9b3d d4b1 ca3d
00000050: 892b d2bf 5a9a ec3d f4de 493e 62d5 e9be
00000060: b47d 1cbd 5976 59bd 1aae 133f f5d4 e2bf
00000070: b149 c93f 1333 c73e 76e8 293f 607d 403f
00000080: e63d bcbf c529 03bf e049 a2be 3f89 673f
00000090: 2cfe 333f 61fb 06c0 ea85 9d3f 7cdb 073f
000000a0: 4232 e83e e6f9 f93d 3c5d 8c3e 77ae 20be
000000b0: f1f2 223e 2435 28be 113b 8cbb 4882 8c3e
000000c0: 9926 7ebe e1c5 073e 515c 01be bba2 b6bd
000000d0: 82c1 723d 34e6 7bbe be9c 87be 865b ddbe
000000e0: 27f2 10be 6aca 343e ba84 243d 27bc 163c
000000f0: 80b2 673d 6c11 8dbe 30bc 6fbe b09d 50bd
00000100: c5d7 253e d1eb 5d3e 813d 58bd 6fa1 1bbe
00000110: b16a 4f3e 5bb2 85bc 4cce f1be 7a9c 333e
00000120: 4d0b 56bd c083 8b3e 4c4a 4b3d 8e66 a3be
00000130: fd06 78be 63eb 0fbf 5608 fb3e 41bd 4bbe
00000140: 04fd 0d3e 281e 79bd 3f68 18be 2fe3 d73d
00000150: 2542 0f3f 0463 0e3f aa98 ecbc 556f 103f
00000160: 9876 35be 7222 6cbe b024 1dbf 2b3d 40bd
00000170: 9d60 d93e ab52 5dbd 9cd3 3bbe 1961 bcbe
00000180: 4e99 ffbe fa00 15bf d646 073c b397 aabe
00000190: c23c 03be b431 803e 531d 85be 4846 593e
000001a0: e9c2 acbd 1b11 f3bd 6e05 63be 1e50 0bbe
000001b0: fa8c a6be d612 a43e 8a23 40bd bdc8 ccbe
000001c0: bd2d 23bd 5e1a 86be 5414 8c3e e9f7 e4bd
000001d0: dca7 d53e 57d9 0d3e 7ba0 8cbe 8f2a 173e
000001e0: c531 b0be 9451 8bbf 69bb 863d 6a2d 37bf
000001f0: 793f 49be 332d ae3e ff43 1c3f 54e9 2b3f
00000200: 4ee5 1f3e e4b9 78bf af5c 22bf 8ca6 9abd
00000210: cc87 dabd e903 c63d a25d d5be 3e0f 873d
00000220: df3e b93e b757 963e b2ae e63e 61df e8be
00000230: 489c 2dbd 9915 5e3d 935b 94bf fe03 97bf
00000240: d606 aa3e f01f 513e 7acd 0cbf 78a5 e7bd
00000250: d4c9 5cbe c662 f03e a8cf 2f38 0902 1c3e
00000260: de57 3e3e 7034 9b3e 32cf 81be 9916 16bf
00000270: 991e 033e 07ba a0be 5c5c 873e 48e7 133e
00000280: 0efc 193e cea6 64be ccb1 5b3e aaa9 8ebf
00000290: 40aa 1dbd dd35 cc3e cb28 b73e 6720 993c
000002a0: 4eeb 273e ad3b 5ebe 0707 75be 966f d43e
000002b0: 88f9 383e 7008 f9be f415 06bf 2be2 fcbc
000002c0: 415e 993e 9793 bebe 2363 a6be 74fe 93be
000002d0: 938c 3dbe 0988 b4be b262 6b3d bd81 d4bd
000002e0: 11eb 7f3e c7f7 fd3e 5f04 0dbf 7144 4f3d
000002f0: 9225 433e 45e2 a43d 80dd 3dbe 11d0 223e
00000300: 7203 04be 3abb f33e bb1d 28be b373 9a3e
00000310: 5f9d 30bf de93 30be 84ae b23e eb2f 70be
00000320: 4778 06be 1306 64bf db0f 15be 34cc 28bf
00000330: 4e40 7a3d 7119 afbd 26d4 df3e d248 7ebe
00000340: 09f8 763e 1099 b2bf 8642 21be 833b 953e
00000350: c743 a6bd fa7f a6bd 02c0 813e 932d c73e
00000360: def6 0b3f 6090 f0bd 457c 8f3e 5706 82be
00000370: c76b c0bd 5ed8 243e 0816 8ebe 4a56 07bf
00000380: 4bc5 edbc 1029 8ebd 03e0 1ebf a604 a5be
00000390: 32e9 82be 1fe3 b23e 3b70 0b3e cd24 acba
000003a0: 406f 6f3e 8ffe 4f3e 4fa7 d4bd f843 a2be
000003b0: 9e52 99bd df46 ccbd 49b6 033e 1546 cc3d
000003c0: 5e54 0bbe 83b0 543e e333 7fbd 1fb1 2ebe
000003d0: 00dc bf3d c04e e03e 57a4 753e 7246 70be
000003e0: 22eb 223e 0a1c ab3d 2b38 a5be fba6 113f
000003f0: 4e96 b8bd c297 eb3d 0673 a4be 28a6 f03d
0.19151357 0.011900772 -0.29988083 0.029645769 0.13908853 -0.022000588 -0.37732846 -0.047697067
-0.13531685 0.104157686 0.19005458 -0.07131339 -0.23440637 0.12600955 -0.09988089 0.06944505
0.012548838 0.010381391 0.07591947 0.09897199 -1.6419536 0.11552878 0.19713956 -0.4567061
-0.038205817 -0.05309138 0.5768753 -1.7721239 1.5725614 0.38906154 0.6637033 0.7519131
-1.470639 -0.5123561 -0.31696987 0.90443796 0.7030971 -2.109093 1.2306492 0.5306928
0.45350844 0.122058675 0.27414882 -0.15691553 0.15912987 -0.16426522 -0.004279502 0.27443147
-0.24819411 0.13259079 -0.12632872 -0.08917757 0.059266575 -0.24599534 -0.26486772 -0.4323389
-0.14154874 0.1765534 0.04016564 0.009200132 0.056566715 -0.27552354 -0.23411632 -0.050931633
0.16195591 0.21671988 -0.05279303 -0.15198301 0.20255543 -0.016320398 -0.47227705 0.1754016
-0.05225687 0.27248955 0.049631402 -0.3191418 -0.24221416 -0.56218547 0.49029797 -0.19896413
0.13866049 -0.060819775 -0.14883517 0.10541379 0.55960304 0.55619836 -0.02888139 0.5641988
-0.17721021 -0.23060015 -0.61384106 -0.046933334 0.42456523 -0.054033916 -0.18342441 -0.3679283
-0.4992165 -0.58204615 0.008256635 -0.33318862 -0.12816146 0.2503792 -0.25998935 0.21218216
-0.08435614 -0.11868497 -0.2217004 -0.13604781 -0.32529432 0.3204562 -0.046908893 -0.399969
-0.03983854 -0.26191992 0.2735926 -0.111800976 0.4172963 0.1385244 -0.27466187 0.14762329
-0.3441297 -1.0884271 0.065787144 -0.7155367 -0.19653119 0.3401886 0.61041254 0.67152905
0.15614817 -0.97158647 -0.63422674 -0.075512975 -0.106704324 0.096687146 -0.41673 0.06594704
0.3618078 0.29363796 0.45055157 -0.45482925 -0.04238537 0.054219816 -1.1590446 -1.1798093
0.3320834 0.2042234 -0.5500103 -0.113108575 -0.21561366 0.46950358 4.1916646e-05 0.15235151
0.18588206 0.30313444 -0.2535339 -0.5862823 0.12804641 -0.31391928 0.26437652 0.14443696
0.15037557 -0.22329256 0.21454543 -1.1145527 -0.03849244 0.39884844 0.3577331 0.018692208
0.16398355 -0.21702452 -0.23928462 0.41491383 0.18063939 -0.4863925 -0.5237725 -0.030869564
0.29954723 -0.37221977 -0.3249751 -0.2890507 -0.18510656 -0.35260037 0.05746717 -0.10376308
0.24992014 0.49603102 -0.55084795 0.05060238 0.190573 0.0805097 -0.18541527 0.15899684
-0.1289194 0.4760378 -0.16417591 0.30166396 -0.6899013 -0.17243907 0.3489877 -0.23455779
-0.1313182 -0.8907177 -0.1455683 -0.6593659 0.061096482 -0.085497744 0.43716544 -0.24832466
0.24118055 -1.3952961 -0.15748033 0.29146966 -0.08118396 -0.08129878 0.25341803 0.38901958
0.54673564 -0.11746287 0.28024498 -0.25395462 -0.09395557 0.16098163 -0.27751184 -0.5286604
-0.02902474 -0.06941426 -0.62060565 -0.3223011 -0.2556854 0.34938905 0.13617031 -0.0013133526
0.23382282 0.2031195 -0.10383474 -0.3169248 -0.07486461 -0.09974455 0.12862505 0.099743046
-0.13606402 0.20770459 -0.062305342 -0.17059754 0.093681335 0.4381008 0.23988472 -0.23464373
0.15910009 0.083549574 -0.32269415 0.56895417 -0.09013043 0.11503555 -0.32119006 0.11750442
