raf_results/checkpoints_full_0.1_-1.0_0.0045_-0.0007_5e-12_100_0.001_0.01_0.01_linear_euler_100_3/best-Conn_Pop0_Pop1-weight.npy (npy, 716928 bytes, 1 tensors)

array f4 [179200]
0	0xbd9fee94	-0.07809177
1	0xbddd5e98	-0.10809058
2	0x3ee0f67d	0.43938056
3	0xbee36663	-0.44414052
4	0xbe04621f	-0.12928055
5	0xbd406275	-0.046968896
6	0xbe817524	-0.25284684
7	0xbeeb225c	-0.45924652
8	0x3da72ecf	0.08163225
9	0xbe589e13	-0.2115405
10	0xbe595721	-0.21224643
11	0xbe4f8e4b	-0.20269124
12	0xbe9c5d28	-0.30539823
13	0x3e1ff3fc	0.15620416
14	0x3e2fee98	0.1718086
15	0xbc9bbb80	-0.019010305
16	0xbf2328d4	-0.63734174
17	0xbe354d8a	-0.1770536
18	0x3de31596	0.110881016
19	0xbe9015df	-0.28141686
20	0x3d28dadb	0.04122434
21	0xbe2eb2aa	-0.17060342
22	0xbeda2faa	-0.4261449
23	0xbe3fdf38	-0.18737495
24	0xbecf4340	-0.40480995
25	0xbefc88c6	-0.493231
26	0xbe437ff5	-0.1909178
27	0xbe961c90	-0.29318666
28	0xbf04220b	-0.51614445
29	0xbd8be21b	-0.068302356
30	0xbdc511f8	-0.09622568
31	0xbef7de51	-0.484118
32	0xbe71d183	-0.23615079
33	0xbed54fc6	-0.41662425
34	0xbe0c9688	-0.13729298
35	0xbeb7fcc1	-0.35935023
36	0x3f008bb3	0.50213164
37	0xbe498616	-0.19680056
38	0xbc729a27	-0.014807261
39	0x3ea565d9	0.32304266
40	0x3d903431	0.07041205
41	0xbcd48864	-0.025943942
42	0xbd7e5bd8	-0.062099308
43	0xbf272e1e	-0.65304744
44	0xbf138395	-0.57622653
45	0x3e300cc7	0.17192374
46	0xbe691cf7	-0.22764955
47	0xbf0747a9	-0.5284372
48	0x3e1ddf02	0.15417102
49	0xbe68f63b	-0.2275018
50	0x3e6e03ee	0.23243687
51	0xbdf81171	-0.12112702
52	0x3e426ec5	0.18987568
53	0xbda94659	-0.08265371
54	0xbe73e85b	-0.23819105
55	0x3ddbbfd3	0.10729947
56	0x3d2442fa	0.040102936
57	0xbe2cfb3d	-0.16892715
58	0xbdd81f63	-0.105528615
59	0x3d9e1df3	0.07720556
60	0xbe377f62	-0.17919686
61	0xbb8c0795	-0.004273365
62	0xbd1cc01f	-0.03826916
63	0x3e96ba13	0.29438838
64	0xbed3b3f8	-0.41348243
65	0x3eb57d21	0.35447028
66	0xbe335717	-0.17513691
67	0xbdae9cf8	-0.08526033
68	0x3bffd1b8	0.007806983
69	0x3e3804fc	0.17970651
70	0xbdb3b2f3	-0.08774366
71	0x3cafa817	0.021442456
72	0xbe6df98d	-0.23239727
73	0xbd0a26e6	-0.033728503
74	0x3cf36364	0.02971048
75	0xbef10edf	-0.47081658
76	0xbeeaa66a	-0.4583009
77	0x3ee86c33	0.4539505
78	0xbe833a80	-0.2563057
79	0x3df078e4	0.11741808
80	0x3ca540c0	0.020172477
81	0xbe390091	-0.18066622
82	0xbdab0cc8	-0.08352047
83	0xbe2eebf3	-0.17082195
84	0xbd950785	-0.07276825
85	0xbf0a430b	-0.5400855
86	0xbe402b8f	-0.18766616
87	0xbeec7c98	-0.46188807
88	0xbdf6eb52	-0.120566025
89	0xbeacd85d	-0.33758822
90	0xbdc356e6	-0.09538059
91	0xbe8cdf9e	-0.27514356
92	0x3e34fbe0	0.17674208
93	0x3dad5ccb	0.084649645
94	0x3daa3d06	0.083124205
95	0x3c986d62	0.018606845
96	0x3dfb18cd	0.1226059
97	0xbe4e3bcf	-0.20140003
98	0x3d60d394	0.054889277
99	0xbf186545	-0.59529525
100	0xbf057ba5	-0.5214179
101	0x3d2e751c	0.042592153
102	0xbdafb57f	-0.085795395
103	0xbedea7c0	-0.43487358
104	0xbe89ee5d	-0.2693967
105	0x3dd2dcd9	0.102960296
106	0x3e5fc317	0.21851765
107	0xbed82bfb	-0.42221054
108	0xbed7bf0c	-0.42137945
109	0x3d2c1914	0.042016104
110	0xbe79e875	-0.24405082
111	0xbd9fe1d4	-0.07806745
112	0xbf0e892a	-0.55678046
113	0xbe55d65c	-0.20882553
114	0x3c5717ed	0.013128263
115	0xbe1f1180	-0.1553402
116	0x3e5d143c	0.2158975
117	0xbe86fc0f	-0.2636418
118	0xbe3559a5	-0.17709978
119	0xbeab6d50	-0.33481836
120	0xbde9daf3	-0.114187144
121	0x3c88a1a6	0.016678642
122	0x3d738beb	0.059459608
123	0xbe12003b	-0.142579
124	0xbe6e456e	-0.23268673
125	0xbf0c2325	-0.54741126
126	0x3e1c30ca	0.15252987
127	0xbd8ee2da	-0.06976862
128	0x3e093b2e	0.13401482
129	0xbe48f283	-0.19623761
130	0xbe2a5f67	-0.16637956
131	0xbe4e3dd5	-0.20140775
132	0xbed0c0e6	-0.4077217
133	0xbd8967d2	-0.06709255
134	0xbee92fc4	-0.45544255
135	0xbf098ea5	-0.53733283
136	0xbea80ddf	-0.32823083
137	0x3ec0f58b	0.37687334
138	0xbd83bf0e	-0.06432925
139	0xbe9e8335	-0.30959478
140	0xbdaf1b31	-0.08550108
141	0xbecb45c4	-0.39701664
142	0x3e1bf288	0.15229237
143	0x3e0c10fb	0.13678353
144	0x3d518454	0.05115159
145	0xbda755d0	-0.08170664
146	0xbf06e720	-0.5269642
147	0xbe64bb09	-0.22336973
148	0xbdc47fb1	-0.09594668
149	0xbe08ca04	-0.13358313
150	0xbdc9ab9f	-0.09847187
151	0xbcf70197	-0.030152125
152	0xbec88dba	-0.3917063
153	0xbd26ffa8	-0.040771157
154	0x3cc1e4bd	0.023668641
155	0xbe37fba5	-0.17967089
156	0xbf110847	-0.56653255
157	0xbe9d39c9	-0.3070815
158	0xbef233f3	-0.4730526
159	0xbe942292	-0.28932625
160	0x3dad84d0	0.084725976
161	0xbe3b8913	-0.18314008
162	0x3dac0781	0.08399869
163	0xbd355400	-0.04426956
164	0xbe84c84e	-0.2593407
165	0x3dc4e922	0.09614779
166	0xbdbce71b	-0.09223767
167	0xbe0a40c6	-0.13501272
168	0x3d1d25e7	0.038366225
169	0xbf39d6da	-0.7259346
170	0xbe189940	-0.1490221
171	0xbdc93aaf	-0.09825646
172	0x3dcb29e5	0.099201
173	0x3f468517	0.7754683
174	0x3e8cdba4	0.27511322
175	0xbf2b12e0	-0.66825676
176	0x3e232931	0.15933682
177	0xbe9451d2	-0.28968674
178	0xbde56221	-0.11200357
179	0xbe5e3e9b	-0.2170357
180	0xbea8bfc7	-0.32958815
181	0xbd5bab88	-0.05363038
182	0x3cc255ff	0.023722647
183	0xbe19568f	-0.14974426
184	0xbf142e7e	-0.5788344
185	0xbd3a574a	-0.0454934
186	0xbef5886c	-0.47955644
187	0xbe1dff63	-0.15429454
188	0xbe34695d	-0.17618318
189	0xbe962601	-0.2932587
190	0xbd017967	-0.03160992
191	0x3e88ddea	0.26731807
192	0xbed695e6	-0.41911238
193	0xbe488956	-0.1958364
194	0xbe5a682a	-0.21328798
195	0xbe9738a9	-0.29535416
196	0xbe18c143	-0.14917473
197	0xbe30a413	-0.1725009
198	0xbe961568	-0.29313207
199	0xbde8b930	-0.11363447
200	0x3d06e91c	0.032937154
201	0xbe53674f	-0.20644878
202	0x3e47917f	0.19489096
203	0xbe78f630	-0.24312663
204	0x3e10d69f	0.14144371
205	0xbea9308b	-0.33044848
206	0xbe606b53	-0.21915941
207	0xbf4a65e1	-0.79061705
208	0xbeb8f762	-0.36126238
209	0x3ec7979e	0.38982862
210	0xbc3abdd5	-0.011397799
211	0xbf0a1597	-0.53939193
212	0xbe27e42a	-0.16395631
213	0xbe029d0b	-0.1275522
214	0xbf1197f7	-0.56872505
215	0xbdadd4a8	-0.084878266
216	0x3e234b6d	0.15946741
217	0xbea7d8c4	-0.32782567
218	0xbec9d674	-0.39421427
219	0xbe87069e	-0.26372236
220	0xbe50db64	-0.20396191
221	0xbd21e20c	-0.039522216
222	0x3d1f4e29	0.0388929
223	0xbce20dea	-0.027594525
224	0xbcbc7843	-0.023006564
225	0xbe5bd67c	-0.21468538
226	0xbec81e15	-0.3908545
227	0xbe0cd574	-0.13753301
228	0xbe8b2ffd	-0.2718505
229	0x3d63cc4c	0.055614755
230	0xbea7572c	-0.32683694
231	0xbb07ad20	-0.0020702556
232	0xbe7eebf0	-0.2489469
233	0xbe95c845	-0.29254356
234	0xbe006fb5	-0.12542613
235	0xbd4dd265	-0.050249476
236	0x3e85594c	0.2604469
237	0x3d5bff73	0.053710412
238	0xbe1e3e92	-0.15453556
239	0xbed6b6e5	-0.41936412
240	0xbe8a2cd5	-0.2698733
241	0x3d9e2432	0.077217475
242	0xbe800906	-0.25006884
243	0xbeb1c2ed	-0.3471903
244	0xbeb01fb0	-0.34399176
245	0xbca883d0	-0.020570666
246	0xbea0c11f	-0.3139734
247	0x3ddbe15e	0.10736345
248	0xbe803407	-0.25039694
249	0x3e7352c7	0.23762046
250	0xbdd76860	-0.10517955
251	0xbe77db59	-0.24204768
252	0x3df95e68	0.1217621
253	0xbd79367d	-0.06084298
254	0xbd74fe7c	-0.059813008
255	0x3de76981	0.1129942
