raf_results/checkpoints_full_0.1_-1.0_0.0045_-0.0007_5e-12_100_0.001_0.01_0.01_linear_euler_100_2/best-Conn_Pop0_Pop1-weight.npy (npy, 716928 bytes, 1 tensors)

array f4 [179200]
0.3066249 0.110342264 -0.25119698 -0.25539255 0.1379969 -0.21828623 -0.17619157 0.12223756
0.14251329 -0.2754406 -0.7677964 -0.07068463 -0.3491462 -0.23682564 -0.59758055 0.048264578
-0.4065126 -0.5009853 -0.37162897 0.23109594 -0.2020703 -0.6453065 -0.85167146 -0.3897645
0.1063743 -0.33012873 -0.3812877 -0.75515926 -0.68836623 -0.4782654 -0.013468258 -0.4373258
-0.25107232 0.071442 -0.32190767 -0.31470945 -0.021135911 -0.5186965 -0.061476193 0.070327096
0.33263886 -0.13098311 0.35295528 -0.63120365 0.31633824 -0.19229619 0.039521895 -0.23039202
0.026836336 -0.33279076 -0.34267363 -0.29193646 0.035095397 -0.2546229 -0.20150197 -0.10902658
-0.010419861 -0.30489582 -0.045504242 -0.04224105 0.16002701 -0.29994333 -0.35307178 -0.34024182
-0.1948622 -0.057372693 -0.46774185 -0.61844254 0.2429581 0.12217564 0.5153964 -0.30397096
0.1930668 -0.083117686 0.049106684 0.23218219 -0.10598809 -0.4339124 0.18405697 -0.5184824
-0.14649452 -0.099570185 0.24000648 0.020401297 0.21070214 0.04854938 0.07992667 0.33681282
-0.16364595 -0.91440326 -0.031320106 0.1181726 -0.30914116 -0.13658504 0.29720962 0.4216506
-0.02905997 -0.37969863 -0.18983792 -0.15197067 0.5495249 -0.2667665 -0.1712341 0.23468463
-0.2382866 -0.1783169 -0.23010643 -0.6347543 0.05158408 -0.9166382 0.07540314 -0.08807523
0.12039581 -0.03533967 -0.3504096 0.4378234 -0.2396839 -1.091752 -0.16278765 -0.08687908
-0.46682376 0.082567565 -0.8217188 -0.6747133 -0.25986627 0.18503392 -0.038425498 -0.31379855
0.025461642 0.020717274 -0.30790243 -0.17902078 -0.35409945 0.36123177 -0.018392123 -0.03655584
-0.4914996 -0.13454118 -0.3020689 -0.5640018 0.063600175 0.004801471 -0.24603495 0.14676857
0.07797575 0.15127006 0.9787896 -0.43265098 -0.16041507 -0.17885542 -0.18044373 -0.43741325
-0.14579989 -0.2755794 0.2774196 -0.27150682 -0.42356646 -0.079888634 -0.020754587 -0.54215133
0.13752873 -0.5045548 -0.0061177164 -0.63721144 -0.096238814 0.20735073 0.14816144 -0.3711258
-0.75581205 -0.17257158 -0.7355478 -0.09386306 0.113113515 -0.8610103 -0.45928678 -0.30068976
0.2382801 -0.79549503 0.19353895 -0.14639366 -0.19694063 -0.24913125 -0.5328377 0.11936258
-0.2874751 -0.53217006 0.15353243 -0.63149554 -0.52183336 0.58170646 0.13347282 -0.13113944
-0.106056266 -0.18797944 -0.2735082 -0.07816409 -0.08591286 -0.14631382 -0.085984945 0.079680875
0.23682772 -0.0085243685 -0.41444668 -0.23974685 0.40217757 0.00039363233 -0.13550392 -0.35313496
0.176269 0.07910169 -0.0921196 0.1333637 0.49579173 -0.053790163 0.21547522 -0.37760136
0.06846096 -0.39602363 0.2018546 -0.097472556 -0.2296993 0.32016042 -0.7084965 -0.3125148
0.19195771 0.58383524 -0.70169866 -1.1357456 0.0628327 -0.19475566 0.03210217 0.098206565
-0.09781682 -0.615337 -0.06671067 0.41519064 -0.6041536 -0.10790573 -0.30326322 -0.35666558
-0.0234386 -0.3102657 -0.68757343 -0.2876636 -0.25471535 0.1739336 -0.08381687 0.18632786
-0.07406418 -0.7832912 -0.6748594 -0.038525693 -0.4424366 -0.2579751 -0.30046412 -0.020099752
00000000: f0fd 9c3e 20fb e13d e49c 80be d0c2 82be
00000010: 0f4f 0d3e 6d86 5fbe 906b 34be b057 fa3d
00000020: 01ef 113e 8d06 8dbe 4e8e 44bf 1ac3 90bd
00000030: 4ac3 b2be 6c82 72be 0afb 18bf 14b1 453d
00000040: 6b22 d0be 9340 00bf 2746 bebe 6aa4 6c3e
00000050: 84eb 4ebe cf32 25bf 2407 5abf 368f c7be
00000060: c5da d93d a206 a9be 2438 c3be 1e52 41bf
00000070: c538 30bf 34df f4be f8a9 5cbc 2be9 dfbe
00000080: 8d8c 80be 2f50 923d 15d1 a4be 9921 a1be
00000090: 3825 adbc 4bc9 04bf 76ce 7bbd a707 903d
000000a0: a44f aa3e 7020 06be 8eb6 b43e 9096 21bf
000000b0: 16f7 a13e 4be9 44be b6e1 213d e3eb 6bbe
000000c0: e0d7 db3c 8d63 aabe eb72 afbe b278 95be
000000d0: 31c0 0f3d ef5d 82be 8856 4ebe 5449 dfbd
000000e0: 11b8 2abc 4e1b 9cbe a862 3abd f404 2dbd
000000f0: 1fde 233e 2c92 99be d3c5 b4be 2d34 aebe
00000100: f589 47be a1ff 6abd dc7b efbe 4052 1ebf
00000110: 02ca 783e 3937 fa3d 05f1 033f 15a2 9bbe
00000120: 4eb3 453e 9b39 aabd 1724 493d 2bc1 6d3e
00000130: 4910 d9bd c429 debe 6e79 3c3e 43bb 04bf
00000140: a902 16be 74eb cbbd 42c4 753e 9f20 a73c
00000150: 4dc2 573e b7db 463d 98b0 a33d bb72 ac3e
00000160: ce92 27be 5516 6abf 8349 00bd 7a04 f23d
00000170: c047 9ebe f3dc 0bbe dc2b 983e 96e2 d73e
00000180: 2d0f eebc dc67 c2be df64 42be 339e 1bbe
00000190: aaad 0c3f 9e95 88be fe57 2fbe 2b51 703e
000001a0: 6701 74be b598 36be 05a1 6bbe 427f 22bf
000001b0: d449 533d cda8 6abf f66c 9a3d c960 b4bd
000001c0: 1492 f63d 54c0 10bd e368 b3be 642a e03e
000001d0: b26f 75be 88be 8bbf ceb1 26be a9ed b1bd
000001e0: 8603 efbe 2f19 a93d 2a5c 52bf 03ba 2cbf
000001f0: 310d 85be 8879 3d3e 0e64 1dbd 34aa a0be
00000200: ef94 d03c 46b7 a93c 63a5 9dbe 3951 37be
00000210: 864c b5be 5ff3 b83e 14ab 96bc 94bb 15bd
00000220: d6a5 fbbe 2ac5 09be c6a8 9abe 6c62 10bf
00000230: cf40 823d a855 9d3b 96f0 7bbe 804a 163e
00000240: c0b1 9f3d 8ae6 1a3e f591 7a3f 6e84 ddbe
00000250: d943 24be e025 37be 3ec6 38be a1f4 dfbe
00000260: 914c 15be be18 8dbe f109 8e3e f102 8bbe
00000270: b4dd d8be a79c a3bd 8605 aabc 6eca 0abf
00000280: 55d4 0c3e 812a 01bf 2077 c8bb 4a20 23bf
00000290: db18 c5bd c053 543e a2b7 173e 3304 bebe
000002a0: e67c 41bf 9bb6 30be dc4c 3cbf 473b c0bd
000002b0: 0fa8 e73d 2c6b 5cbf a327 ebbe 02f4 99be
000002c0: b3ff 733e 90a5 4bbf 132f 463e 38e8 15be
000002d0: ceaa 49be 431c 7fbe 0d68 08bf 5e74 f43d
000002e0: f02f 93be 4c3c 08bf 9b37 1d3e b1a9 21bf
000002f0: df96 05bf b7ea 143f 19ad 083e 6b49 06be
00000300: 0734 d9bd af7d 40be 4409 8cbe 7f14 a0bd
00000310: 15f3 afbd 4ad3 15be e018 b0bd ba2f a33d
00000320: f782 723e cba9 0bbc 5b32 d4be 3380 75be
00000330: 38ea cd3e 7060 ce39 8ac1 0abe 1bce b4be
00000340: dc7f 343e 1100 a23d 33a9 bcbd 7e90 083e
00000350: 6ad8 fd3e 1353 5cbd 89a5 5c3e f754 c1be
00000360: 4335 8c3d 9cc3 cabe f9b2 4e3e b19f c7bd
00000370: 4b36 6bbe 11ec a33e 0760 35bf f101 a0be
00000380: 9090 443e 3a76 153f 86a2 33bf 1d60 91bf
00000390: 6eae 803d 076e 47be 917d 033d 8620 c93d
000003a0: 2f54 c8bd ba86 1dbf 9b9f 88bd de93 d43e
000003b0: cfa9 1abf aefd dcbd 5145 9bbe df9c b6be
000003c0: 4f02 c0bc 25db 9ebe d004 30bf a548 93be
000003d0: 0d6a 82be a61b 323e 2ea8 abbd bbcc 3e3e
000003e0: f6ae 97bd c685 48bf 96c3 2cbf 1ecd 1dbd
000003f0: 0d87 e2be 5015 84be 6fd6 99be 3ca8 a4bc
