raf_results/checkpoints_full_0.1_-1.0_0.0045_-0.0007_5e-12_100_0.001_0.01_0.01_linear_euler_100_2/best-Conn_Pop1_Pop2-weight.npy (npy, 20608 bytes, 1 tensors)

array f4 [5120]
000000 cd 7b 0f bf 95 3d ec be f5 68 07 bf 31 f3 d3 be
       -0.5604828 -0.46140733 -0.52894527 -0.41396478
000010 8b 22 06 be d8 87 1c be 1d fe ee 3e 50 c9 d5 be
       -0.13099115 -0.15286195 0.46678248 -0.41755152
000020 33 22 21 3f 36 c1 43 bf ac dc 04 3f 23 b7 42 bf
       0.6294281 -0.7646669 0.5189922 -0.76060694
000030 d5 e1 19 bf d6 ee 02 3f 58 9d 83 3d 42 a8 fc 3e
       -0.6011022 0.51145685 0.06426495 0.4934712
000040 e8 05 11 3f 8b e0 ff 3e 3d 74 dd 3e 40 dd ac 3e
       0.5664964 0.49976 0.43252745 0.3376255
000050 aa 3c e4 3e fc df 24 3e 5a 33 f1 bd 05 0a bb 3d
       0.44577533 0.16101068 -0.11777373 0.091327704
000060 04 e7 93 3d 8e 4f 46 bd ff 9e 6e bf ff a3 70 3e
       0.07221797 -0.048415713 -0.9321136 0.2350006
000070 52 d6 17 bf d6 92 37 3e dd 67 f1 3d 51 87 b2 be
       -0.593114 0.17927107 0.117873885 -0.34868863
000080 c8 47 1e be 10 dd 8a 3e a6 49 a1 be 6d 79 85 be
       -0.1545707 0.27121782 -0.31501502 -0.26069203
000090 90 d6 6d be ea b4 ff 3e 02 7f 04 bf ef b7 50 3a
       -0.2322638 0.49942714 -0.517563 0.00079619786
0000a0 f8 78 62 3e 2d 56 9b 3e 00 be 64 bd e5 7a cc be
       0.22116458 0.30339184 -0.05584526 -0.3993751
0000b0 e4 92 23 3f 9f ec 3a 3f 16 f1 e1 be 99 b9 c2 3e
       0.6389601 0.73017305 -0.44129246 0.38032225
0000c0 00 9d 48 bf 7f 9d 03 3f e4 7a 1c bf d5 fe 9e be
       -0.78364563 0.51412195 -0.61125016 -0.31053796
0000d0 a0 0f 86 3c c9 8b 74 bd 70 e9 39 bf 34 bb 9c be
       0.016364872 -0.059703622 -0.7262182 -0.30611575
0000e0 31 cf 90 be 4f 45 b8 bd e8 b9 04 bf d6 17 8a bd
       -0.28283074 -0.089975946 -0.5184617 -0.067428276
0000f0 8a 08 4b 3f 68 56 2d bf 28 c0 77 bf 80 0e c5 be
       0.79309905 -0.6770997 -0.9677758 -0.38487625
000100 f3 d2 d2 3e 53 6d 01 3e a3 fa 47 3e 24 40 09 be
       0.41176566 0.1263936 0.19529204 -0.13403374
000110 8a 77 cc 3e 70 5a c2 3e 6f 7e 84 be 5a 53 40 3f
       0.3993495 0.37959623 -0.2587771 0.75127184
000120 8e 61 5e be 8e e7 51 be c2 57 43 be 27 25 1b bf
       -0.21716902 -0.20498487 -0.19076446 -0.60603565
000130 61 9c f9 3d a1 b1 59 bf 3b 71 0c 3f d5 3b 46 bd
       0.1218803 -0.85036665 0.54860276 -0.048396904
000140 4a 7a f9 be ae 40 23 3e 8f 8a c4 be 0d 05 30 bf
       -0.48726112 0.15942642 -0.38386962 -0.68757707
000150 ff 0e f9 be d6 be 99 3d 6d e5 6f 3e 3f 32 0c bf
       -0.48644254 0.07507102 0.23427363 -0.5476417
000160 ed 08 5d 3e 10 86 d7 3e 63 87 05 3e 52 25 44 3e
       0.21585436 0.4209447 0.13039927 0.19154862
000170 d8 9b 95 be f6 fc 63 3d 8e 4b b8 3e 19 7e 3f be
       -0.29220462 0.055661164 0.35995144 -0.18700446
000180 98 cb 7b be 82 3d 3a 3e 48 30 2f 3f 2d 36 e4 3d
       -0.24589384 0.18187526 0.68433046 0.11143146
000190 61 18 03 c0 6b c9 6f 3e 6f f0 1e 3e cb 8b 5a bf
       -2.048363 0.23416679 0.15521406 -0.8536956
0001a0 48 d2 9d 3b b4 aa 83 be 06 93 04 3f a7 7d 02 c0
       0.0048163272 -0.25716174 0.5178684 -2.0389192
0001b0 ab 95 e9 3f 48 f0 28 3f 46 88 8c 3f cb a6 90 3f
       1.82488 0.6599164 1.0979087 1.1300901
0001c0 69 ea c9 bf 0f a4 12 bf 71 72 bf be 2b 0e 4d 3f
       -1.5774661 -0.57281584 -0.37392 0.80099744
0001d0 dc 2a 5d 3f 96 df 1a c0 83 48 97 3f f0 01 2c 3f
       0.86393523 -2.4198966 1.1819004 0.67190456
0001e0 cf 4d 1a 3f 84 31 0a 3e 23 a8 86 be 96 d5 15 c0
       0.60274976 0.13495451 -0.26300153 -2.3411613
0001f0 0e c5 1a 3e 9f 84 e4 be 29 4a 0b bd c7 59 f7 3e
       0.15114233 -0.44632432 -0.03400627 0.48310682
000200 a5 83 12 bf 3e 95 62 3f 07 a1 8c bf 48 30 53 3f
       -0.57232124 0.88508976 -1.0986642 0.82495546
000210 33 21 f5 3e cc 6e 01 bd 74 fe b6 be 6b f9 ae bf
       0.47876891 -0.031599805 -0.35741007 -1.3669866
000220 b3 c5 35 bb f5 29 34 bf c9 1d 10 3f bc a4 19 3d
       -0.0027736246 -0.7037652 0.5629545 0.03751062
000230 4b 1b 09 bc 98 d4 fc be a9 fd 89 be 86 85 88 be
       -0.008368324 -0.49380946 -0.2695134 -0.2666437
000240 8a f2 2c bf ea 33 ec be 73 87 2a 3f 6f 0e 92 3e
       -0.67557585 -0.46133357 0.6661293 0.28526637
000250 e0 85 e3 3e c1 6f 33 bf 9f 89 85 3e d9 4e 20 3f
       0.44438076 -0.700924 0.2608156 0.6262031
000260 45 67 94 be 81 84 0e be b2 3f 50 bf 12 ab 51 3e
       -0.28985038 -0.13917734 -0.8134719 0.20475414
000270 e5 c0 19 3f a8 fe 02 3f 7e 5b 63 be 59 74 8e be
       0.6005996 0.51169825 -0.2220287 -0.2782314
000280 49 84 13 3f a8 9d 80 3d 11 13 3e 3e 7d 98 0f be
       0.57623726 0.062800705 0.18561961 -0.14023013
000290 7f 45 86 3d 76 72 6c be e5 a1 d3 be a0 61 e0 3e
       0.06556224 -0.23090538 -0.41334453 0.43824482
0002a0 1e ce 16 bf ef 29 a1 3e 64 2a 7b bd ab 11 34 bd
       -0.5890826 0.31477305 -0.061319724 -0.043962162
0002b0 d1 dc 9f 3e c0 5d d4 bc 7c 79 b2 be f4 b6 31 bf
       0.31223157 -0.02592361 -0.3485831 -0.6941979
0002c0 4a bc b3 be 62 6b cf 3e cc 43 fa be a3 aa 62 3d
       -0.3510459 0.40511614 -0.4887985 0.055338513
0002d0 0a a1 41 3e e2 42 c7 be 6e 51 63 bf 7e 0b 42 bf
       0.18909088 -0.38918215 -0.88796127 -0.75798786
0002e0 20 ad df 3e e7 77 c0 3e 1f 3d b8 be 09 57 d5 be
       0.4368677 0.37591478 -0.35984132 -0.41667965
0002f0 5b 9b 95 be 8e a6 9c 3e 9c fb 68 be ac 0c 0e 3f
       -0.2922009 0.3059582 -0.22752231 0.55488086
000300 78 ba 84 3d f1 08 1f bd 8b 59 40 bd 0e bf 20 bf
       0.064808786 -0.038826887 -0.046960395 -0.62791526
000310 90 61 04 3e 02 b2 6a be 04 53 f6 3e 7a f0 9d bd
       0.12927842 -0.22919467 0.4811021 -0.07711883
000320 18 a3 cb bf 0b de 0f 3e 9c 64 bb 3c 6a a0 f1 be
       -1.5909147 0.14049546 0.022875123 -0.471927
000330 e0 08 a0 3c 8c 43 b3 3c 4c 68 dc 3e b6 21 9a bf
       0.019535482 0.021882795 0.43048322 -1.2041538
000340 8d c7 94 3f 8f 36 06 3f 1a 26 dc 3e e9 f0 aa 3f
       1.1623398 0.52427 0.4299782 1.335477
000350 82 95 70 bf 7b 97 c6 be 63 cc 87 be 4c e7 d6 3e
       -0.9397813 -0.38787445 -0.26523122 0.4197334
000360 02 1f 20 3e 84 dc 07 c0 37 ec 33 3f dd 5f bc 3e
       0.15636829 -2.1228342 0.7028231 0.36791888
000370 09 ff b3 be 76 18 66 3e 73 95 5c be f6 07 28 be
       -0.35155514 0.22470269 -0.21541385 -0.16409287
000380 ea cf 19 be 4f 74 b8 3e 74 68 34 3d 7c e5 07 bf
       -0.15020719 0.36026236 0.044044927 -0.5308454
000390 28 bc 5c 3c f0 2b 81 be a1 86 03 be af 8b a3 3f
       0.013472594 -0.25228834 -0.12844326 1.2777003
0003a0 ff 3b 07 3e 40 dc db be b6 9b bf 3d bf f4 9a be
       0.1320648 -0.42941475 0.093558714 -0.3026485
0003b0 26 37 60 bf 56 e4 15 bf b9 47 19 3f 5b 6c 29 be
       -0.8758415 -0.5855154 0.59875065 -0.1654524
0003c0 19 2d f7 bd 0a 49 87 be e7 90 fa be a8 eb 7f be
       -0.120691486 -0.26422912 -0.48938677 -0.2499224
0003d0 fc 1e 6b be 13 45 71 be f6 37 0d 3f 53 43 81 3e
       -0.22961038 -0.23561506 0.55163515 0.25246677
0003e0 19 de 53 be 23 6b a1 be 40 b3 b6 be 29 e0 58 be
       -0.20690192 -0.3152705 -0.35683632 -0.2117926
0003f0 58 70 37 3e 31 31 62 3e fc cc a9 3c 8c 74 71 bd
       0.1791395 0.22089078 0.020727627 -0.05894904
