if_results/checkpoints_full_5e-12_100_0.001_linear_euler_100_4/best-Conn_Pop1_Pop2-weight.npy (npy, 20608 bytes, 1 tensors)

array f4 [5120]
0	0x3e42343a	0.18965235
1	0xbe9360a3	-0.28784665
2	0xbe16889f	-0.14700554
3	0x3d053b35	0.032527167
4	0x3cc1a30e	0.02363732
5	0x3cff85ff	0.031191824
6	0xbdf333d8	-0.11875123
7	0xbeaf0327	-0.34182093
8	0x3e190ba2	0.14945844
9	0xbe44e961	-0.19229652
10	0x3d075027	0.033035424
11	0x3eed28da	0.4632023
12	0x3d51b281	0.051195625
13	0x3e00e768	0.12588274
14	0xba19e34a	-0.00058703555
15	0x3d9887c3	0.074477695
16	0x3cdc5d01	0.026899816
17	0xb96d73dd	-0.00022645244
18	0x3ea0f12e	0.31434005
19	0xbe72f16c	-0.23724908
20	0xbe3065ad	-0.17226286
21	0x3deb485d	0.114884116
22	0x3d5a55cf	0.05330449
23	0xbdffd1af	-0.12491166
24	0xbd3c24f8	-0.045933694
25	0xbdc9598d	-0.098315336
26	0x3df438af	0.11924874
27	0x3d6e9b29	0.05825344
28	0xbd8ef745	-0.06980757
29	0xbcd224f6	-0.02565239
30	0xbc850578	-0.01623796
31	0xbc836faf	-0.016044466
32	0xbd692079	-0.056915734
33	0xbdb8ef13	-0.09029975
34	0xbcf2d237	-0.029641254
35	0x3e510780	0.20413017
36	0x3dd29e15	0.10284058
37	0xbcb2f1fa	-0.021843899
38	0xbc2f7df2	-0.01071118
39	0x3d0d61ff	0.034517284
40	0xbee76468	-0.4519379
41	0x3d809811	0.06279004
42	0x3ddb167d	0.10697649
43	0xbc1bbae2	-0.009505006
44	0xbd6802c0	-0.056643248
45	0x3d74fc71	0.05981106
46	0x3f0bab56	0.5455831
47	0xbd8365b7	-0.06415885
48	0x3e8ae3df	0.27126977
49	0xbe11d596	-0.14241633
50	0xbd172762	-0.036902793
51	0xbe50126d	-0.20319529
52	0xbdb33f65	-0.08752326
53	0xbe700f0f	-0.23443244
54	0x3e4361df	0.19080304
55	0x3ee20db2	0.44151074
56	0xbc314c27	-0.010821379
57	0xbea3a253	-0.3195978
58	0x3e78a639	0.24282159
59	0x3cb829ea	0.022480924
60	0xbe3d6532	-0.18495634
61	0x3d855d33	0.06511917
62	0x3c820c75	0.01587508
63	0xbdfc8a1a	-0.12331028
64	0x3c7043e2	0.014664622
65	0xbd8e940f	-0.06961834
66	0x3ea49083	0.32141504
67	0xbbd97ef8	-0.0066374503
68	0xbd2140b8	-0.03936836
69	0xbe46a55f	-0.19399022
70	0xbe059efb	-0.13048927
71	0x3ccff9fa	0.025387753
72	0xbcfff852	-0.031246338
73	0xbd8104ff	-0.06299781
74	0x3dcdf759	0.100569434
75	0x3ea730e3	0.32654485
76	0x3e18db07	0.14927302
77	0xbc9c29cb	-0.019062897
78	0x3e0359bd	0.12827201
79	0xbcba041f	-0.022707043
80	0x3df766c4	0.12080148
81	0x3e458e0a	0.19292465
82	0xbe80b57d	-0.25138465
83	0xbd0ff28b	-0.035143416
84	0xbdbe1f32	-0.09283294
85	0xbe0f13e2	-0.13972428
86	0xbecc8947	-0.39948484
87	0x3e67229e	0.22571799
88	0xbec772a2	-0.38954645
89	0x3e8cd5bb	0.27506813
90	0xbdaf26dc	-0.08552334
91	0x3df84035	0.121216215
92	0x3cf5c5cb	0.030001542
93	0x3cc4fd02	0.024046425
94	0xbe0ad8fc	-0.13559335
95	0xbea809d7	-0.32820007
96	0xbd1e8d0e	-0.03870874
97	0x3ec7a16a	0.38990337
98	0xbebcfc0b	-0.36911044
99	0x3cf39be4	0.02973742
100	0xbefa3fc3	-0.4887677
101	0x3c11b049	0.008892127
102	0x3e3bb972	0.1833246
103	0x3af9547b	0.001902237
104	0xbcc38fd4	-0.023872294
105	0x3d9c2268	0.0762375
106	0x3f22015d	0.6328333
107	0xbd93535d	-0.07193635
108	0x3e73167d	0.23739047
109	0xbe53a458	-0.20668161
110	0x3cac88da	0.02106135
111	0xbeb043d2	-0.34426743
112	0xbe2f48eb	-0.1711766
113	0xbe7a7289	-0.24457754
114	0x3e34850a	0.17628875
115	0x3f10b7b8	0.5653033
116	0xbd5631c1	-0.052293543
117	0xbed63f14	-0.41845
118	0x3ebf9e53	0.3742548
119	0x3d84cd65	0.064844884
120	0x3e319acf	0.17344211
121	0x3d47834c	0.0487092
122	0xbde21e2d	-0.11040912
123	0xbe3cb3e9	-0.18428005
124	0xbc3a8fcf	-0.011386826
125	0xbd3be81f	-0.045875665
126	0x3e0979ae	0.13425323
127	0x3cc1ddc7	0.023665322
128	0xbcbef659	-0.023310827
129	0xbe8cf82b	-0.27533087
130	0x3cf5952d	0.02997836
131	0x3ef8b976	0.48578995
132	0x3e830e83	0.2559701
133	0xbe19057a	-0.14943495
134	0xbd503ada	-0.050837375
135	0xbe047a9a	-0.12937394
136	0x3eb223f4	0.34793055
137	0x3cf199ad	0.029492224
138	0xbf02b082	-0.5105058
139	0x3e1e4d2b	0.15459125
140	0xbe817dfc	-0.2529143
141	0x3ec62f11	0.38707784
142	0x39cac575	0.0003867556
143	0x3ea69162	0.32532793
144	0xbe069cda	-0.13145772
145	0x3f82a3c9	1.0206233
146	0xbf4a0741	-0.7891732
147	0xbf4807b3	-0.7813675
148	0xbf986498	-1.1905699
149	0xbba43c92	-0.0050121034
150	0xbe1a2181	-0.15051843
151	0x3f6db799	0.9285827
152	0x3f489e0b	0.78366154
153	0x3da7c878	0.08192533
154	0xbe9ec772	-0.3101154
155	0x3e5244dc	0.2053408
156	0xbf44f594	-0.7693722
157	0xbec09f52	-0.37621552
158	0xbf1b5a34	-0.60684514
159	0xbf126947	-0.5719189
160	0x3dd5985c	0.10429451
161	0x3e0e5ef6	0.13903412
162	0xbe05c4a1	-0.13063289
163	0x3b05c04b	0.0020408805
164	0xbd9c9782	-0.07646085
165	0xbe51af23	-0.20476966
166	0xbe34e92e	-0.17667076
167	0x3e1b0714	0.15139419
168	0xbdeb5a9c	-0.11491892
169	0x3da410d8	0.08011025
170	0x3e15aad1	0.14615943
171	0x3e2ebb83	0.17063718
172	0x3d54fd6d	0.0519995
173	0xb9a26d20	-0.00030980352
174	0xbe1f8c76	-0.15580925
175	0xbe207211	-0.15668513
176	0x3d0ed0c3	0.03486706
177	0x3e4ac7d8	0.19802797
178	0xbe847e03	-0.2587739
179	0x3e0790c3	0.13238816
180	0x3ef6956d	0.48160878
181	0x3e9daac0	0.30794334
182	0xbeb5fad4	-0.3554293
183	0x3e96a94e	0.29426044
184	0xbdc32ab2	-0.09529628
185	0xbd9a5e06	-0.07537465
186	0xbf7c6d4c	-0.98604274
187	0x3efb9798	0.49139094
188	0xbf352690	-0.70761967
189	0x3f2f2f16	0.6843122
190	0xbe9ac9bb	-0.30232033
191	0xbefdd840	-0.49579048
192	0xbda73ad3	-0.08165517
193	0x3e847dcc	0.25877225
194	0xbe9b0f44	-0.30285084
195	0xbf44177e	-0.76598346
196	0xbf3f8973	-0.74819106
197	0x3ef2f193	0.47449932
198	0xbf57d84e	-0.8431443
199	0x3ced03e3	0.028932517
200	0x3e630f46	0.22173795
201	0x3e03cec3	0.12871842
202	0xbe2d8599	-0.16945495
203	0xbe08a09b	-0.13342516
204	0xbe2cd8fe	-0.16879651
205	0x3d2177c4	0.039420858
206	0xbf201acb	-0.6254088
207	0x3c551865	0.013006304
208	0xbe986454	-0.29764044
209	0x3e9e1fca	0.30883628
210	0xbc58f176	-0.0132411625
211	0x3e2d1c52	0.16905335
212	0x3e5e991b	0.21738093
213	0x3e2f9315	0.17145951
214	0xbe4108f5	-0.18851073
215	0xbe9ff161	-0.31238845
216	0xbcf9e5e5	-0.03050513
217	0x3e1eea9b	0.15519182
218	0xbef14080	-0.47119522
219	0x3cff5c56	0.031171959
220	0x3f9171ae	1.1362817
221	0x3e908471	0.28226045
222	0x3f6a9cdd	0.91645604
223	0xbfe2f933	-1.77323
224	0xc00d4d90	-2.207859
225	0xbf8322e0	-1.0245018
226	0x3f32a50b	0.69783086
227	0xbebf4961	-0.3736067
228	0xc0174132	-2.3633542
229	0xbed2b8fc	-0.41156757
230	0x3fa27f07	1.2695016
231	0xc0214059	-2.5195525
232	0x3f88e063	1.0693477
233	0xc0347703	-2.819764
234	0xbdcc7fd2	-0.09985317
235	0xbf9d13f6	-1.2271717
236	0x3fab9e36	1.3407657
237	0x3f8c9bb4	1.0985017
238	0xbff22dca	-1.8920224
239	0x3ee6ca3c	0.45076168
240	0x3eba7e1f	0.36424348
241	0x3d8a3352	0.0674807
242	0xbe6e3c51	-0.23265196
243	0x3de98300	0.114019394
244	0xbe851e13	-0.25999507
245	0xbe257a62	-0.16159967
246	0xbf54be2a	-0.8310267
247	0x3e908596	0.28226918
248	0xbeb4bf39	-0.3530214
249	0x3e87673d	0.26445952
250	0xbda5afb9	-0.08090157
251	0x3e179a32	0.14804915
252	0x3dac2396	0.08405225
253	0x3e4d63a1	0.20057537
254	0xbe684729	-0.22683395
255	0xbf20d39c	-0.6282289
