raf_results/checkpoints_full_0.1_-1.0_0.0045_-0.0007_5e-12_100_0.001_0.01_0.01_linear_euler_100_1/best-Conn_Pop0_Pop1-weight.npy (npy, 716928 bytes, 1 tensors)

array f4 [179200]
00000000: 9602 733b 3b70 cdbe cefe b6bc cc3b f3be
00000010: 1fb2 2abf 37a9 423e e0d7 16be 2c2e a8bd
00000020: eebd e8be 54bb cebd 2f06 5dbd 05db 58bd
00000030: 91cf 26be f333 c43d 0a9e cd3c 9bca 163e
00000040: 0762 c53e bd84 d53e 00a2 81be 984f c8be
00000050: f508 b33e 7408 983e 506a 1fbe 5208 09be
00000060: 38f6 35bd 11d2 20bf 1534 a6be c0fd e7bd
00000070: 96c5 ee3d 7c93 4fbf 7917 d3bd ba04 80be
00000080: f467 b7be 4c85 afbe cb3b e13d 5a5f 9dbe
00000090: 6a3c 29be a893 fcbe 795c 003e 6b10 2b3e
000000a0: e7e3 c1be 9086 dc3d ea05 90be e4fd d83d
000000b0: 8bac abbd df29 8cbe 57f6 03be c190 2dbd
000000c0: bf57 e7bd 83c2 abbe b03f 03bf e23b f03d
000000d0: 7647 85bd 9e61 f5bd 5024 b2be f76c 37be
000000e0: 6f10 9bbe 6b7e 2ebf dd80 44be 81fa 06bf
000000f0: 02f1 80be 5de1 0fbe bfa3 063f 7095 20be
00000100: 6a2a 25be 6664 1fbe bb09 d7bd 56ac 57bd
00000110: aa13 183e 209f 16bd 1464 67be 31c0 20bf
00000120: b726 9cbe 4da9 d3be a030 6f3d e027 0ebf
00000130: c9f4 94bc 18a3 f8bc fd0c dabd d0e1 c7bd
00000140: 123c f3bd 8b4c a9be d6bc d8be 5509 f1be
00000150: ca81 18bc afb7 a4be 871c 14bf 3feb 823e
00000160: 3c19 6a3b 706d c1be c73f 3cbe 6fad 00be
00000170: d167 d1bd 4b18 033f cf2c a9be 2daa cdbe
00000180: ac64 b83d 5015 0abe 12fc d4bd 87d8 663e
00000190: 969d 5fbf c1d9 a0be 0923 7bbd 2892 18bf
000001a0: 2eb3 163f 446a 793d e6d5 26bf d80e a03e
000001b0: 4ebf 4abe f10c ffbe e00f 10be 82e5 a7be
000001c0: 5832 78be d0dd 2ebd cb37 3b3d a04c 873d
000001d0: e5df c9be 5fe0 23bd 9cfe d5bc d8c2 2ebe
000001e0: 087a f2be e2d7 e8be 91dc 2cbf 60eb 083d
000001f0: 20f9 51be fab1 d83d 251b 34be 631b 37bb
00000200: 5b29 c43e 2f00 af3d cc29 673d 7eb8 53be
00000210: 83b9 d33e d1c2 95be 79cd 743e 4aaf 77be
00000220: 9fc2 443e 49ce e93d 1863 983e 0ca9 18bf
00000230: e293 24be f89b 45bf 725e e8be 53fd 67be
00000240: f091 41bf 2a48 e6be d5cc a93d 924c a6be
00000250: 1b0f 83bd 669b b7bd c9d9 ae3d 3106 58bd
00000260: e0e3 233e bda9 ec3c be67 483e 0061 1ebe
00000270: e0f1 5fbd f40f b1be 1868 6ebe 8f6a a93d
00000280: 213d c2be de0c c8bd d951 31bc 9ef7 573e
00000290: 23af 60bf 352a 943e 7aab 98bd b570 d23d
000002a0: 0455 2dbe bd44 0e3e cad2 b1bc e140 25ba
000002b0: 08e6 4c3f b0ae febe cf3c cabd 1ac8 a4be
000002c0: b141 913e 2b7e 02be db09 ecbd 6c8a 7ebe
000002d0: 6c3d 42bf e424 ce3e 7af5 a8be 5992 073e
000002e0: dd6b 51bd 23d1 13bd ba81 1bbd 0a89 ac3e
000002f0: 6116 b3bc 959f d6be ee38 b6be 7e48 74be
00000300: 9106 9fbc 8562 a53e 106a 9f3e 598d c23d
00000310: cca1 97be dd2f dabe a9e2 f7bd 9008 fbbe
00000320: 5a06 083e cbb8 f0bc 0efd 86bc ac55 bfbe
00000330: cc67 9e3d a904 99be 1162 c23e 39dd 3a3d
00000340: a8b2 d3be 8f1c 2fbe 767a cebe d0c4 a83e
00000350: ba71 703d bbd9 66be 3223 7cbd 961d dabc
00000360: 6d4a 0f3e ded8 6abe 3129 47bf d3af b0bd
00000370: 2747 d1be b2e3 efbc 8926 e33d 68f3 c93e
00000380: c4d3 b8bd 3336 b2bd c9aa 36bf 7702 24be
00000390: 3f58 4fbe 2a2e f8bd a786 d5bd af59 30bd
000003a0: 0596 5b3e 94ce 643e 983f a33e fdd2 2cbf
000003b0: ab3a b2be 33af 1cbe 3fe9 0e3e 3101 59be
000003c0: f538 21bf 0048 3cbf 0a04 c2be 5389 eebd
000003d0: b280 043e dcbc b9be c9d2 54be 3ec3 ad3d
000003e0: 7e4b da3e 1ade e6bd 98bf 2fbf 4043 aa3e
000003f0: ff89 7e3e 36e1 3cbe b88e 02be 8367 b23d
0.0037080399 -0.40124688 -0.022338297 -0.4750656 -0.6667804 0.19009863 -0.14730787 -0.082119316
-0.45457405 -0.10094324 -0.053960975 -0.05294325 -0.16290118 0.09580221 0.025099773 0.14725725
0.3855135 0.41702834 -0.2531891 -0.39123225 0.3496777 0.2969395 -0.15567899 -0.1338208
-0.044424266 -0.62820536 -0.3246161 -0.11327696 0.1165878 -0.8108442 -0.103072114 -0.25003606
-0.35821497 -0.34281385 0.10997733 -0.3073681 -0.16526952 -0.49331403 0.12535276 0.16705482
-0.37869188 0.10767853 -0.28129512 0.10595301 -0.08382519 -0.27375695 -0.1288694 -0.042374376
-0.11296033 -0.33546838 -0.51269054 0.11730172 -0.06507771 -0.119815096 -0.3479333 -0.1791266
-0.30285975 -0.6816165 -0.19189782 -0.5272599 -0.25183874 -0.14050813 0.52593607 -0.15682006
-0.16129461 -0.15565643 -0.10499903 -0.052654587 0.14851251 -0.036772847 -0.2259677 -0.6279326
-0.30498287 -0.41340104 0.05839598 -0.55529594 -0.018183129 -0.030351207 -0.106470086 -0.09759867
-0.11876692 -0.3306621 -0.4233157 -0.47077432 -0.009308288 -0.3217139 -0.5785603 0.25570104
0.0035720607 -0.37778807 -0.18383704 -0.1256616 -0.102248795 0.51208943 -0.33042 -0.40168896
0.09003577 -0.13484693 -0.10399641 0.22543536 -0.8734983 -0.31416133 -0.06131271 -0.59598017
0.58867157 0.06089236 -0.65170133 0.31261325 -0.1979954 -0.4981456 -0.14068556 -0.32792288
-0.24237955 -0.042692006 0.045707505 0.06606412 -0.3942863 -0.0400089 -0.026122384 -0.17066514
-0.47358727 -0.45477206 -0.6752406 0.033427596 -0.2050519 0.10580821 -0.1758848 -0.0027939908
0.38312802 0.08544957 0.056436345 -0.20675847 0.41352472 -0.29250196 0.23906507 -0.24187961
0.19214867 0.11416299 0.29763103 -0.59632945 -0.16072038 -0.77191114 -0.45384556 -0.2265523
-0.7561331 -0.44976932 0.08291022 -0.32480294 -0.063993655 -0.08965187 0.08537633 -0.05274028
0.16004896 0.028889531 0.19570825 -0.1546669 -0.05467403 -0.34582484 -0.23281896 0.082722776
-0.37937263 -0.09768079 -0.010822737 0.21090552 -0.8776724 0.2893845 -0.074545816 0.102754034
-0.16926962 0.13893409 -0.021706957 -0.0006303918 0.800385 -0.4974265 -0.098748796 -0.32183915
0.2837043 -0.12743442 -0.11525317 -0.24857491 -0.7587497 0.4026252 -0.32999784 0.13239421
-0.051128257 -0.03608812 -0.037965514 0.33698303 -0.021861257 -0.41918626 -0.3559031 -0.23855779
-0.01941231 0.32301727 0.31135607 0.09499616 -0.2961563 -0.42614642 -0.12103779 -0.4902997
0.13283673 -0.029384991 -0.016478088 -0.3737005 0.077346414 -0.29886368 0.37965444 0.04562113
-0.4134724 -0.17100738 -0.40327805 0.32962656 0.058702208 -0.22543995 -0.061557002 -0.026625436
0.13993235 -0.22934291 -0.7779723 -0.08627286 -0.40874597 -0.029283378 0.110913344 0.39443517
-0.09024766 -0.08701744 -0.7135435 -0.16016565 -0.20248507 -0.1211818 -0.104260735 -0.04305428
0.21443947 0.22344428 0.31884456 -0.6750944 -0.34810385 -0.15301208 0.13956164 -0.2119186
-0.62977535 -0.73547363 -0.37893707 -0.11647286 0.12939718 -0.362769 -0.20783533 0.08484505
0.4263572 -0.11272831 -0.68651724 0.33254433 0.24857329 -0.18445286 -0.12749755 0.087111495
