raf_results/checkpoints_full_0.1_-1.0_0.0045_-0.0007_5e-12_100_0.001_0.01_0.01_linear_euler_100_1/best-Conn_Pop1_Pop2-weight.npy (npy, 20608 bytes, 1 tensors)

array f4 [5120]
0	0x3a052e11	0.0005080412
1	0xbf6c2623	-0.9224569
2	0x3e08b3ca	0.13349834
3	0xbf97cb84	-1.1858983
4	0x3d47e561	0.048802737
5	0x3e8cf4aa	0.27530414
6	0x3efad3fe	0.48989862
7	0x3e9fe1d5	0.31226984
8	0x3e19d35e	0.15022036
9	0xbf414c3c	-0.7550695
10	0xbf0a80a3	-0.54102534
11	0x3eb1318e	0.3460812
12	0x3db0886f	0.08619773
13	0x3d9a0fa8	0.075225174
14	0xbf1731fd	-0.5906065
15	0xbdcc2d95	-0.099696316
16	0x3ea12fc2	0.3148175
17	0xbc4875ef	-0.012235149
18	0x3ea8bde9	0.3295739
19	0xbebecdc0	-0.3726635
20	0xbe13785e	-0.14401385
21	0x3e223965	0.15842207
22	0x3e603b62	0.21897653
23	0x3e1110c1	0.14166547
24	0xbedd475c	-0.43218505
25	0xbe444c52	-0.19169739
26	0xbeece514	-0.46268523
27	0x3e04b510	0.12959695
28	0xbeaeff96	-0.34179372
29	0x3ed0cdf7	0.4078214
30	0xbdaaf074	-0.08346644
31	0xbb87d297	-0.0041449773
32	0x3d149f71	0.036284868
33	0xbd66ea94	-0.056376055
34	0xbed5bfeb	-0.41747984
35	0x3df3912e	0.11892925
36	0xbef292e4	-0.47377694
37	0x3dc8017e	0.097659096
38	0xbdddd280	-0.10831165
39	0x3d9468c9	0.07246549
40	0xbdb2b13e	-0.087252125
41	0xbe4b6192	-0.19861439
42	0x3d81e79d	0.06343005
43	0xbdc776d7	-0.09739464
44	0x3b0c27c7	0.0021386014
45	0x3e92dcb6	0.28684014
46	0xbe804fd4	-0.25060904
47	0xbeb7b6fd	-0.35881796
48	0x3e08b19c	0.13349003
49	0xbef741f6	-0.48292512
50	0x3ee709ab	0.45124564
51	0x3e85fcd4	0.26169455
52	0xbd2d6f3a	-0.042342402
53	0xbe1da96d	-0.15396662
54	0xbc567e99	-0.013091707
55	0xbe0de1d2	-0.13855675
56	0x3e095b25	0.13413675
57	0xbe96f013	-0.29480037
58	0x3e8cd970	0.27509642
59	0xbee468b8	-0.44611144
60	0xbf482ce6	-0.7819351
61	0x3ebee2eb	0.372825
62	0x3dd8ced0	0.10586321
63	0x3ee97523	0.4559718
64	0xbf72f530	-0.94905376
65	0xbeccff36	-0.4003846
66	0xbf0152ba	-0.50516856
67	0x3eaa607b	0.33276734
68	0xbee45886	-0.44598788
69	0x3ec4ef12	0.38463646
70	0xbee25f33	-0.44213256
71	0x3e252636	0.16127858
72	0xbe3b0f0c	-0.18267459
73	0xbe9894f2	-0.29801136
74	0xbdb3f14a	-0.087862566
75	0x3d205f10	0.03915316
76	0x3dbff6e5	0.09373263
77	0x3f3e0557	0.742269
78	0x3dbd406a	0.09240802
79	0x3e9e4c69	0.3091767
80	0xbd6cff03	-0.057860386
81	0x3f1f1e0e	0.62155235
82	0xbfd53de4	-1.6659513
83	0xbfc89d04	-1.5672917
84	0xbdb3b3b5	-0.08774511
85	0x3c9b5657	0.018962068
86	0xbf85b843	-1.0446857
87	0x3e9219df	0.28535363
88	0xbf93b9a7	-1.1541032
89	0x3e23d078	0.15997493
90	0x3dcd0baa	0.1001199
91	0xbf203a3b	-0.6258885
92	0x3e7f18e6	0.24911842
93	0x3e92ae95	0.2864882
94	0x3d1e3469	0.0386242
95	0xbf964fb7	-1.1743077
96	0x3eb6e18d	0.35718957
97	0x3e136fc3	0.14398102
98	0x3d58fc59	0.052975032
99	0x3f017972	0.50575936
100	0x3ce6cbbe	0.028173324
101	0xbe8e64cf	-0.27811286
102	0xbecd31d0	-0.40077066
103	0xbec031df	-0.3753805
104	0xbea09ebf	-0.31371114
105	0xbe096222	-0.13416341
106	0x3eeb524b	0.45961222
107	0x3f07bb21	0.5301991
108	0x3e54a038	0.20764244
109	0xbee05cf5	-0.4382092
110	0xbf55a7d7	-0.8345923
111	0xbe8a7b18	-0.27047038
112	0x3e275b14	0.16343337
113	0x3d479922	0.048730023
114	0xbd7b3e4b	-0.061338704
115	0xbebed663	-0.3727294
116	0x3e53aab3	0.20670585
117	0x3ea577db	0.32318005
118	0xbe0fb1e2	-0.140327
119	0xbeca4860	-0.39508343
120	0xbec74c2d	-0.38925305
121	0xbd99ff0f	-0.07519352
122	0x3e383be5	0.17991598
123	0x3e38063e	0.17971131
124	0xbf80f552	-1.0074866
125	0xbf686531	-0.90779406
126	0x3ee58418	0.44827342
127	0xbe4a5357	-0.19758354
128	0x3ebc2841	0.3674946
129	0xbe2d3ad2	-0.1691697
130	0x3f0fa071	0.5610419
131	0xbf0f0e85	-0.5588153
132	0xbe0d13d7	-0.137771
133	0xbef14d83	-0.4712945
134	0x3e03ca38	0.12870109
135	0x3de7660e	0.11298762
136	0x3ef5faeb	0.48042998
137	0x3ecfa182	0.40552908
138	0xbe2e1f4a	-0.17004123
139	0x3ef7682d	0.48321667
140	0xbe064f35	-0.13116153
141	0xbe4ab83b	-0.19796841
142	0x3de7e45a	0.113228515
143	0x3d651f2a	0.055937923
144	0xbe6e4cc6	-0.23271474
145	0x3d615907	0.055016544
146	0xbf5c638b	-0.8608939
147	0x3ed29c69	0.41134956
148	0x3d49d438	0.049274653
149	0xbe5a042a	-0.21290651
150	0x3dd3a68e	0.10334502
151	0x3ef1f2df	0.47255608
152	0xbe869584	-0.26285946
153	0x3dc0e62d	0.094189025
154	0xbecadfbd	-0.39623824
155	0x3ebb553d	0.3658847
156	0xbc6bea20	-0.0143990815
157	0xbd86080a	-0.06544502
158	0xbf0a0464	-0.5391295
159	0xbe92e6ac	-0.28691614
160	0x3e56ba4a	0.20969501
161	0xbf38f646	-0.72250783
162	0xbecdf83d	-0.40228453
163	0x3e7bc066	0.24585113
164	0x3f1fd5cd	0.6243561
165	0xbc242fb1	-0.010021136
166	0xbde387dc	-0.111098975
167	0xbe881641	-0.26579478
168	0x3e6f39b7	0.2336186
169	0x3df147c2	0.11781265
170	0xbe4535a1	-0.19258739
171	0xbd9033b0	-0.070411086
172	0xbed4b532	-0.4154449
173	0xbd53bd18	-0.051694006
174	0x3e455c68	0.19273531
175	0xbe48d150	-0.19611096
176	0xbd6ed0c5	-0.058304567
177	0xbedc399a	-0.43012697
178	0x3ec3aa9e	0.38216108
179	0x3d6eed52	0.058331795
180	0x3ea10b2e	0.31453842
181	0x3e840ed8	0.25792575
182	0x3d78c2a3	0.060732495
183	0x3d901a95	0.0703632
184	0x3b02a140	0.0019932538
185	0xbda1e96d	-0.079058506
186	0xbf613983	-0.8797838
187	0x3cfd8930	0.030949205
188	0xbedfd510	-0.4371724
189	0x3e5a1482	0.21296886
190	0x3d3652f6	0.04451271
191	0xbe96e1c4	-0.2946912
192	0xbe597d9c	-0.21239322
193	0x3e53fa2b	0.207009
194	0xbd203715	-0.03911503
195	0xbe8f7e45	-0.28026024
196	0xbe4f9ce0	-0.20274687
197	0x3e48970b	0.19588868
198	0xbe1d8d3b	-0.15385906
199	0x3d90ba5a	0.07066794
200	0xbf98db24	-1.1941876
201	0x3e4b812e	0.19873497
202	0xbde25d5e	-0.11052965
203	0xbe4489b0	-0.19193149
204	0xbf3ffff1	-0.7499991
205	0x3f294bb6	0.6613115
206	0x3ec7676b	0.3894609
207	0xbf9a2a40	-1.2044144
208	0x3eeb2d81	0.45933154
209	0x3f859c14	1.0438256
210	0x3f272b7f	0.65300745
211	0xbf8c4a7c	-1.0960231
212	0xbe944c38	-0.289644
213	0xbe011ac7	-0.12607871
214	0xbf095138	-0.53639555
215	0x3eca4da6	0.39512366
216	0xbe44b6f7	-0.1921042
217	0x3f33f63a	0.70297587
218	0x3f4491bb	0.7678487
219	0xbe993272	-0.299213
220	0xbe1a2b47	-0.15055571
221	0x3e73f408	0.2382356
222	0xbd63e11b	-0.0556346
223	0x3decdec9	0.115659304
224	0xbe32b817	-0.17453037
225	0x3ea68bf7	0.3252866
226	0x3ef2b060	0.47400188
227	0xbee6c417	-0.4507148
228	0x3eb72434	0.35769808
229	0xbe7e8cfd	-0.2485847
230	0xbe125af3	-0.14292507
231	0x3f44d3ac	0.76885486
232	0xbe05893a	-0.13040629
233	0xbde203ce	-0.11035882
234	0x3c0f8e0a	0.008761892
235	0x3d2ac8a9	0.04169527
236	0xbf2ea138	-0.6821475
237	0xbec050b7	-0.3756158
238	0xbe93963b	-0.28825554
239	0xbd87ee83	-0.066372894
240	0xbe081b73	-0.13291721
241	0x3da66634	0.081249624
242	0x3f392db4	0.7233536
243	0x3e92112e	0.28528732
244	0xbed5a66e	-0.41728538
245	0xbea50f87	-0.3223841
246	0x3e1df740	0.1542635
247	0xbda7d907	-0.081956916
248	0x3e0d7f40	0.13818073
249	0xbc83f983	-0.016110187
250	0xbdf9fa11	-0.122058995
251	0xbe93fbf5	-0.28903165
252	0xbe0e3728	-0.13888228
253	0x3dc34c4e	0.09536038
254	0xbe5c9f1a	-0.21545067
255	0x3d94b09b	0.07260247
