if_results/checkpoints_full_5e-12_100_0.001_linear_euler_100_6/best-Conn_Pop0_Pop1-weight.npy (npy, 716928 bytes, 1 tensors)

array f4 [179200]
0	0x3ee7b876	0.4525792
1	0x3ecd64c8	0.40115952
2	0x3faef82a	1.3669484
3	0x3d93af53	0.07211175
4	0xbfbc7d91	-1.472582
5	0x3f828172	1.0195754
6	0xbd4bde87	-0.049772765
7	0xbf06657f	-0.5249862
8	0x3f602840	0.87561417
9	0x3f2dfe82	0.67966473
10	0x3f5371ad	0.8259533
11	0x3f4d474a	0.80186903
12	0x3ecbedd7	0.39829895
13	0x4045e51c	3.0921087
14	0x4006f078	2.108427
15	0xbfdc76f4	-1.7223802
16	0x3f933933	1.1501831
17	0xbc7778cb	-0.015104483
18	0xbe8340b7	-0.2563531
19	0x3ee5bfb5	0.44872823
20	0xbefa1f67	-0.48852083
21	0x3fe165a8	1.7609148
22	0x3f60c1e7	0.8779587
23	0x3ff3ef18	1.9057341
24	0x3fa199a7	1.2625016
25	0x3f8626d4	1.0480599
26	0x3f583440	0.8445473
27	0x3f5b70fe	0.8571929
28	0x3f10a033	0.56494445
29	0xbd13284b	-0.0359271
30	0xbfcbc66c	-1.5919929
31	0xbefead8b	-0.49741778
32	0x3f5c312a	0.8601252
33	0x3f6a1d0b	0.91450566
34	0x4019e462	2.4045644
35	0x3e801b1b	0.2502068
36	0x3fa5230b	1.2901319
37	0x3f134f0e	0.575425
38	0x3f05bf2f	0.5224485
39	0xbdcb0a9e	-0.099141344
40	0x3d69bc69	0.057064448
41	0xbeda638a	-0.42654067
42	0xbf6c64cd	-0.9234131
43	0x3febbc10	1.8416767
44	0xbf268d3b	-0.6505925
45	0x3f818958	1.0120039
46	0x3e916677	0.28398487
47	0xbfd66f50	-1.675272
48	0x40789cbb	3.884566
49	0x3ddb0c62	0.10695721
50	0x3f02faf8	0.511642
51	0x3ea98719	0.33110884
52	0x3f81d0ee	1.0141885
53	0xbde4752a	-0.1115516
54	0xbf9087d8	-1.1291456
55	0x3fe89f70	1.8173656
56	0x3d9beef7	0.07613938
57	0x3febabdf	1.8411826
58	0x3ffb1abb	1.9617532
59	0x3f096bc7	0.5368008
60	0x3faa54f8	1.330718
61	0x3f5eedbe	0.87081516
62	0x3f3b1a3e	0.7308692
63	0x4005aaf8	2.08856
64	0xbe82a947	-0.25519773
65	0x40535240	3.3018951
66	0x40181986	2.3765578
67	0x403fcfb2	2.9970517
68	0x3f4ffd1b	0.81245583
69	0xbf507a67	-0.8143677
70	0x3f8c92c4	1.0982289
71	0x402e53cf	2.7238653
72	0x3ec9d6a3	0.39421567
73	0x3ff079e0	1.8787193
74	0xc00e3674	-2.2220736
75	0x3eaaa9da	0.3333271
76	0x40683ef5	3.6288426
77	0x3e827a78	0.2548406
78	0x3f75ef40	0.9606819
79	0x3f7eb1ad	0.9948986
80	0xbfd5c46a	-1.6700566
81	0x3ec561c0	0.3855114
82	0xbf0a2a04	-0.5397036
83	0x3fd399bc	1.6531291
84	0x3fbacbde	1.4593465
85	0xbd2e4463	-0.042545687
86	0x3e376f02	0.1791344
87	0x3f40fc62	0.75385106
88	0xbc88c0ab	-0.016693434
89	0x3ee14b95	0.44002977
90	0xbc990629	-0.018679695
91	0x3dc37ee0	0.09545684
92	0x3f802e61	1.0014154
93	0xc00ff4e9	-2.2493231
94	0xbff52daa	-1.915456
95	0xbec6ac5e	-0.3880338
96	0xbdd0108f	-0.10159408
97	0x3ec0338b	0.37539324
98	0xbf814eda	-1.0102189
99	0xbeb288ee	-0.34870094
100	0x3f8a140b	1.0787367
101	0x400c24ac	2.1897383
102	0xc011ff2b	-2.2811992
103	0xc0093a31	-2.1441767
104	0x3e41460b	0.18874376
105	0x3e41d613	0.18929319
106	0x3f7f315f	0.9968471
107	0x3ee85c08	0.45382714
108	0x4063e851	3.5610545
109	0xbee39862	-0.44452196
110	0x403a3b4a	2.9098687
111	0x3fa2adbb	1.2709268
112	0x3f534740	0.82530594
113	0x403a3b6d	2.909877
114	0x3fa717b8	1.3054113
115	0x3ecd6db2	0.40122753
116	0x3fb90487	1.4454507
117	0x3e2e25b9	0.17006578
118	0x3e411c9a	0.18858567
119	0x4048b9f0	3.1363487
120	0x403748dc	2.863822
121	0xbf455496	-0.7708219
122	0x3fc46419	1.5343047
123	0x3ed17b73	0.40914497
124	0x3dfb8287	0.122807555
125	0x3ff69d02	1.9266665
126	0x3eabdd2a	0.33567172
127	0x3ee01ad8	0.4377048
128	0x3f935430	1.1510067
129	0x3f470f33	0.7775757
130	0x3e86402b	0.2622083
131	0x3faf93ea	1.3717015
132	0xbd8c045f	-0.06836771
133	0x3ee44af1	0.44588426
134	0x3fe0b74c	1.7555938
135	0xbf86bd38	-1.0526495
136	0xbe4a046e	-0.19728252
137	0x3fda096c	1.7034125
138	0x400e872a	2.2269998
139	0x3ef84288	0.4848826
140	0xbd9166b0	-0.07099664
141	0x402587bf	2.5864103
142	0x3f8a0652	1.0783179
143	0x3f4026df	0.7505931
144	0x3fb2cc31	1.3968564
145	0xbfdfb935	-1.7478396
146	0x3e4bbc6a	0.19896093
147	0x3d693f35	0.056945045
148	0xbff58453	-1.9181007
149	0x3fad0753	1.351786
150	0x3f8fa7d3	1.1223091
151	0x3f20c9c4	0.6280787
152	0x3e0ea13b	0.13928692
153	0x3f274377	0.6533732
154	0x3fe76db6	1.8080356
155	0x3f31707f	0.6931228
156	0xbd79a075	-0.06094404
157	0x3fc0afd7	1.5053662
158	0xbe826b16	-0.25472325
159	0xbc2ddf04	-0.010612253
160	0x3e4e9b5c	0.20176452
161	0x3f665ad3	0.89982337
162	0x3ec37b00	0.3817978
163	0x3d23aefc	0.0399618
164	0x3e275a2d	0.16342993
165	0x3ed10e35	0.40831152
166	0x3eb809ac	0.3594488
167	0x40033605	2.050172
168	0x400635f8	2.097044
169	0x3e4693e4	0.19392353
170	0x3ec4ada0	0.38413715
171	0x3ef5ae3f	0.47984502
172	0x3fb79d10	1.4344807
173	0x3e403392	0.18769673
174	0xbff13223	-1.8843426
175	0x3d40c776	0.04706522
176	0x40306934	2.756421
177	0x4023a078	2.5566692
178	0x3fd090a6	1.6294143
179	0x3ffece8f	1.9906787
180	0x4020db3a	2.5133805
181	0x3fc27e22	1.5194743
182	0x400beb2b	2.1862285
183	0x3e216dce	0.15764543
184	0xbdef1704	-0.11674312
185	0x3f032f5c	0.5124414
186	0xbdf2f933	-0.11863937
187	0x3fae5764	1.362042
188	0x3f4f7484	0.81037164
189	0x3f4598c5	0.7718623
190	0xbea8d474	-0.3297459
191	0xbf91e642	-1.1398394
192	0x40037b4a	2.0544
193	0xbf02704d	-0.5095261
194	0x401c150d	2.4387848
195	0x3d843ad1	0.06456531
196	0xbeb86e9e	-0.36021894
197	0x3ebf3cc9	0.37351063
198	0xbd8d3d92	-0.06896509
199	0x40475c4b	3.115008
200	0x3ff05d58	1.8778486
201	0x3f5b59bc	0.856838
202	0xbd09a7fa	-0.03360746
203	0x3fba44de	1.4552267
204	0x3f1c352e	0.61018646
205	0x3f424b6a	0.7589632
206	0x3f353bed	0.70794564
207	0x3f6f15d5	0.9339269
208	0x3e95d5c0	0.2926464
209	0xbf1bf270	-0.60916805
210	0x3e514d64	0.20439678
211	0x3e1c9ef7	0.15295015
212	0x3fa22b59	1.2669479
213	0x3f8ea68e	1.1144578
214	0x3dcff612	0.10154356
215	0x3f9754b8	1.1822729
216	0x3ea0ce14	0.31407225
217	0xbf32283f	-0.6959266
218	0x3f35cb4f	0.7101335
219	0xbfb113f5	-1.3834215
220	0x3f212e66	0.62961423
221	0x4019863d	2.3988183
222	0x3f1bc01e	0.6084002
223	0xbf40def5	-0.75340205
224	0x3ed3c32d	0.41359845
225	0x3f5227e6	0.8209213
226	0x3ffc02f0	1.9688396
227	0x3f8049e6	1.0022552
228	0xbf4ec0af	-0.8076276
229	0x3f815712	1.0104697
230	0x3d9e725c	0.07736656
231	0x3f155c14	0.58343625
232	0xbde30d4d	-0.11086521
233	0x3fedd36f	1.858015
234	0x3f68eda6	0.9098762
235	0x3f9c02e8	1.2188387
236	0xbe147dc2	-0.14501098
237	0x3f378218	0.7168288
238	0x3f3c12ec	0.7346637
239	0x3eefed66	0.46860808
240	0x3ddc4155	0.107546486
241	0x3f84ed90	1.0384998
242	0x3f4cfbca	0.800717
243	0xbeca27aa	-0.39483386
244	0x3ef73fcd	0.48290864
245	0x3e4bf06f	0.19915937
246	0xbf817fb6	-1.0117099
247	0x3f8ec484	1.1153722
248	0x3f48c229	0.78421265
249	0xbfcc88c7	-1.5979241
250	0xc0199417	-2.3996637
251	0x3e6ca700	0.2311058
252	0xbf531724	-0.82457185
253	0x3f579561	0.8421231
254	0xbf6fa4ce	-0.93610847
255	0x3e4cd4be	0.2000303
