if_results/checkpoints_full_5e-12_100_0.001_linear_euler_100_5/best-Conn_Pop0_Pop1-weight.npy (npy, 716928 bytes, 1 tensors)

array f4 [179200]
00000000: 1c06 2440 3c72 4540 0684 133f bdbf 003f
00000010: 3bcc 153f 8f64 82bf ccbc ac3e 1c35 043f
00000020: d87b 4040 c1ba af3f 4074 0f40 1f26 683f
00000030: b764 cebe 1cd4 05c0 f03d debf 7dfb 2f40
00000040: f698 c4bf f9f0 f8bf 95e0 d03f fa09 063f
00000050: 1da8 103f 4a17 f93d dd6a 283f 0a6d dc3f
00000060: 6362 7f3f 54f9 853e d012 063f 22a3 493f
00000070: cf4d 6140 209d be3f a6c8 473e 0b0a 2abf
00000080: dd54 19bf 3cf6 7f3f 09c9 523e 8ba6 1fbf
00000090: 621a b03f 645f 8f3f 084c 27bf 0dfc df3e
000000a0: d647 7e3e fabf bf3f eec9 e73f 36a6 a73e
000000b0: aa61 a1bf b8f9 b43d d59c b0be 5c81 4340
000000c0: a87b 433e 075b 1240 43ec 36be 4097 3740
000000d0: 3ba3 3a3f 4dc4 00c0 5524 933e ecf8 a53f
000000e0: 2d4e 3c3b 442c 9e3f 6bac 653f d6c1 503f
000000f0: eb91 eb3e 242c 443f 681b 613f be84 1f3f
00000100: 2b7a 863e d9bd 5f3f f515 5b40 8673 4b3f
00000110: b1a7 763f 558a 383f c28c 253f 69cd a5be
00000120: 5621 ea3e 4e31 e73e 85d6 113f 268a 103e
00000130: 91e2 e03e 82ab 513f 2362 943e a5c7 68bf
00000140: c188 3f40 c89d 2d3d b154 3c3e 03a7 073f
00000150: 8aad 5dbf 7a87 033f f559 1fbf 8c43 6f3e
00000160: da4d 443f 286c a7be bd13 abbe 2561 2fc0
00000170: 2e42 2cbd 4553 853e 8dc2 363e 5559 b4bf
00000180: 0d9d b23e 8a3b ff3f 66da e6be 0c07 643e
00000190: a74f 3bbf 33e6 5c3f d86e a5be c8fe 1540
000001a0: 2b7d f8be b516 673f 7586 1e3f cdfb 13bf
000001b0: 1f95 3240 3c5b 723e 2679 153f e948 163f
000001c0: 1e27 d6bf 3775 a0be dc92 bc3e 2bbc 0c3f
000001d0: 65c8 903f 1817 ff3f 025e 03be 31a2 7ebe
000001e0: 4378 cb3e c362 1340 d8c6 2e3f 3055 e83e
000001f0: 10ff 793f d02a f63f 0e0b e8be 3122 68be
00000200: c7d5 0b40 47ff ff3f 521e 3c3f ba27 853f
00000210: 5aa0 563f 9295 bd3f 539d 363f b0b6 2a3e
00000220: fa23 313f 44ad 9e3e 2bb0 dd3f 6d90 903f
00000230: db88 0d40 3408 b33e 9fd4 42be 7c03 833f
00000240: 5634 183f c23e 37bf 0507 20bf c9b4 5c3f
00000250: 7a4a 323f fd46 ebbf cbfb 0dbf ad52 3c3f
00000260: 1247 b13f 069a 013f 469f cc3e 60da 1f40
00000270: 992d f6bc 331e babe b62f 4c3f 8ae5 003f
00000280: 72ea e63c 8687 58bf fe75 b7bc bb9d 013f
00000290: 0d00 b73e 08fc 333f 1953 21bf cb53 4a3f
000002a0: 0bb9 2e3e 2612 b63e 94a2 613f a070 4d3f
000002b0: 9447 03bc 9f51 aa3f 9528 4440 4e9e 3c3f
000002c0: 90dc 8f3f 70f5 be3e 17fe 4640 394b b9be
000002d0: 42f2 2c40 98f3 7d3f 6433 16c0 115f 373f
000002e0: c63b 683e eb92 d23d 4463 83bf fb4a 0a3e
000002f0: bd0e 433f d589 e03f 295c 99be 83ef 4240
00000300: a778 1f3e 7946 4bbd 0b89 083f 4267 4b40
00000310: 3a16 f3bd af87 de3f 4665 cbbd af9d 9b3f
00000320: 3812 363f cbec 7e3e 7d7b 0dbf 4068 84be
00000330: 72f8 7040 aaa9 023f f22d 6a3e b47a 473f
00000340: 607d 6f3f 5a7c d8bb a541 05bf c4f1 1e40
00000350: 2c5d 2b3f 88f7 5e3e e962 6640 a320 7e3d
00000360: 8fd4 483e 0c33 5fbb 4b31 1b40 c741 cebe
00000370: bbde 6c3f cb5b e23d 8b62 6640 1989 a7be
00000380: 0aab 043f 42a6 00bd 4ae9 0fbf 3d70 06bf
00000390: f39a 763c 5cdb 9c3e 62c9 a43e 6aba f53f
000003a0: cb51 b3bd 7279 acbe 20b5 fbbf 9f5b 2e3f
000003b0: f7c6 b23e 69bc 263f 4484 253f 2c69 b63f
000003c0: 037d 2840 18e9 e83e 9c37 c7bf f684 843f
000003d0: ba68 b03f d6a9 06c0 1d64 303f a870 3c40
000003e0: 1090 6f3f e571 473f 46a7 2940 267f a93f
000003f0: b6d9 4ebf b423 6abe fb43 ddbf 34fd 0640
2.562873 3.0850973 0.57623327 0.5029257 0.58514756 -1.0186938 0.3373779 0.5164354
3.0075588 1.3728868 2.2414703 0.9068317 -0.40311214 -2.0910711 -1.7362652 2.7497246
-1.535918 -1.9448539 1.6318537 0.52358973 0.5650652 0.12162645 0.6578806 1.7220776
0.997595 0.26166785 0.52372456 0.78764546 3.520374 1.4891701 0.19510135 -0.66421574
-0.59895116 0.999851 0.20584501 -0.623635 1.3758051 1.1200986 -0.6535039 0.43746987
0.2483209 1.4980462 1.8108499 0.32743996 -1.260793 0.088366926 -0.34494653 3.0547705
0.1909014 2.2868059 -0.17863564 2.8686066 0.7290532 -2.0119812 0.28738657 1.296659
0.002873312 1.2357259 0.89716214 0.8154577 0.46009764 0.76629853 0.87932444 0.62311924
0.26265082 0.8739906 3.4232152 0.7947315 0.96349627 0.7208608 0.64667904 -0.32383278
0.45728558 0.45154804 0.56967956 0.141152 0.43922856 0.81902325 0.28981122 -0.90929633
2.9927218 0.0423868 0.18391682 0.52989215 -0.86592925 0.51378596 -0.6224664 0.23365611
0.7668129 -0.32699704 -0.33413497 -2.7403042 -0.0420553 0.26040092 0.17847653 -1.4089762
0.34885445 1.9940045 -0.450885 0.22268313 -0.73168415 0.86288756 -0.3231113 2.3436756
-0.48532996 0.90269023 0.61923915 -0.5780609 2.7903516 0.23667616 0.5838798 0.58705
-1.6730688 -0.31339428 0.36830795 0.5497462 1.1311156 1.9928923 -0.1282883 -0.24866559
0.3974019 2.302903 0.6827216 0.45377493 0.9765482 1.9231815 -0.45320934 -0.22669293
2.184923 1.999978 0.73483765 1.0402749 0.8383843 1.481127 0.7133381 0.16671252
0.6919552 0.30991566 1.7319387 1.1294075 2.211478 0.34967196 -0.19026421 1.0235438
0.5945486 -0.71580136 -0.6251071 0.86213356 0.6964489 -1.8381039 -0.5546233 0.73563653
1.3849814 0.50625646 0.39965266 2.4977036 -0.03005104 -0.36351165 0.797603 0.5035025
0.028187964 -0.8458179 -0.02239513 0.506313 0.35742226 0.70306444 -0.6301742 0.7903411
0.17062776 0.3556072 0.881387 0.8024998 -0.008012671 1.3306159 3.064977 0.73679054
1.1239185 0.3729663 3.1092584 -0.36190203 2.7022862 0.9919982 -2.3468866 0.71629435
0.22679052 0.10281929 -1.0264668 0.13505165 0.76194364 1.7542063 -0.29953125 3.0458686
0.15573369 -0.049627755 0.5333411 3.1781774 -0.11869474 1.7385157 -0.09931426 1.2157496
0.7112155 0.24895017 -0.55266553 -0.25860786 3.765164 0.51040137 0.22869089 0.77921605
0.9355068 -0.0066066207 -0.5205329 2.4835062 0.66939044 0.21774113 3.599787 0.062042844
0.19612335 -0.0034057526 2.4248836 -0.4028456 0.9252736 0.11052664 3.5997646 -0.32721785
0.51823485 -0.031408556 -0.56215346 -0.5251501 0.015051591 0.30636108 0.32184893 1.9197514
-0.08755835 -0.33686405 -1.966465 0.6810855 0.34917423 0.6513124 0.64654946 1.4250846
2.63263 0.45490336 -1.5563846 1.0353076 1.378196 -2.104116 0.6890276 2.944376
0.93579197 0.77908164 2.6508346 1.3241928 -0.8080095 -0.22865182 -1.7286371 2.1092043
