if_results/checkpoints_full_5e-12_100_0.001_linear_euler_100_3/best-Conn_Pop0_Pop1-weight.npy (npy, 716928 bytes, 1 tensors)

array f4 [179200]
000000 b1 15 79 bf f7 a2 83 bc ae cd 9d be 98 67 eb 3d
       -0.97298723 -0.016068919 -0.30820984 0.11494368
000010 d6 1c 0e 3f e9 07 0d 3f e8 c7 20 40 70 1f 6d 3f
       0.5551275 0.55090195 2.5122013 0.92626095
000020 0d 9b 0d 40 71 2d 93 3f 5a 6e 0e 3f 20 4b 81 be
       2.2125885 1.1498243 0.55637133 -0.25252628
000030 b5 63 b9 3c 97 cb b8 3f 93 f7 01 be e5 3a 4d 40
       0.022630552 1.4437131 -0.12692098 3.2067196
000040 53 98 a9 3f aa d7 00 40 6b 6d a6 3f cd 21 1d 3e
       1.3249611 2.013163 1.3002142 0.15344925
000050 8d 1b 7e be 13 08 64 3e 2a de b4 3f d8 e9 b6 3e
       -0.24815197 0.22268705 1.4130299 0.35725284
000060 db 74 00 bf 72 e9 99 bd 8f 23 07 40 70 16 16 3f
       -0.5017831 -0.07515229 2.1115453 0.58627987
000070 b3 3f 39 3d 76 b0 e7 bf 77 ea 77 3e 36 5c 62 3f
       0.045226764 -1.8100727 0.24210535 0.8842195
000080 ef 22 e4 3f 99 66 b5 3e c5 04 77 3f 0d 85 15 40
       1.7823161 0.35429838 0.9649165 2.3362458
000090 83 4b 49 be d1 95 84 bf 40 40 e3 3f 42 83 37 3c
       -0.19657712 -1.035822 1.7753983 0.011200728
0000a0 48 aa bc 3f 5d 8e 8e 3f f9 c4 67 3e 49 12 dc 3f
       1.4739466 1.1137196 0.22633733 1.719308
0000b0 50 0a 8c bd 3e 2a ff bf d0 8d 30 40 62 58 12 40
       -0.068379045 -1.9934766 2.7586555 2.2866445
0000c0 cd a0 92 bf b0 46 d3 3e d6 bf 99 be 3b ed 8b 3e
       -1.1455323 0.41264868 -0.30029172 0.2732943
0000d0 40 a3 da bf 42 e0 4c 40 32 20 0e c0 d3 40 3c 3e
       -1.708107 3.2011876 -2.220715 0.18384103
0000e0 8e e5 08 40 ce c9 1a 3f d2 cb d3 be 4b d2 67 bf
       2.139011 0.6046418 -0.4136644 -0.90555257
0000f0 17 a0 18 3f 3a 0e 17 c0 09 4f 47 3d 03 43 3c 3f
       0.5961928 -2.3602433 0.04865936 0.7353975
000100 84 7a 8b bb 51 db c9 3e 84 5c 3b 3d dc 3a 0e 3f
       -0.0042565484 0.39425138 0.045742527 0.5555856
000110 e3 6f b3 3e 84 d4 ac be 0c 83 80 bf 9e 53 1d 3e
       0.350463 -0.33755887 -1.0039992 0.15363929
000120 27 a0 4c bf 68 1a 13 bd 78 94 10 3f 77 98 68 3e
       -0.79931873 -0.035913855 0.56476545 0.2271441
000130 f8 9f 6f 3e 57 00 b3 3e 31 d1 68 3f e0 74 49 3e
       0.23400867 0.34961197 0.909442 0.1967349
000140 d8 5f 46 3f c7 94 c8 3f 7a 31 6a 3f 9e 56 bb 3f
       0.77489996 1.5670403 0.91481745 1.4635808
000150 5c 1d dd be a8 6f e6 be 0c 18 d8 3f 3a 59 dc 3d
       -0.43186462 -0.45007062 1.6882339 0.10759206
000160 82 60 20 3e 7e 6d f4 3e 90 e4 c5 3f b0 14 c5 bf
       0.15661815 0.47739786 1.5460377 -1.5396938
000170 4f ec 84 bf f5 6f f5 3e 25 5b c7 3f cb 0d e3 3e
       -1.0384616 0.4793698 1.557469 0.4434646
000180 5e 9a 08 40 5e f0 b9 3f fe d7 33 bf c3 35 1f 3f
       2.1344218 1.4526479 -0.7025145 0.6219141
000190 70 d6 52 3f b2 5a 11 c0 a5 6b a3 bc 89 c2 2c bd
       0.82358456 -2.2711606 -0.01994879 -0.04217771
0001a0 5a 29 a7 3e 2e c7 fa 3e ab b3 48 3f 0c 3a 2e 40
       0.32648736 0.48980087 0.7839915 2.722293
0001b0 39 bb 08 3f 9c 77 f7 3f 32 7a 2b 40 e9 9e c4 be
       0.5341068 1.9333377 2.6793332 -0.3840249
0001c0 f1 15 56 40 ee 06 6a 40 4c 76 66 bf 39 c2 0d 3f
       3.3450892 3.656673 -0.90024257 0.55374485
0001d0 f3 f6 28 be 21 e5 1c 3f 3c b7 5f 3f 9d 63 2c 3e
       -0.16500454 0.6128712 0.8738897 0.16834874
0001e0 ca 45 79 be d7 b7 07 40 16 f9 c3 be d6 77 58 3e
       -0.24343029 2.1205957 -0.38275975 0.21139464
0001f0 00 5a 1e c0 89 eb a7 bf 43 16 92 3f 18 1d 93 3e
       -2.4742432 -1.3118755 1.1413044 0.28733134
000200 ca d9 5c 3d 89 47 75 be ac 60 86 3f 02 c5 b7 3f
       0.053918637 -0.2395307 1.0498252 1.4356997
000210 69 3e 19 3f 68 a3 71 40 b4 9b 03 bf b4 07 2d 3f
       0.59860855 3.7755985 -0.5140946 0.6758988
000220 00 4b 64 3f 2d 1e e9 bf fc d9 9d 3d 48 02 45 3f
       0.8917694 -1.8212334 0.07707593 0.76956606
000230 f2 c9 40 3f 9a ae ef 3e c2 9d da 3f c3 2f 53 bf
       0.75308144 0.46812898 1.7079394 -0.82494754
000240 c0 37 e6 3e f9 33 16 40 86 d4 2b 3f aa c8 03 3f
       0.4496441 2.3469222 0.6712116 0.51478064
000250 f3 63 17 3e fb ea 55 3e 59 6c d2 3f 71 79 04 3f
       0.14784221 0.20890419 1.6439315 0.51747805
000260 09 0f 43 bf b4 20 de 3e 5b 89 02 3f c7 66 36 3d
       -0.76194817 0.43384326 0.5099084 0.04453161
000270 5e 5c 14 bf f3 37 12 bf b5 2d a6 3f 9a c3 61 bf
       -0.5795344 -0.5711662 1.2982699 -0.8818909
000280 e4 ad a4 bf 00 1c e3 3e 95 00 cc 3e c1 21 33 3f
       -1.2865567 0.443573 0.39844194 0.6997338
000290 36 cc 91 3e a3 ce 85 3e 64 ad 02 40 53 8d 9b 3f
       0.28476113 0.26134214 2.041833 1.2152504
0002a0 4b 09 d0 3e b6 78 12 3f 0d 4c 0d 40 d1 88 f3 3e
       0.4063209 0.5721544 2.2077668 0.4756532
0002b0 39 bf ef be df 0a 36 40 b2 b3 03 c0 02 01 e9 3d
       -0.4682558 2.8444135 -2.0578427 0.11377145
0002c0 7c fc 40 40 58 5e f0 3f ea dd 4a 3d 63 79 ab 3b
       3.0154104 1.8778791 0.04952804 0.0052329763
0002d0 9d 9c 01 40 cb ba 8d 3b 5b 67 53 3d a6 45 ad 3e
       2.025184 0.004325246 0.05161224 0.338422
0002e0 5b 4d 1a 3e dc ed 35 40 c2 57 1b 40 a9 91 b6 be
       0.15068571 2.8426428 2.4272313 -0.35658005
0002f0 9b 23 58 3f a6 09 c0 bf 00 a5 a8 3e 6c 01 a9 3e
       0.8442933 -1.5002944 0.32938385 0.33008897
000300 b5 e5 5e be 0a c6 d4 bd 04 20 36 40 3a 3b 81 3d
       -0.21767314 -0.103893355 2.845704 0.06310125
000310 71 3c 42 3f 10 b4 aa bf 9e 38 80 3d d6 28 41 3f
       0.75873476 -1.3336201 0.06260799 0.75452936
000320 50 3b 9c 3d 17 bd 2c 3f e1 3a 31 40 d6 d6 4e 3f
       0.076285005 0.6747603 2.7692187 0.80796564
000330 9d b6 70 3e 5e 0c d7 3e e6 e0 89 be ba 33 7f 3f
       0.23507161 0.42001623 -0.26929396 0.99688303
000340 5e 78 ea bd 15 d4 89 3f f4 0b 2b 3f c2 3a 53 3d
       -0.114487395 1.0767847 0.66815114 0.051569708
000350 4f 1b 3a 3f 03 ac 5d 3f 94 66 5b 3f cb 3e 30 3f
       0.7269792 0.86590594 0.85703397 0.68845814
000360 7f 6e 6f 3f bb 79 24 bf a8 ef 79 3f 68 94 40 3f
       0.9352798 -0.64248246 0.9763131 0.7522645
000370 83 6d 94 3d aa 8a 27 40 d4 2f 7e 3f 7f 31 1e 3f
       0.0724745 2.6178384 0.9929173 0.61794275
000380 29 6c 4f 40 17 81 be 3f 15 c3 34 3f 99 0f b0 3e
       3.2409766 1.4883145 0.7061017 0.343869
000390 94 9b 92 bf 89 9a da be 85 a5 16 3f 07 58 43 3f
       -1.1453729 -0.42696026 0.5884631 0.76306194
0003a0 a0 9c 05 3f 99 36 66 3e c5 c2 fb 3e 13 b3 31 3f
       0.52192116 0.22481765 0.49172035 0.6941387
0003b0 57 ab d9 3f e8 a2 8d 3f 31 68 58 3f e7 64 de 3f
       1.7005414 1.106534 0.84533983 1.7374543
0003c0 2b 98 32 bf 3d 65 b4 3f f4 7b 11 40 95 41 d2 bd
       -0.6976344 1.4093395 2.2731905 -0.10266415
0003d0 4f 2c 1f 3f 10 c2 48 3f 29 eb d6 3e c9 f0 29 40
       0.62176985 0.78421116 0.41976288 2.6553214
0003e0 de 6e 44 3c 3d 91 6f 3e 21 ae be 3f 16 5b d5 bf
       0.011989323 0.23395248 1.489689 -1.6668422
0003f0 48 c0 b1 be c3 ae a7 3e 9d 9c b0 3f 5b f1 24 40
       -0.3471701 0.3275052 1.3797795 2.5772312
