if_results/checkpoints_full_5e-12_100_0.001_linear_euler_100_3/best-Conn_Pop1_Pop2-weight.npy (npy, 20608 bytes, 1 tensors)

array f4 [5120]
0	0x3f33d185	0.70241576
1	0xbf4b2fc3	-0.79369754
2	0xbf08a797	-0.5338072
3	0xbdede8f5	-0.11616699
4	0x3f724ed4	0.9465153
5	0x3e1e439d	0.1545548
6	0x3e7c01fe	0.24610135
7	0xbf0f2262	-0.5591184
8	0xbdbfc835	-0.09364358
9	0xbf107dad	-0.56441766
10	0xbcee0808	-0.029056564
11	0x3dbf6d54	0.093470246
12	0xbe6506c3	-0.2236586
13	0xbea5d447	-0.32388517
14	0x3e5712d7	0.2100328
15	0xbed167e0	-0.40899563
16	0x3f22a4f7	0.63532966
17	0xbeff01b4	-0.49805987
18	0x3f6c1dd3	0.9223301
19	0x3d47eb64	0.04880847
20	0xbe3c6b99	-0.1840042
21	0xbf7bf47f	-0.98419946
22	0x3fa0fa48	1.257638
23	0x3f330e0d	0.69943315
24	0xbfec278e	-1.8449571
25	0xbfae1a20	-1.3601723
26	0x3e052436	0.13002095
27	0x3f684931	0.9073668
28	0xbd29b1f0	-0.04142946
29	0x3fa8c9b8	1.318656
30	0x3f088e3a	0.5334202
31	0xbe3bbba4	-0.18333298
32	0xbef09f22	-0.4699641
33	0xbe393825	-0.18087824
34	0xbf4fd3d3	-0.81182593
35	0x3d999910	0.074998975
36	0x3eca1cce	0.394751
37	0x3ea9ad66	0.33140105
38	0xbec8ef6a	-0.39245158
39	0xbf1c71b0	-0.61110973
40	0x3dcbfa4c	0.0995985
41	0xbe15e12c	-0.14636678
42	0x3f78858b	0.9707877
43	0x3f3a0e7e	0.72678363
44	0x3c3a5375	0.011372437
45	0xbff3a07d	-1.9033352
46	0x3f208cbd	0.6271475
47	0x3fae63ba	1.3624184
48	0x3fa2d8d0	1.2722416
49	0xc0281d2e	-2.626781
50	0x3f6b672c	0.919543
51	0xbef0d350	-0.4703622
52	0xbfe0db47	-1.7566918
53	0xbf9d5f79	-1.2294761
54	0x3b43c82f	0.0029873957
55	0x3d2f00d5	0.042725403
56	0x3f1382c0	0.57621384
57	0x3eda8225	0.42677417
58	0xbfdc1ce6	-1.7196319
59	0xbf8f4a31	-1.1194516
60	0x3e163af6	0.1467093
61	0x3e5ba2b6	0.21448788
62	0xbd3d51d5	-0.04622062
63	0xbe651ae9	-0.22373547
64	0xbe0b05be	-0.13576409
65	0xbdd74100	-0.10510445
66	0xbed92aa8	-0.42415357
67	0x3e586c4d	0.21135063
68	0xbe850d60	-0.25986767
69	0x3e4dbdef	0.20091985
70	0xbdcf5658	-0.10123891
71	0x3e2eca73	0.17069416
72	0x3d77d3b7	0.06050464
73	0x3da81049	0.08206231
74	0xbe409343	-0.18806176
75	0xbe8217fc	-0.25408924
76	0xbd275d70	-0.040860593
77	0x3e694896	0.22781596
78	0xbe92b78f	-0.2865567
79	0x3d5cbde9	0.05389205
80	0x3f797a7d	0.9745253
81	0xc00409c4	-2.063096
82	0xbc0bc50e	-0.008530868
83	0x3f9f5e8f	1.2450732
84	0x3f8c7a3f	1.0974807
85	0x3ece9d22	0.40354258
86	0x3e4e4f48	0.20147431
87	0x3fd34985	1.6506811
88	0xbfe1684b	-1.7609953
89	0xbfd92f8b	-1.6967634
90	0xbfff8dfc	-1.9965205
91	0xc01bba9f	-2.4332654
92	0x3f0841f4	0.53225636
93	0x3ea7ee48	0.32798982
94	0x3e792497	0.24330364
95	0xbd2b1034	-0.0417635
96	0xbfbac58e	-1.4591539
97	0x3e92c6ad	0.28667203
98	0xbf9e8bec	-1.2386451
99	0xbfe0797f	-1.7537078
100	0x3ebd6874	0.36993754
101	0xbf73598b	-0.95058507
102	0x3d78fd34	0.06078835
103	0xbe28d25c	-0.16486496
104	0x3e1472c2	0.14496902
105	0x3c5d4bbd	0.013506827
106	0xbe8e8c44	-0.2784139
107	0xbf5850bf	-0.8449821
108	0x3e0bbec1	0.13646986
109	0x3ddc4333	0.10755005
110	0x3e012b4b	0.12614171
111	0x3e3d4cb9	0.18486299
112	0x3e2da7c0	0.16958523
113	0x3e8e3180	0.2777214
114	0x3e812351	0.25222257
115	0xbdeb8823	-0.115005754
116	0x3e0f7151	0.1400807
117	0xbd679a60	-0.056543708
118	0x3f0c51a9	0.54812104
119	0xbdad6491	-0.08466447
120	0xbef06030	-0.46948385
121	0x3cd425ca	0.025896925
122	0x3e0c682d	0.13711615
123	0xbd3db07f	-0.046310898
124	0x3d5aaad6	0.053385578
125	0x3de02bbe	0.10945843
126	0x3f1b36ad	0.60630304
127	0xbd6fd983	-0.058557045
128	0x3e3f22cc	0.18665618
129	0xbdefd196	-0.11709897
130	0x3d379acb	0.044825356
131	0xbe885428	-0.26626706
132	0xbe2c5960	-0.16830969
133	0xbe74a304	-0.2389031
134	0x3e1eb4c1	0.1549864
135	0x3f11fe77	0.5702891
136	0x3b41fb4a	0.0029599243
137	0xbebf750a	-0.3739398
138	0x3eb893e8	0.36050344
139	0x3d319938	0.04335901
140	0xbda967d9	-0.082717605
141	0x3eb4a1dd	0.35279742
142	0x3e5d2d5c	0.21599334
143	0x3ead36c3	0.33830842
144	0xbec639dc	-0.38716018
145	0x39e8576f	0.0004431563
146	0xbf4e217c	-0.80519843
147	0xbec56f61	-0.38561538
148	0xbf065177	-0.52468055
149	0x3e4379ec	0.19089478
150	0xbe3d750f	-0.18501686
151	0xbe1783bc	-0.14796346
152	0x3f25af2a	0.64720404
153	0x3e2da17e	0.16956136
154	0xbe28de0e	-0.16490957
155	0xbe93ccfc	-0.28867328
156	0xbe31cbc9	-0.17362894
157	0x3f020d08	0.50801134
158	0xbe9ffc38	-0.31247115
159	0xbded5e66	-0.11590271
160	0x3fbccc30	1.4749813
161	0xbf443480	-0.7664261
162	0xbf2d07e5	-0.6759017
163	0xbfb7039b	-1.4297975
164	0xc0655349	-3.5832083
165	0xc03c8246	-2.9454513
166	0x3f0d4987	0.5519032
167	0xbfb1a5a3	-1.3878673
168	0xc0a11da7	-5.0348697
169	0xbf272ee4	-0.65305924
170	0x3fbbe65d	1.4679676
171	0xc0a182e4	-5.047228
172	0x3f97b76d	1.1852852
173	0xc0394d92	-2.8953595
174	0x3fd8541a	1.6900666
175	0xc083eb12	-4.122445
176	0x402618bc	2.5952597
177	0x400c1848	2.188982
178	0xbfaa0b66	-1.3284729
179	0x3fa1f5f2	1.2653182
180	0x3d42d92f	0.047570404
181	0x3deef581	0.1166792
182	0xbe09ad9d	-0.13445134
183	0xbe1a8237	-0.15088736
184	0xbe173916	-0.1476787
185	0xbd2246eb	-0.039618414
186	0xbf0042ff	-0.5010223
187	0xbd9fbe3c	-0.07799956
188	0xbed574e1	-0.41690734
189	0x3e73e40e	0.23817465
190	0xbdd80966	-0.105486676
191	0x3e619802	0.22030643
192	0x3ec5044d	0.38479844
193	0x3df381b6	0.11889975
194	0x3b6674ee	0.003516491
195	0xbdde0caa	-0.10842259
196	0x3e4301ff	0.1904373
197	0x3e735a97	0.23765026
198	0xbea6628f	-0.3249707
199	0x3d1f41d0	0.038881123
200	0xbe829d24	-0.25510514
201	0xbd0d2a65	-0.03446426
202	0x3d968575	0.07349674
203	0xbda74a37	-0.08168452
204	0xbce7a4a3	-0.028276747
205	0x3dbf2caf	0.093346946
206	0x3ea4faaa	0.32222492
207	0xbe39b666	-0.18135986
208	0x3decba21	0.11558939
209	0xbdc8b1f1	-0.09799565
210	0x3c51d339	0.012806707
211	0x3ca8b894	0.020595826
212	0xbd02a7a8	-0.03189817
213	0xbd6b664a	-0.057470597
214	0x3d202dfa	0.039106347
215	0x3ea7f269	0.32802132
216	0x3c4902c6	0.012268728
217	0xbe64e50c	-0.22353
218	0x3e392e38	0.18084037
219	0xbd6ee5f9	-0.058324788
220	0xbf215779	-0.630241
221	0x3d671b52	0.05642254
222	0x40002946	2.0025191
223	0xbf17e626	-0.59335554
224	0x3fac9aa8	1.3484697
225	0x3f7740bf	0.9658317
226	0xc0064975	-2.0982335
227	0xbe8e1ef0	-0.27757978
228	0xbda73502	-0.08164407
229	0xbf596385	-0.8491748
230	0xbfcadb5e	-1.5848196
231	0x3f14c9a3	0.58120173
232	0x3d8a4c64	0.067528516
233	0x3e93fa0d	0.2890171
234	0xbfc66f92	-1.5502799
235	0xbe9d9d87	-0.30784246
236	0xbf9745a7	-1.1818131
237	0xc007df88	-2.1230183
238	0x3f07eacc	0.53092647
239	0x3ddede01	0.10882188
240	0x3f229e8d	0.6352318
241	0x3ed294ab	0.4112905
242	0x3e72f430	0.23725963
243	0xbfd81e22	-1.6884196
244	0xbf4ed727	-0.80797046
245	0xbebc0bc3	-0.36727723
246	0x3f3c370d	0.735215
247	0x3ec12c8e	0.37729305
248	0xbfc58000	-1.5429688
249	0xbe0b73e1	-0.13618423
250	0x3f67fa94	0.90616727
251	0xbfcedbcc	-1.6160827
252	0x3f529c7f	0.82270044
253	0xc020663c	-2.50624
254	0xbdd5c325	-0.104376115
255	0xbe78a69a	-0.24282303
