raf_results/checkpoints_full_0.1_-1.0_0.0045_-0.0007_5e-12_100_0.001_0.01_0.01_linear_euler_100_0/best-Conn_Pop0_Pop1-weight.npy (npy, 716928 bytes, 1 tensors)

array f4 [179200]
000000 64 4f 1e bf 1c c4 aa be 1d 3e 05 bf 6c e8 a6 3e
       -0.6183989 -0.33352745 -0.520479 0.325992
000010 00 b2 93 be b2 2f cd 3e 72 b3 ce bd c6 1d 6e 3c
       -0.2884674 0.4007545 -0.1009282 0.014533466
000020 99 89 20 bf f9 74 3f bf 03 ae f0 ba ac 5d ac be
       -0.6270996 -0.7478786 -0.0018362406 -0.33665216
000030 ee aa 25 be 6b e7 3f bf 86 d6 e6 be 87 b6 cd be
       -0.16178486 -0.7496249 -0.45085543 -0.4017832
000040 7f 74 61 be 8b cb 18 bf 1b 2a bc be 9d 07 97 be
       -0.22017096 -0.5968558 -0.36750874 -0.29497996
000050 4a 1f a2 be 19 99 c1 be 62 2f 2c bd 0b 49 89 bc
       -0.31664497 -0.37812117 -0.042037375 -0.016758462
000060 45 55 33 bf 91 2c 98 be ae 4e 7b 3e b7 73 9b bd
       -0.70051986 -0.297215 0.24541733 -0.0759043
000070 16 16 33 be 33 cb be 3e 50 99 d6 be d7 cf c4 be
       -0.17488894 0.37264404 -0.41913843 -0.3843982
000080 68 9b 2d bf 95 9b 30 bd f1 02 80 be b6 76 e6 bc
       -0.67815256 -0.043117125 -0.25002244 -0.028132778
000090 4c b6 67 bf af 8c af bd 22 a0 52 bd 8e df b3 bc
       -0.9051254 -0.08571755 -0.051422246 -0.021957185
0000a0 c4 5e d3 3d 90 e0 ad be a6 15 bb be bb 3a a5 be
       0.103208095 -0.3396039 -0.36539954 -0.3227137
0000b0 3e 79 06 be 31 5b cf be d1 1d 86 be 96 26 e4 be
       -0.13132188 -0.4049926 -0.26194623 -0.4456069
0000c0 36 88 e3 be 3b c8 32 bc 81 b1 15 be 18 bd 3c be
       -0.44439858 -0.0109119965 -0.14618494 -0.18431509
0000d0 29 cc 19 bf 1e 96 f0 3d 3b 30 86 3d 81 2a 00 bf
       -0.6007715 0.117473826 0.06552168 -0.50064856
0000e0 d7 6b 3c 3e 07 f7 25 be 80 4f 9e bd 8d c9 81 be
       0.18400513 -0.16207515 -0.07730007 -0.25349084
0000f0 a0 65 8a be 1c ed 31 bf 1c 2c c8 3e 60 6d 76 be
       -0.2703066 -0.69502425 0.39096153 -0.24065161
000100 17 99 2b be f9 15 7f 3e 50 89 d7 3c 6c cc ba be
       -0.16757618 0.24910726 0.026310593 -0.36484087
000110 6c 6f be be e7 0b 20 bf 02 ac 42 be 00 0d 9a be
       -0.37194383 -0.6251816 -0.19010928 -0.30088043
000120 91 a3 23 3d 70 3b 89 be 3b bf 45 bf 56 55 ce bd
       0.03995091 -0.2680316 -0.7724492 -0.1007487
000130 90 a5 9a 3e b7 da 8f be 1e 5b 12 bf 65 e2 d9 be
       0.3020444 -0.28096554 -0.57170284 -0.42555538
000140 fc b4 63 3d 88 d7 f1 be 23 49 b6 be 66 6b 07 3f
       0.055592522 -0.4723475 -0.35602674 0.5289825
000150 49 fd 27 bf 5d bd 00 be 34 bb 47 be ff 32 28 bf
       -0.6562086 -0.12572236 -0.19505006 -0.65702814
000160 5a 15 5a bf 94 32 45 3e ca a0 1f be d4 7c 93 3e
       -0.8518883 0.19257575 -0.1558868 0.28806174
000170 5d a0 4e be 0a c1 03 bf 07 05 14 be 01 74 a8 3e
       -0.20178361 -0.5146643 -0.14455043 0.32901004
000180 c3 00 52 3c 2d 16 29 3d 5a fb b9 bd b4 8a ff 3c
       0.012817564 0.041280914 -0.09081145 0.031194068
000190 6a e7 a2 be 79 39 84 3c 97 08 c2 be ff ad 3f be
       -0.3181718 0.016140686 -0.3789718 -0.18718718
0001a0 63 71 c2 3e 8b aa 14 bf d1 c8 07 3f aa 15 b0 be
       0.37977132 -0.5807273 0.53040797 -0.34391528
0001b0 7e 2a 63 be 6b 62 21 be 62 af 6c bf 2e 82 eb bd
       -0.22184178 -0.157602 -0.9245511 -0.11499439
0001c0 0f af cf be 22 a9 35 be fc ab af be 5c 53 80 be
       -0.40563247 -0.177403 -0.343109 -0.25063598
0001d0 d9 d0 ef 3d eb e5 82 bf ec 03 eb 3c f6 b0 1c 3e
       0.117097564 -1.0226415 0.028688394 0.1530188
0001e0 e5 e3 9b 3d 5e a8 56 be 38 49 f5 be 31 7c cc 3d
       0.07611827 -0.20962664 -0.47907424 0.09984625
0001f0 cd 57 8b be 45 eb 4b be 42 11 1a be 1f cf 75 be
       -0.27215424 -0.19913967 -0.15045646 -0.24004792
000200 7d 9c 93 3c 66 63 af bd dc e7 51 be ce 94 5e be
       0.018018955 -0.085638806 -0.20498604 -0.21736452
000210 30 ee 0a 3e 0c b9 aa be 1f 0d 14 3f a1 3f 84 be
       0.13567424 -0.33344305 0.5783252 -0.25829795
000220 af ac ce 3e 93 1c d2 bd b5 16 73 3e fd 3b 0a be
       0.40366122 -0.10259356 0.23739131 -0.13499446
000230 82 60 22 bd e3 8b 30 bf 4e 34 79 be a7 b3 5c bd
       -0.03964282 -0.6896345 -0.24336359 -0.053882267
000240 fb 1f 7c 3e a2 9f 03 bf bd 74 a8 3d 83 f3 ff be
       0.24621575 -0.51415455 0.08225391 -0.49990472
000250 b2 46 34 be a0 d5 39 be 93 e7 0f bd 86 f5 9c bd
       -0.17605093 -0.18147898 -0.035132956 -0.076640174
000260 0b 42 c2 be bf cf 2e bc cc d9 3d bf ce 52 c0 be
       -0.37941012 -0.010669648 -0.74160457 -0.37563175
000270 00 9f 56 3e 03 af 30 3e b1 71 d2 bd 24 c1 a5 3b
       0.20959091 0.17254262 -0.10275591 0.0050584245
000280 99 a2 c5 3c ba 22 60 be b5 ea d7 3d 5a 3a 7b be
       0.024125384 -0.21888247 0.10542814 -0.24533978
000290 8c cb d2 be ab 34 3f bf 6b a9 77 be 79 85 01 3e
       -0.4117092 -0.7468974 -0.24185722 0.12648572
0002a0 ae cd 6f be 26 54 9a 3d 58 79 0a bf b7 3c 8e 3e
       -0.23418304 0.07535581 -0.54091406 0.27780697
0002b0 ad 69 6e bf fe 1a a3 3e ed 06 3e 3f be 44 0f bf
       -0.9313 0.3185653 0.7422932 -0.5596427
0002c0 e9 8e ca 3c b4 12 28 3e d4 2a 2d 3e fd 8a dd be
       0.024726348 0.16413385 0.16910869 -0.43270102
0002d0 8c a4 99 be 58 09 12 3d d6 f5 0a 3d 18 19 60 be
       -0.30008352 0.035653442 0.033925854 -0.21884573
0002e0 57 01 26 3f 1a c8 33 be 39 d9 6d be 52 05 17 3e
       0.64845794 -0.17556801 -0.23227395 0.14748123
0002f0 18 d3 4b 3e d5 36 b9 3e e1 8b 61 be 1a 87 4a bf
       0.19904745 0.36174646 -0.22026016 -0.791124
000300 bc 9c bd 3a b7 c8 a8 3c d3 95 ac 3c 12 7c 11 be
       0.0014466266 0.02060352 0.021067536 -0.14207485
000310 9c 91 c7 be 3b 7b 81 bd 12 a8 29 bd 4b 61 18 3e
       -0.3897828 -0.063223325 -0.04142005 0.14880864
000320 e1 70 77 bd 51 a4 fd 3e 71 f9 72 be 6f 5c 11 be
       -0.060410384 0.49539426 -0.23727967 -0.14195417
000330 68 22 f5 bb 53 6c fb 3d a7 35 a0 3d e5 fd 21 bf
       -0.007480908 0.122765206 0.07822733 -0.6327804
000340 6c 15 3a be fb e5 17 bd 0b 7f 85 3e 5a 0f 50 bd
       -0.18172234 -0.03708456 0.2607349 -0.05079589
000350 19 3e 7d be 64 ef c5 bd 05 4f 34 be 9d 4d 78 be
       -0.2473072 -0.09664801 -0.17608269 -0.24248357
000360 0f be 67 be 93 6d c6 bd 80 1b 83 be f9 b1 de be
       -0.22631095 -0.096888684 -0.25606918 -0.43495157
000370 e0 fd af 3d 31 1a 57 be ef 07 0f bf 56 78 31 bc
       0.08593345 -0.21006085 -0.5587148 -0.010831913
000380 c0 3b ec be 88 53 7d 3e 19 50 9e 3d 68 23 f4 be
       -0.46139336 0.24738896 0.07730121 -0.47683263
000390 e1 53 40 3d b3 65 0c be 45 cf 4f be 7c 27 0d be
       0.046954993 -0.1371067 -0.20293911 -0.13784593
0003a0 2f 0e c1 be ed 2c e7 be 09 56 86 3e 91 69 37 be
       -0.37706134 -0.45151463 0.26237515 -0.17911364
0003b0 35 0f 02 bf 4f f7 f6 3d dd 09 32 bf 12 35 ce bc
       -0.50804454 0.12058889 -0.695463 -0.02517179
0003c0 33 41 0f be fe 1f 4c be 5a 20 cf bd ee 76 7e be
       -0.13989715 -0.19934079 -0.101135924 -0.24850056
0003d0 d4 16 88 be 00 4f 6e be f2 43 f7 be 7c bd 9c bf
       -0.26579916 -0.23272324 -0.48294026 -1.2245326
0003e0 b9 83 84 bd 0c fd 38 bf 34 9a 08 bd 5e 40 6f 3e
       -0.064704366 -0.7226112 -0.033350185 0.23364398
0003f0 98 5d 5a 3e ee a7 ce 3e 88 3a 8e bd cd 05 e2 bd
       0.21324766 0.40362495 -0.06944758 -0.11036263
