raf_results/checkpoints_full_0.1_-1.0_0.0045_-0.0007_5e-12_100_0.001_0.01_0.01_linear_euler_100_0/best-Conn_Pop1_Pop2-weight.npy (npy, 20608 bytes, 1 tensors)

array f4 [5120]
-1.9910553 0.2710134 0.13295774 -0.5115493 -0.3317118 -0.16782598 0.5986474 -1.8110428
1.751764 0.53797525 0.6083672 0.9444677 -1.3356302 -0.50179726 -0.24348822 0.86513245
0.8267446 -2.2061331 1.3646314 0.6420725 -0.6981015 0.48693687 0.21509822 -0.12751059
-0.6372812 1.209372 0.04830952 -0.60007745 0.19166133 -0.2576233 -0.8134112 2.1081665
0.168457 0.16195512 -0.15390515 0.12271759 -1.0527291 -0.4602214 0.20253856 -0.5868275
-0.015366006 -0.48958945 1.3363563 -2.2009912 -1.4408383 0.013000475 0.15356936 1.1307913
-0.045122515 1.2153085 -0.866456 0.63613987 1.0742147 0.12144972 -0.83747 -1.9505644
0.22861338 -0.6005948 0.038899004 -1.8075052 -0.020620609 0.16993162 0.2756363 0.30382922
-0.08825443 -0.20810993 -0.060557548 -0.09277977 -0.11862975 0.07105233 0.10284539 -0.13485496
-0.057406306 -0.2759551 0.035599362 0.19591571 -0.28819385 -0.043547098 0.17661352 0.08340594
-0.1547254 -0.32965094 0.013904453 -0.060439806 -0.36919853 0.34165367 0.30619445 -0.019680565
0.38489452 0.32030168 -0.18132691 -0.9492568 0.41521502 -0.1543175 -0.1900713 0.118702
-0.04935331 0.41694495 0.22471951 -0.5725831 0.60606533 0.17462939 -0.2968158 0.02489097
-0.21261238 -0.20075633 -0.30556023 0.47296554 -0.74978817 0.490252 0.08163653 0.010307126
0.12863736 0.069977574 -0.31653383 -0.87847024 -0.14997357 0.5548247 -0.7794155 0.10833328
-0.5424923 -0.19397688 0.39447728 -0.43385807 -0.32695073 0.116328396 0.38260892 0.83393496
-0.46994683 -0.21903573 -0.70551765 -1.0455027 -0.09843617 -0.08678304 0.33617625 0.12754108
0.33235696 1.2902602 -0.13537289 -0.3201502 -0.07873296 -0.042842925 -0.22875576 -0.61970603
-0.017012129 -0.19165245 -0.51250285 0.015896836 0.161764 -0.4799575 0.51620567 0.41434953
-0.16890535 0.06631697 0.015249066 -0.06460939 0.05869763 0.2589912 -0.49159753 -0.10847678
1.5197414 -0.32504758 0.565134 0.03413477 0.7036838 -0.7715895 0.49959052 1.4026909
0.73580694 -2.7354574 0.996259 -2.2064617 -0.9456891 -0.76923335 0.8342573 -0.7712748
0.51778215 0.18560049 -3.5444117 -1.5147234 0.38660264 -0.6756337 -0.60524285 -0.39475265
0.39571857 0.06399189 0.28656074 0.064702354 0.3415938 0.21761997 -0.27717116 0.5193556
-0.30743903 0.030141098 -0.19085078 -0.4312416 0.02829265 -1.1700385 0.48703507 0.029128453
-0.22373483 -0.0690793 0.2857949 0.529438 0.12826248 0.5709579 -0.16020201 0.28520188
0.06712294 -0.012956007 -0.572899 0.31367642 -0.23468953 0.3217941 -0.05321098 0.113014415
-0.8040549 -0.2537258 -0.2980086 -0.2889369 -0.057037823 0.18924524 0.262029 0.22482507
-0.2216608 -0.1341131 -0.41939527 -0.018568924 -0.070010856 0.20664565 -0.23835702 0.25977767
0.07758145 -0.11841081 -0.012561169 0.012245349 -0.37362215 -0.18949103 -0.5362213 -0.016343515
-0.5629437 0.394471 -0.1297115 -0.26845968 -0.44895685 0.76021093 -0.7919116 -0.40279397
-0.6009505 0.701899 0.6504384 -0.5059775 0.12837817 -0.6557083 -0.49341017 -0.7533742
00000000: e6da febf 45c2 8a3e 1326 083e e5f4 02bf
00000010: 21d6 a9be 93da 2bbe f540 193f 40d0 e7bf
00000020: ce39 e03f bfb8 093f f4bd 1b3f a3c8 713f
00000030: eef5 aabf c975 00bf fa54 79be 5279 5d3f
00000040: 89a5 533f 4931 0dc0 3eac ae3f dd5e 243f
00000050: c8b6 32bf ca4f f93e b542 5c3e 2392 02be
00000060: dc24 23bf b4cc 9a3f 34e0 453d ad9e 19bf
00000070: de42 443e 34e7 83be b73b 50bf 33ec 0640
00000080: fe7f 2c3e 90d7 253e 5099 1dbe 5c53 fb3d
00000090: d4bf 86bf 24a2 ebbe 4566 4f3e 543a 16bf
000000a0: b3c1 7bbc 78ab fabe b90d ab3f 0add 0cc0
000000b0: 646d b8bf f2ff 543c 4941 1d3e c5bd 903f
000000c0: 63d2 38bd 3b8f 9b3f 0fd0 5dbf 10da 223f
000000d0: de7f 893f a1ba f83d 6f64 56bf 18ac f9bf
000000e0: a019 6a3e 95c0 19bf 9054 1f3d 555c e7bf
000000f0: 8dec a8bc 8e02 2e3e 3320 8d3e 818f 9b3e
00000100: bdbe b4bd c51a 55be 310b 78bd 5203 bebd
00000110: 28f4 f2bd e283 913d 9ba0 d23d 6b17 0abe
00000120: e022 6bbd fd49 8dbe a3d0 113d 219e 483e
00000130: 258e 93be 715e 32bd 2dda 343e bcd0 aa3d
00000140: 5670 1ebe 02c8 a8be 81cf 633c bb8f 77bd
00000150: 9707 bdbe 3bed ae3e 85c5 9c3e 2339 a1bc
00000160: e510 c53e 95fe a33e c3ad 39be 7e02 73bf
00000170: 1097 d43e 6805 1ebe 0da2 42be 091a f33d
00000180: b226 4abd cf79 d53e df1c 663e ce94 12bf
00000190: 1927 1b3f 0cd2 323e 3ef8 97be 26e8 cb3c
000001a0: 0fb7 59be 1193 4dbe 6472 9cbe 8a28 f23e
000001b0: 1ef2 3fbf 4f02 fb3e 0e31 a73d 38df 283c
000001c0: 83b9 033e 6750 8f3d b910 a2be 6de3 60bf
000001d0: ac92 19be fe08 0e3f c687 47bf d7dd dd3d
000001e0: c6e0 0abf e0a1 46be edf8 c93e a522 debe
000001f0: 1666 a7be 953d ee3d 51e5 c33e c37c 553f
00000200: df9c f0be e74a 60be ce9c 34bf 08d3 85bf
00000210: e798 c9bd 4ebb b1bd 4b1f ac3e 219a 023e
00000220: b12a aa3e 3f27 a53f 319f 0abe baea a3be
00000230: bf3e a1bd 107c 2fbd f33e 6abe 0ea5 1ebf
00000240: 055d 8bbc 8a40 44be 6333 03bf 153a 823c
00000250: 76a5 253e fdbc f5be 0e26 043f 9f25 d43e
00000260: 86f5 2cbe 31d1 873d 38d7 793c ee51 84bd
00000270: ed6c 703d 7f9a 843e acb2 fbbe 1329 debd
00000280: e386 c23f a36c a6be 9fac 103f e7d0 0b3d
00000290: 9f24 343f e486 45bf 54ca ff3e 608b b33f
000002a0: d85d 3c3f bc11 2fc0 d40a 7f3f ab36 0dc0
000002b0: ae18 72bf 7aec 44bf e391 553f 4472 45bf
000002c0: 5f8d 043f 0e0e 3e3e a4d7 62c0 75e2 c1bf
000002d0: c8f0 c53e 55f6 2cbf 32f1 1abf 051d cabe
000002e0: a09b ca3e 2e0e 833d 17b8 923e ab82 843d
000002f0: 62e5 ae3e c5d7 5e3e 61e9 8dbe 7df4 043f
00000300: a668 9dbe 77ea f63c 636e 43be b3cb dcbe
00000310: fdc5 e73c d2c3 95bf a95c f93e cb9e ee3c
00000320: be1a 65be 7379 8dbd b653 923e 4089 073f
00000330: 3d57 033e 4c2a 123f ff0b 24be fb05 923e
00000340: c177 893d 6f45 54bc 82a9 12bf 329a a03e
00000350: 7452 70be 32c2 a43e c2f3 59bd 1a74 e73d
00000360: 8bd6 4dbf 59e8 81be 9594 98be 8aef 93be
00000370: 7ea0 69bd 81c9 413e aa28 863e 8b38 663e
00000380: 0cfb 62be f254 09be faba d6be db1d 98bc
00000390: da61 8fbd eb9a 533e dd13 74be 9401 853e
000003a0: 06e3 9e3d 5e81 f2bd 5dcd 4dbc b7a0 483c
000003b0: 674b bfbe f009 42be cd45 09bf d6e2 85bc
000003c0: 141d 10bf 1af8 c93e 17d3 04be 8c73 89be
000003d0: acdd e5be 2f9d 423f b8ba 4abf 033b cebe
000003e0: e4d7 19bf a7af 333f 2283 263f be87 01bf
000003f0: 9175 033e 80dc 27bf 42a0 fcbe 22dd 40bf
