lif_results/checkpoints_full_20.0_5e-13_100_0.001_0.1_linear_euler_100_4/best-Conn_Pop1_Pop2-weight.npy (npy, 20608 bytes, 1 tensors)

array f4 [5120]
0	0x3e9ce600	0.30644226
1	0xbf0ebd8a	-0.55757964
2	0xbe1c3e4c	-0.1525814
3	0x3dc83811	0.09776319
4	0xbf42d9a3	-0.7611334
5	0xbde98402	-0.114021316
6	0x3e84517b	0.25843415
7	0xbea0d321	-0.3141108
8	0x3eda4b9a	0.42635804
9	0xbedaac22	-0.42709452
10	0xbb81eaf2	-0.0039647752
11	0x3e02a1b8	0.12757003
12	0x3dac4596	0.0841171
13	0x3e8d54a8	0.2760365
14	0x3e5d3679	0.21602811
15	0x3bc70fa2	0.0060748616
16	0x3e36635e	0.17811343
17	0x3ed6e197	0.41968986
18	0x3ec40c36	0.38290566
19	0xbf09e2dc	-0.53861785
20	0x3e9f3b54	0.3109995
21	0xbf31923c	-0.6936376
22	0xbe9ce295	-0.30641618
23	0xbbef1fa3	-0.0072974726
24	0x3e8840f8	0.26612067
25	0xbbdade17	-0.006679307
26	0x3e9a8583	0.30179986
27	0xbf580a59	-0.8439079
28	0xbd36f56b	-0.044667643
29	0xbe07df23	-0.13268714
30	0x3e508149	0.20361818
31	0x3e009124	0.12555367
32	0x3d4e7fe5	0.05041494
33	0xbd877fe4	-0.0661619
34	0x3d67d201	0.05659676
35	0x3cfe4cff	0.031042574
36	0x3e40b568	0.18819201
37	0xbec0012e	-0.375009
38	0x3ea1c38b	0.315945
39	0x3e8240fa	0.25440198
40	0xbdbed7f3	-0.09318533
41	0x3df271f9	0.11838145
42	0xbf3fefdd	-0.7497538
43	0xbecb95c5	-0.39762703
44	0xbbfc985f	-0.0077085937
45	0x3f16664f	0.5874986
46	0xbf7b6ab4	-0.9820969
47	0xbf39e3b9	-0.726131
48	0x3e819587	0.25309393
49	0x3ef104c6	0.47073954
50	0x3ebad13f	0.36487767
51	0x3f15e9b9	0.5855976
52	0x3e939916	0.28827733
53	0x3e42bfb5	0.19018443
54	0xbe384760	-0.17995977
55	0xbd519bad	-0.051173855
56	0xbec67003	-0.38757333
57	0xbf036fe8	-0.5134263
58	0xbe5dd167	-0.21661912
59	0x3e20bce5	0.15697058
60	0x3e3b937c	0.1831798
61	0xbee39aaf	-0.44453952
62	0xbe34cde6	-0.17656669
63	0x3e3c6adf	0.18400143
64	0xbef46943	-0.47736558
65	0xbe870484	-0.26370633
66	0x3f3326fe	0.6998137
67	0x3e9eee3c	0.31041133
68	0xbcbec96b	-0.023289403
69	0xbd037bc0	-0.03210044
70	0xbd319439	-0.043354247
71	0x3e8ba29a	0.27272493
72	0x3dca5045	0.098785914
73	0xbd980ddc	-0.074245185
74	0xbe97a468	-0.2961762
75	0x3e0385a1	0.12843944
76	0x3f10b14a	0.5652052
77	0x3eca8e3d	0.39561644
78	0xbf1a8046	-0.6035198
79	0xbe9f69e8	-0.31135488
80	0x3ef38180	0.47559738
81	0xbe5a43e1	-0.21314956
82	0x3ed9e879	0.42560175
83	0xbecc597b	-0.39912018
84	0x3d26ca17	0.04072007
85	0xbf284436	-0.6572908
86	0x3e86545b	0.26236233
87	0x3f006ccb	0.50166005
88	0xbe16cea0	-0.14727259
89	0xbec33828	-0.3812878
90	0xbcecb2c8	-0.028893843
91	0xbd986eab	-0.07442983
92	0x3e4ed8c2	0.20199874
93	0xbd7112fe	-0.058856003
94	0xbeb61527	-0.35563013
95	0xbe24ff2c	-0.16112965
96	0x3e8806b0	0.26567602
97	0x3eaa7bb3	0.332975
98	0xbf39eff7	-0.7263178
99	0x3cb99035	0.022651771
100	0x3f7f8fc1	0.99828726
101	0xbe944ca7	-0.2896473
102	0x3e3dde30	0.18541789
103	0xbee33e10	-0.44383287
104	0xbf11499c	-0.56752944
105	0xbf1a0766	-0.6016754
106	0x3cb14660	0.021640003
107	0x3f45fb78	0.77336836
108	0xbd26ddda	-0.040738918
109	0xbe53aaeb	-0.20670669
110	0xbd8ae9b7	-0.06782859
111	0xbd9748be	-0.07386921
112	0x3f6593c0	0.89678574
113	0xbeaefeb7	-0.34178707
114	0xbf7cb8dd	-0.9871958
115	0xbeb73816	-0.35784978
116	0x3f146b61	0.5797635
117	0x3e8a24d5	0.26981226
118	0xbf543df1	-0.82907015
119	0x3eced4d0	0.40396738
120	0x3eb9e7a4	0.3630954
121	0x3e7be4c3	0.24598984
122	0xbf4a8579	-0.79109913
123	0x3d3b29c0	0.045694113
124	0x3f391e01	0.7231141
125	0x3e2766e4	0.16347843
126	0xbce7e962	-0.028309528
127	0x3f373835	0.7157014
128	0x3f436633	0.7632782
129	0xbee1c2b2	-0.44093853
130	0xbf3243a6	-0.69634473
131	0xbf79f9c9	-0.97646767
132	0x3f2fcd2e	0.68672454
133	0x3e9aa74e	0.30205768
134	0x3ea0843f	0.31350896
135	0xbf13e323	-0.5776846
136	0x3f0707cd	0.5274628
137	0x3d0434ab	0.03227679
138	0xbfb6106f	-1.4223765
139	0xbf098fb5	-0.53734905
140	0x3e466625	0.19374903
141	0xbea4ae24	-0.3216411
142	0x3d93071c	0.071790904
143	0xbd53fe9f	-0.051756497
144	0x3f1b79ce	0.60732734
145	0x3f527185	0.8220447
146	0xbf10837d	-0.56450635
147	0xbf38e9db	-0.72231835
148	0x3ec6591e	0.38739866
149	0x3e8d6336	0.27614754
150	0xbe86ab07	-0.26302359
151	0x3e317604	0.17330176
152	0x3e595efa	0.21227637
153	0x3ea3c3a4	0.319852
154	0x3eaababf	0.333456
155	0xbf0318b9	-0.512096
156	0xbf887c28	-1.066289
157	0xbf6db0ac	-0.92847705
158	0x3eac9daa	0.33714038
159	0xbd156151	-0.03646976
160	0x3ea79e97	0.32738182
161	0xbf381260	-0.7190304
162	0xbdf34f54	-0.11880365
163	0xbde35102	-0.110994354
164	0x3ca6e5b3	0.020373201
165	0x3d0f5932	0.034997173
166	0x3e55bd5b	0.20873015
167	0xbf3cf206	-0.738068
168	0xbe4ea3d2	-0.2017968
169	0xbd881b4a	-0.0664583
170	0x3e50fba3	0.20408492
171	0x3e788287	0.24268542
172	0x3e105c11	0.1409762
173	0x3db4ecda	0.08834238
174	0xbcec3a4e	-0.028836396
175	0xbd7287ee	-0.059211664
176	0x3e54a807	0.20767222
177	0xbedfa539	-0.43680742
178	0x3e85f7d4	0.2616564
179	0x3eb1bfa3	0.3471652
180	0x3f2ca511	0.6743937
181	0xbf2a8480	-0.6660843
182	0xbefbf2f8	-0.49208808
183	0xbe506b9f	-0.20353554
184	0x3f3df4f6	0.74201906
185	0x3f18a256	0.59622705
186	0x3ebb06c6	0.36528605
187	0x3e8edb66	0.27901763
188	0x3e594b3b	0.21220104
189	0xbe891785	-0.26775756
190	0xbf09d841	-0.538456
191	0x3e318749	0.17336763
192	0x3f0229de	0.50845134
193	0x3df0a63d	0.117504574
194	0xbead9ba5	-0.3390781
195	0xbb684ac1	-0.0035444947
196	0xbda8e4d2	-0.08246769
197	0x3e39ec92	0.1815665
198	0xbf4da374	-0.80327535
199	0xbf692a88	-0.9108052
200	0xbdb15b38	-0.08659977
201	0xbedcf4db	-0.4315556
202	0xbe941837	-0.28924724
203	0x3ee3faf6	0.44527406
204	0xbe7b84dc	-0.245624
205	0xbe94d2cc	-0.29067075
206	0x3ec17dc8	0.37791276
207	0xbe8a8adf	-0.27059075
208	0x3f10ad12	0.56514084
209	0xbf28d3c0	-0.65948105
210	0x3c6873cf	0.014187767
211	0xbe16b9ca	-0.1471931
212	0x3b832c80	0.0040031075
213	0xbdc74526	-0.09729986
214	0x3ec5eec4	0.38658726
215	0x3b49545c	0.0030720448
216	0x3eafbc77	0.34323475
217	0x3f054afb	0.52067536
218	0x3e7070b7	0.23480497
219	0xbef87db0	-0.48533392
220	0x3ed0c246	0.4077322
221	0xbe62646e	-0.22108623
222	0xbf2230ce	-0.6335572
223	0xbe6cfdfc	-0.23143762
224	0x3f3b9750	0.7327776
225	0x3f42e1f7	0.76126045
226	0xbf1a209f	-0.60206026
227	0xbf34a4aa	-0.7056376
228	0x3d9e18bc	0.077195615
229	0x3f0fa605	0.561127
230	0xbe3f28ce	-0.1866791
231	0x3e8c5429	0.2740796
232	0xbc27a49e	-0.010232119
233	0x3e9e5890	0.30926943
234	0x3ed4a8de	0.41535085
235	0xbf5391de	-0.8264445
236	0xbf4c3550	-0.7976885
237	0xbef7abf9	-0.48373392
238	0x3ea899b6	0.32929772
239	0xbda3d3c6	-0.07999377
240	0xb98ee3a1	-0.00027253947
241	0x3e9e8eb6	0.30968255
242	0xbefdd365	-0.49575344
243	0x3f115887	0.56775707
244	0xbdc06b9b	-0.09395524
245	0xbeee455f	-0.465373
246	0xbf656646	-0.8960918
247	0x3cc8c43d	0.024507636
248	0xbec76891	-0.38946965
249	0x3e805ed6	0.25072354
250	0x3e582792	0.21108845
251	0xbf05520b	-0.5207831
252	0xbec97a6c	-0.39351213
253	0x3e9b8782	0.30376822
254	0xbd69799c	-0.05700074
255	0xbce13312	-0.027490173
