if_results/checkpoints_full_5e-12_100_0.001_linear_euler_100_0/best-Conn_Pop0_Pop1-weight.npy (npy, 716928 bytes, 1 tensors)

array f4 [179200]
0	0xbd95a463	-0.07306745
1	0x3f2ed109	0.6828771
2	0x3e7fe290	0.2498877
3	0x3f70169c	0.937845
4	0x3fa53d84	1.2909398
5	0x3fe77299	1.8081847
6	0x3f2116d9	0.6292549
7	0xbddbb85a	-0.10728522
8	0xbe50c295	-0.20386727
9	0x3f73f740	0.9529915
10	0xbf0abf02	-0.54197705
11	0x3fcec6bd	1.61544
12	0x3f1a07e3	0.60168284
13	0x3ffb9943	1.9656147
14	0x3f4d325a	0.80154955
15	0x3e8e9fb3	0.27856216
16	0xbe9297ca	-0.2863143
17	0x400c98d4	2.196828
18	0x3ed7bfb9	0.4213846
19	0x3df3a17b	0.11896034
20	0x3fc80a0d	1.5628067
21	0x400fcf5f	2.247032
22	0xbddb9654	-0.10722032
23	0x3fcf866d	1.6212898
24	0x3d34cdf1	0.044141714
25	0xbf2e9ff9	-0.6821285
26	0xbb242e84	-0.002505214
27	0x3fc01914	1.5007653
28	0x3f249b46	0.6429943
29	0x3ea0c7b8	0.31402373
30	0x3fac5221	1.3462564
31	0xbf8cd2d2	-1.1001837
32	0x3ffc822a	1.9727223
33	0xbfeee7a7	-1.8664445
34	0xbe23651d	-0.1595654
35	0xbf9ae23a	-1.2100289
36	0x3e8d4e03	0.2759858
37	0xbfb17172	-1.3862746
38	0xbfd0414f	-1.6269931
39	0x3f861093	1.0473808
40	0x3e8b84ca	0.27249748
41	0xc03becaf	-2.936321
42	0x3fea209e	1.8291204
43	0x3ea296c8	0.31755662
44	0x3fab409b	1.3379091
45	0x40306928	2.7564182
46	0x3e4c6c72	0.19963244
47	0x3e9dad5c	0.30796325
48	0x3f060aa3	0.5235998
49	0x3f165b9b	0.5873353
50	0x3d85c5f7	0.065318994
51	0xbf528bb8	-0.82244444
52	0x3f3335e6	0.7000412
53	0x3d91e7f7	0.07124322
54	0x3f96aeef	1.1772135
55	0x3dedab10	0.11604893
56	0xbf161252	-0.58621705
57	0x3eaf206d	0.34204426
58	0x3f81ba71	1.0135022
59	0x401d7df3	2.4608123
60	0x3f2fa714	0.68614316
61	0x3e5bdc69	0.21470799
62	0x3f56d082	0.8391191
63	0x3fa2e2b3	1.2725433
64	0xbd26cb7e	-0.04072141
65	0x3f02dafc	0.51115394
66	0x3ea9955d	0.33121768
67	0xbfe9282a	-1.8215382
68	0x3eb77fd1	0.35839704
69	0x3e953c1f	0.2914743
70	0x3f9debb4	1.2337556
71	0xba296ee8	-0.00064633647
72	0x3f5cce84	0.8625262
73	0x3f68d6a4	0.90952516
74	0xbfa9617d	-1.3232876
75	0xbf4160b0	-0.7553816
76	0x402ac8f7	2.668516
77	0x3e24efd4	0.16107112
78	0x3e7543b4	0.23951608
79	0x4014f251	2.3272898
80	0x3e3a3ff6	0.18188462
81	0x3fd26dd5	1.6439768
82	0xbbea4398	-0.007149171
83	0x4039e7eb	2.9047801
84	0x3ea87bbe	0.32906908
85	0xbb46c937	-0.0030332336
86	0xbf29aa9e	-0.66275966
87	0x3ffeb1ad	1.9897972
88	0x3f9c588b	1.2214521
89	0x3edfdcaa	0.4372304
90	0xbee13531	-0.43985894
91	0xbd013f5c	-0.031554565
92	0x3f387fef	0.7207021
93	0x3e3b145c	0.18269485
94	0x3f9c4387	1.2208108
95	0x3f10bc84	0.5653765
96	0x401f1dd3	2.4861953
97	0x3ec911bc	0.39271343
98	0x3f4b7484	0.79474664
99	0xbf962172	-1.1728957
100	0x405f11a0	3.4854507
101	0x40077f17	2.117132
102	0x3f718557	0.94344085
103	0xbfe3483e	-1.7756422
104	0xbd6f5d65	-0.058438677
105	0x3b7a10d7	0.003815701
106	0xbf96d98b	-1.1785139
107	0x3e14d949	0.14536013
108	0x3f6a44aa	0.91511023
109	0xbf565def	-0.8373708
110	0x3fcd4fd9	1.6039993
111	0xbfc5238f	-1.5401477
112	0x4018b09f	2.38578
113	0x3f1a903d	0.6037634
114	0x3f159bdd	0.58440953
115	0xbdf0fe9c	-0.11767313
116	0x40425700	3.03656
117	0x4066acc5	3.604295
118	0xbd8989fb	-0.06715771
119	0xc025cd5d	-2.5906594
120	0xbec4d3ee	-0.3844294
121	0x3f215c9c	0.63031936
122	0x3f707957	0.9393515
123	0x3f9e4db6	1.2367465
124	0x3feefdb5	1.8671175
125	0x3f919cd8	1.137599
126	0x3f8bbac5	1.0916373
127	0x405b675f	3.4281843
128	0xc04fd863	-3.2475822
129	0x3f67fba9	0.9061838
130	0x3fe25ba0	1.7684212
131	0x3c41576a	0.011800626
132	0x401a4a45	2.410783
133	0xbf487081	-0.7829667
134	0xbe4f5ed5	-0.2025102
135	0x3ed43922	0.4144984
136	0x3fc6ae3c	1.5521922
137	0x3f08e638	0.53476286
138	0x4010d321	2.2628863
139	0x4009f253	2.1554153
140	0x3f9f3609	1.2438365
141	0xbeaae209	-0.33375576
142	0x3ef941cf	0.4868302
143	0xbe130ca7	-0.14360295
144	0xbea43619	-0.32072523
145	0x3f673de4	0.9032881
146	0x40045364	2.0675898
147	0x3f622d9b	0.8835084
148	0xbf2c5294	-0.67313504
149	0x3f2b885b	0.67004937
150	0x40022464	2.033471
151	0x400a9b12	2.1657147
152	0x3f303a12	0.6883861
153	0xbe7f08b5	-0.24905665
154	0x3dcf0249	0.10107858
155	0xbfb4e920	-1.4133644
156	0x3d38db5e	0.04513108
157	0x3dd774ca	0.105203226
158	0x3f6d1d21	0.9262257
159	0x3c101e3d	0.008796272
160	0x3fe32f30	1.7748775
161	0x3f003b13	0.5009014
162	0xbda69c09	-0.0813523
163	0x406bbb49	3.683306
164	0x3fec89c9	1.8479549
165	0x3fa884a8	1.3165483
166	0xbf6441f8	-0.8916316
167	0x3f856fcf	1.0424746
168	0x3e2a1096	0.1660789
169	0x3f8b6782	1.0890963
170	0x3daa7842	0.083237186
171	0x4019c87b	2.4028614
172	0x3e0d0e22	0.13774922
173	0x3f41abf7	0.7565302
174	0x40785da8	3.8807163
175	0xbe91df75	-0.28490797
176	0x3ed99720	0.42498112
177	0x3f109fb0	0.56493664
178	0xbdf7a91d	-0.12092803
179	0x3f0e2758	0.55528784
180	0x3e3e8cb6	0.18608364
181	0xbef69ce4	-0.48166573
182	0x3f31fc01	0.6952515
183	0x3fd10d79	1.6332237
184	0xbb7f6a00	-0.0038973093
185	0xbef63f77	-0.48095295
186	0xbf1bc7a6	-0.60851514
187	0x403b3b4c	2.9254942
188	0x3fbbd8f1	1.467558
189	0xbf5422e4	-0.8286574
190	0xbebb078d	-0.36529198
191	0x3fbfb524	1.4977155
192	0x3f054f2f	0.5207395
193	0x3f6f3227	0.934359
194	0xbe8027ed	-0.2503046
195	0x3ee8dddd	0.45481768
196	0x4027be5d	2.6209939
197	0xbe694efb	-0.22784035
198	0x3d95c163	0.07312276
199	0xbd9f9801	-0.07792664
200	0x3f8e91df	1.1138266
201	0x3eaa6bf2	0.3328548
202	0x3f69eac8	0.9137387
203	0xbe03f7a3	-0.12887435
204	0x3f70a0f3	0.9399559
205	0xbf298790	-0.66222477
206	0xbeefe5e6	-0.46855086
207	0x3fb35f4e	1.401346
208	0xbfb0d5d0	-1.381525
209	0x3f1a559e	0.6028689
210	0xc00bb812	-2.1831098
211	0xbebe57e8	-0.37176442
212	0xbe7fe2c3	-0.24988846
213	0xbe37a1c7	-0.17932807
214	0x3d11ba3a	0.03557799
215	0xc0383d55	-2.8787434
216	0x3fbf1bf3	1.4930404
217	0x3faab1cb	1.3335508
218	0x3f6648ff	0.89955133
219	0x3f93b489	1.153947
220	0x3f696ff8	0.91186476
221	0x3da0cf36	0.07852022
222	0xbe19f01a	-0.15032998
223	0x3e7457f7	0.23861681
224	0xbf9637d4	-1.1735787
225	0x3ebe5639	0.37175158
226	0xbe008497	-0.12550579
227	0x3feb951a	1.8404877
228	0x40021b34	2.0329103
229	0x3f8aef6c	1.0854316
230	0x3f2de6a4	0.67930055
231	0x3e5e48c1	0.21707441
232	0x3eab461b	0.33451924
233	0x405229f3	3.2838104
234	0x3ecfcfc6	0.40588206
235	0x3dee2753	0.11628594
236	0xbedecfc3	-0.43517885
237	0x3f1bb3b1	0.6082106
238	0xbea992e5	-0.33119884
239	0x404f6265	3.2403805
240	0x3f6cca74	0.9249642
241	0x3e8fb979	0.28071192
242	0xbe0e88f7	-0.13919435
243	0x3eec084e	0.46100086
244	0x3e815c6b	0.25265822
245	0x3d0a31c8	0.03373888
246	0x3fe65d61	1.7997247
247	0xbdb82d60	-0.089930296
248	0x3f11253b	0.56697434
249	0xbd37dca7	-0.044888165
250	0x3f64f11e	0.89430416
251	0xbc8383e9	-0.01605411
252	0x3f090c15	0.5353406
253	0x3fb831d9	1.4390212
254	0x3f6451b0	0.89187145
255	0xbedd7354	-0.4325205
