if_results/checkpoints_full_5e-12_100_0.001_linear_euler_100_1/best-Conn_Pop0_Pop1-weight.npy (npy, 716928 bytes, 1 tensors)

array f4 [179200]
00000000: e469 ed3e e08a 1dbf 4624 443f e6fd 8cbb
00000010: 72e1 253f a3ee 9b3f 09fa 9b3f 2099 ff3e
00000020: 0eeb febf 5f74 043f 4955 fe3f ae4b c63b
00000030: 1f7f eb3e e118 023e b516 933f 134d 39bf
00000040: 6343 0040 ecbb 0b40 2a02 e4bf 7032 d63f
00000050: 1005 963e a741 1c3f c71e 003f f106 09be
00000060: f32f 29bf eb60 c73d 7a3a 4340 f160 243f
00000070: 2b61 c738 f5b9 803f 1dcc 933d 3a18 3540
00000080: 6ff2 b73f 41be fbbe afc5 4e3f 2ba6 d33e
00000090: a5cc 5abf e1ca 2440 0616 623f e536 353f
000000a0: e348 063f 6e96 923e 76fb 663e 8898 4540
000000b0: 266a bbbd 2ad2 473f 79e2 033f b84f 463f
000000c0: afc9 493f 4c69 c63f 518e ec3e 2b6a f33f
000000d0: 7364 6d3f 5891 e83e 509b 283e 0759 ae3e
000000e0: b367 ef3e 60d8 3440 9abf b73f c1c8 c03e
000000f0: aa8e 93bd e8eb 013f e8de 583f 0f2b d43f
00000100: 8162 333e 04f6 373f 49ae 063f 0a15 253e
00000110: 7b43 24ba fee6 04bf 7664 abbf 8751 813f
00000120: 6472 513e 0eea 033f 1e55 c53f c2d3 e23f
00000130: cd93 1d40 19bd 943f 541c 013f f408 3640
00000140: 7638 dfbd 6fc8 503e 415c 4840 6a2c 17be
00000150: b72f bc3e a020 cf3f 844c 363f aa28 62be
00000160: 8945 823e 69b4 45bd e713 bd3e b130 853f
00000170: ead1 18bf 3963 4a3f b90e 5e3f d38d 7d3d
00000180: 312c 3840 6bf6 c5be d5bc 21c0 e80b 893d
00000190: 5055 aa3e 7abb df3f f2e1 b93e d194 5740
000001a0: 9486 e33e 82b1 af3f ae3b 6f3f ea50 c73f
000001b0: 308c 9a3f b34a 063f fb8e 7040 b810 cf3f
000001c0: bf16 4a40 fe12 873f ec95 c93f ebff 0040
000001d0: 5272 98bf 34ee a63e 3151 4fbe 3aa9 cc3f
000001e0: 768d 383f 60ea b33f c903 81be b41d c43d
000001f0: 7105 a13e f166 533e 7101 ef3e 71a3 cabe
00000200: 838f c93f f5f9 1740 4e52 e03f d2f1 c53e
00000210: 6635 0b3e 8aec 3c40 8924 6ebf 28eb 4c3e
00000220: ed5d 303f 68aa 053f e525 3040 4ee9 0cbf
00000230: 9a47 6abe 0a8c 6d3f c778 9c3f 3387 f83f
00000240: 141c 8cbe b5f6 d7bc 107a 263f 0d89 9dbc
00000250: 62fe 4d3e 60d3 993e 86eb 4c3f e08f 7e3e
00000260: b751 f6be 27d2 a0be ceae b4be ad6d 2e3e
00000270: 8bfe b73e 9ba6 6e3f b9a0 55bf c5d3 1940
00000280: abaf 3dbf add7 713f c8e0 1ebd f9ce 983d
00000290: 2c8c d83e de1d 7b3f 5579 4b40 5e5d 013e
000002a0: c16f c23e 424e 36be dadf 25c0 706a 1dbf
000002b0: 8193 01bf bdc6 163f 0fb1 0bbe dd1a 07be
000002c0: 0bfe 853f 6a2a 9cbc f0bc a4bc 1d08 bcbf
000002d0: 8687 e3bf a10d 1140 fce3 3340 62d7 a2bf
000002e0: 6fbc c9bf 3fe1 d6bf 8b42 1bbf c08f 7a3f
000002f0: 1250 453f 5268 803f b269 ffbd 9873 01c0
00000300: 6e13 98be cd04 ae3e a6f6 d13d acc7 203f
00000310: 3aea febf 2bd9 de3e a252 833e 8545 2440
00000320: 0524 89be cd61 093d d715 e63e 1fb6 1140
00000330: 260d e5bc 1c6e b63f 9a2d 4e40 1509 833f
00000340: 66c4 3d3f e616 da3f 7bcb 6b40 0f35 a83e
00000350: ca26 3940 3a4f aa3b 1775 283f 9337 d83e
00000360: d900 883f d235 6140 70ac 9bbf 62c8 aabe
00000370: 8c45 4b3f 6d94 9fbf 7b08 86bf 2d7e 1840
00000380: c2d9 5f40 b8f0 343e b946 e9bb 7309 163f
00000390: c57e 003f 94aa 15bf 9eda a13c 9940 823f
000003a0: 9811 0bbe 503b 823f 2b40 b2bd 6448 8abe
000003b0: 8493 ce3f 996c e53f 340a 263e 3c0e 9b3e
000003c0: 350a 833e a360 833b 06c2 243f 8370 ed3f
000003d0: 9e62 6e3e c19c f33e 765d 603f 9377 1e3f
000003e0: e593 c23e f013 a53d 6a9c 463f 7bd5 d43f
000003f0: ae86 84bf 1309 9f3f 150d 2f3e 35e7 dfbe
0.4636985 -0.6154003 0.7661785 -0.004302728 0.6479713 1.2182201 1.218568 0.49921513
-1.9915483 0.5174007 1.9869777 0.006051502 0.45995423 0.12704803 1.1491305 -0.7238323
2.004113 2.1833448 -1.781316 1.6734142 0.29300737 0.6103768 0.5004696 -0.13381554
-0.6608879 0.097352825 3.0504441 0.6421042 9.5071584e-05 1.005675 0.07216666 2.8296037
1.437086 -0.4916859 0.8077039 0.41337714 -0.8546851 2.5748827 0.88314855 0.7078689
0.52454966 0.28630394 0.22556862 3.0874348 -0.091511056 0.7805506 0.51517445 0.7746539
0.7882337 1.5500884 0.4620233 1.9016775 0.927314 0.45423388 0.16465497 0.34052297
0.46758804 2.8257065 1.4355347 0.37653163 -0.072049454 0.5075059 0.8471513 1.657564
0.17518045 0.71859765 0.5260969 0.16121307 -0.0006266159 -0.51914966 -1.3390033 1.0103005
0.20453793 0.51529014 1.5416601 1.7720873 2.462146 1.1620208 0.5043385 2.8442965
-0.10899441 0.2038896 3.1306307 -0.14763036 0.36755154 1.6181831 0.71210504 -0.22085825
0.25443676 -0.048267756 0.36929247 1.0405484 -0.59695303 0.7905765 0.86741215 0.061902832
2.8776972 -0.38664564 -2.5271504 0.06691724 0.33268213 1.7479088 0.36305195 3.368458
0.44438612 1.3726046 0.9345044 1.5571568 1.2074032 0.5245773 3.7587268 1.6176977
3.1576383 1.0552671 1.5748878 2.01562 -1.1909888 0.3260361 -0.20245816 1.5989144
0.7209085 1.40559 -0.251982 0.09575978 0.31449464 0.20644738 0.46680787 -0.3957782
1.5746921 2.3746312 1.7525117 0.38661057 0.13594589 2.9519372 -0.930245 0.2001158
0.6889332 0.52213144 2.752313 -0.55043495 -0.22878876 0.9279181 1.2224358 1.941626
-0.27365172 -0.026362756 0.6503 -0.01923039 0.2011657 0.3004408 0.8004688 0.24859571
-0.48109218 -0.31410334 -0.35289615 0.17034025 0.35936388 0.9322297 -0.8344837 2.4035504
-0.74096173 0.9446972 -0.038788587 0.07461352 0.42294443 0.9809245 3.1792805 0.12633273
0.37975886 -0.1780329 -2.5917878 -0.61490536 -0.506157 0.58897 -0.13641761 -0.13193841
1.0468153 -0.019063193 -0.020109624 -1.4689976 -1.7775733 2.2664568 2.81079 -1.272198
-1.576063 -1.678749 -0.6064841 0.97875595 0.770753 1.0031836 -0.12471332 -2.0226803
-0.29702324 0.33988038 0.102521226 0.62804675 -1.991523 0.4352506 0.2564898 2.5667431
-0.26785293 0.033540536 0.44938537 2.2767408 -0.027960371 1.4252353 3.2215333 1.0237147
0.74127805 1.7038238 3.6842945 0.3285298 2.8929925 0.005197433 0.65803665 0.422299
1.0625259 3.51891 -1.2161999 -0.33356005 0.79402995 -1.2467171 -1.0471338 2.3827012
3.497666 0.17669952 -0.0071190265 0.5860817 0.50193435 -0.58463407 0.019757565 1.0175964
-0.1358093 1.0174351 -0.08703645 -0.27008355 1.6138768 1.7923766 0.1621483 0.30284297
0.25593725 0.0040093227 0.64358556 1.8549961 0.23279807 0.4758053 0.8764261 0.61901206
0.3800346 0.080604434 0.7758242 1.6627649 -1.0353601 1.2424644 0.17094834 -0.43731084
