if_results/checkpoints_full_5e-12_100_0.001_linear_euler_100_1/best-Conn_Pop1_Pop2-weight.npy (npy, 20608 bytes, 1 tensors)

array f4 [5120]
0	0x3f90040e	1.1251237
1	0xbb2b6dfb	-0.0026158083
2	0x3f2b46ed	0.669051
3	0xbe97de88	-0.29661965
4	0x3d5c9c08	0.05385974
5	0xbd1f5d64	-0.038907424
6	0x3ed9623d	0.42457762
7	0x3edc8232	0.4306808
8	0xbfd5aadb	-1.6692766
9	0xbefea016	-0.4973151
10	0x3eb2db83	0.349331
11	0xc01e926f	-2.4776876
12	0x3f516316	0.8179182
13	0xbfd73862	-1.6814082
14	0xbcce5f32	-0.025191877
15	0x3d4f5526	0.050618313
16	0xbeab85a0	-0.33500385
17	0x3f08896f	0.5333471
18	0xbfd2eb99	-1.6478149
19	0xbee66804	-0.45001233
20	0x3eed06db	0.46294293
21	0xbfa3362f	-1.275091
22	0x3df4e060	0.11956859
23	0x3e826082	0.25464255
24	0x3e124dcf	0.14287494
25	0x3e7828c9	0.24234308
26	0xbecac222	-0.39601237
27	0x3eda9c31	0.4269729
28	0x3f67ccb2	0.90546715
29	0xbf22c809	-0.6358648
30	0x3f54d0ec	0.8313129
31	0x3f455ef6	0.77098024
32	0xbf2327da	-0.63732684
33	0x3da79745	0.08183149
34	0xbf277734	-0.65416265
35	0x3e985c36	0.2975785
36	0x3ef6ccb3	0.48203048
37	0xbf1e9667	-0.61948246
38	0xbef02203	-0.4690095
39	0xbe787026	-0.24261531
40	0xbeba8b7d	-0.36434546
41	0x3e2697db	0.16268866
42	0xbf5d3394	-0.86406827
43	0xc0251bfc	-2.579833
44	0x3fc9f699	1.5778381
45	0x3ec23bd7	0.3793628
46	0xbf9e3067	-1.2358521
47	0xbf0f928e	-0.56083
48	0xbdf7efcb	-0.12106284
49	0x3fcfc6da	1.623256
50	0xbfa3501f	-1.2758826
51	0xbe1668d6	-0.14688429
52	0x3e392598	0.18080747
53	0x3e8a0a93	0.26961192
54	0xbf8f2012	-1.1181662
55	0x3f219166	0.63112485
56	0x3f4450b0	0.7668562
57	0xc017ac8f	-2.3699071
58	0x3f40440e	0.75103843
59	0x3e7147ab	0.23562495
60	0x3e60284e	0.21890375
61	0xbdbd7e8c	-0.092526525
62	0xbec2ff37	-0.38085338
63	0x3da6576e	0.08122145
64	0x3d91bbdc	0.071159095
65	0xbb89fd87	-0.004211131
66	0xbe99e9a3	-0.30061063
67	0x3ce31f5d	0.027724916
68	0x3f51647b	0.81793946
69	0x3d13a095	0.036041815
70	0xbec76959	-0.3894756
71	0x3f09ec9f	0.5387668
72	0xbb23d692	-0.002499972
73	0x3e97833b	0.29592308
74	0xbdf7e398	-0.12103957
75	0xbf168b3f	-0.5880622
76	0x3e1596ab	0.14608257
77	0x3de2cc03	0.110740684
78	0xbe4d72b8	-0.20063293
79	0xbc81ca91	-0.015843662
80	0xbe8ac432	-0.2710281
81	0x3ce56046	0.028000008
82	0x3dc110ce	0.09427033
83	0xbd77ec74	-0.060528234
84	0x3d19837d	0.037478913
85	0x3d4a8723	0.049445283
86	0x3eb06c42	0.34457594
87	0xbdbd8672	-0.09254159
88	0x3d9c9a92	0.076466694
89	0xbd453583	-0.048146736
90	0x3c2c9642	0.010533871
91	0xbdc093b0	-0.09403169
92	0xbdb989bb	-0.09059473
93	0xbdbfdeac	-0.09368643
94	0x3ceec092	0.029144559
95	0x3e90e09f	0.28296372
96	0xbcf8e237	-0.030381305
97	0xbe72d839	-0.23715295
98	0x3e90af2f	0.28258654
99	0x3c326a96	0.01088967
100	0xbe82d474	-0.25552714
101	0xbc2f29cf	-0.01069112
102	0x3e0ebf4a	0.13940158
103	0xbd3f069a	-0.046637155
104	0xbe108937	-0.14114843
105	0x3d9234b6	0.0713896
106	0x3ec7e5c1	0.39042476
107	0xbc8af25d	-0.016961271
108	0x3e18d81e	0.14926192
109	0xbe03bf66	-0.12865981
110	0x3c9d0b62	0.019170467
111	0xbd851652	-0.06498398
112	0xbdc9ec31	-0.09859503
113	0xbd3aaccd	-0.045574952
114	0x3d99b7f6	0.07505791
115	0x3ea291aa	0.31751758
116	0x3c992c7b	0.018697968
117	0xbdefcde8	-0.117091954
118	0x3d3255a4	0.043538705
119	0x3b8b22d0	0.0042460933
120	0xbe9bedd6	-0.30454892
121	0x3cde5a22	0.027142588
122	0x3df2f909	0.11863906
123	0xbd6d48d7	-0.057930794
124	0x3cac89b3	0.021061754
125	0x3e082839	0.13296594
126	0x3ecb2f66	0.396846
127	0xbe1cea72	-0.15323809
128	0x3e3c1daa	0.18370691
129	0xbdca1086	-0.09866433
130	0x3cc48d8a	0.023993272
131	0xbe443484	-0.19160658
132	0xbd74030e	-0.059573226
133	0xbe382e32	-0.17986372
134	0x3c6b6edf	0.014369695
135	0x3ebc263f	0.3674793
136	0x3a88c13b	0.0010433564
137	0xbeb22f6e	-0.3480181
138	0x3e9d3e03	0.30711374
139	0x3c0f3ff2	0.008743273
140	0x3da7d961	0.081957586
141	0x3e0bead4	0.13663799
142	0xbe5c324f	-0.21503566
143	0xbcf1a587	-0.029497875
144	0xbdae601d	-0.08514426
145	0xbe2a09c0	-0.16605282
146	0xbeab3701	-0.33440402
147	0x3e142b0d	0.14469548
148	0xbe02a58b	-0.12758462
149	0x3e4d054d	0.20021553
150	0x3d41fd65	0.047360796
151	0x3dba052b	0.09083017
152	0x3d6769d5	0.056497414
153	0x3d5f1b57	0.054469433
154	0xbe056712	-0.130276
155	0xbe8fbd8c	-0.280743
156	0xbb32f72c	-0.002730797
157	0x3e622f36	0.22088322
158	0xbe69c21c	-0.22827953
159	0x3daa4d20	0.08315492
160	0x3f47d1b3	0.7805435
161	0xbf3abb8e	-0.72942436
162	0x3f050313	0.51957816
163	0xbfe31a3d	-1.7742382
164	0x3f8512da	1.0396378
165	0x3f484063	0.78223246
166	0xbf2723d7	-0.6528906
167	0xbec5bb4b	-0.38619456
168	0xbec30c95	-0.38095537
169	0x3ed2919c	0.41126716
170	0xbececb1e	-0.4038934
171	0xbf553369	-0.8328157
172	0x3d8daea3	0.06918075
173	0x3ed69705	0.41912094
174	0x3f0189eb	0.5060107
175	0xbf512edb	-0.8171212
176	0xbde82342	-0.1133485
177	0xbee5d0e6	-0.4488594
178	0x3f888820	1.0666542
179	0x3e59171e	0.21200225
180	0x3eeff086	0.46863192
181	0xbf2de835	-0.67932445
182	0xbeee206a	-0.46509105
183	0xbe508d2f	-0.20366357
184	0x3ed6502b	0.41858038
185	0x3daa23e6	0.08307628
186	0x3e2f3585	0.1711026
187	0xbf0e15af	-0.55501837
188	0x3e0ccaf5	0.13749297
189	0xbe81ccef	-0.25351664
190	0xbdb166b3	-0.086621664
191	0x3c907a83	0.017636543
192	0xbb58f8c0	-0.003310725
193	0x3e0da3f4	0.13832074
194	0x3e653e82	0.22387126
195	0xbf51897a	-0.818504
196	0x3f249a3e	0.64297855
197	0xbe9570f3	-0.29187736
198	0x3f03f290	0.51541996
199	0xbf095c1d	-0.5365618
200	0xbeb0efd8	-0.34557986
201	0x3cf92409	0.03041269
202	0x3d9af6b5	0.07566587
203	0x3b9a5cc9	0.004710768
204	0x3d248ca1	0.040173177
205	0xbd463316	-0.048388563
206	0x3ea2ed40	0.31821632
207	0xbdbf7a70	-0.09349525
208	0x3d30e6df	0.043188926
209	0xbdfa6b93	-0.122275494
210	0x3d37bd65	0.044858355
211	0xbe8bf236	-0.2733323
212	0xbe0f8d4d	-0.14018746
213	0xbe05fdab	-0.13085048
214	0x3e26086d	0.16214152
215	0x3ecfac88	0.40561318
216	0xba8570dd	-0.0010180731
217	0xbe40f7b0	-0.18844485
218	0x3ed142a3	0.40871152
219	0x3d9dad66	0.07699089
220	0x3ea10273	0.3144718
221	0x3e28ceb8	0.16485107
222	0xbecc829d	-0.399434
223	0xbdccdbb4	-0.100028425
224	0xbe42decc	-0.19030303
225	0xbb867cae	-0.0041042184
226	0xbf6fac88	-0.93622637
227	0x3e947dd7	0.29002258
228	0xbee2bf66	-0.4428665
229	0x3ef760ab	0.4831594
230	0xbdc8c441	-0.098030575
231	0x3e3c24aa	0.18373361
232	0x3e190ad4	0.14945537
233	0x3e9380ef	0.28809306
234	0xbe86622e	-0.2624678
235	0xbedf2947	-0.4358618
236	0xbe44c637	-0.19216238
237	0x3eb3a35e	0.35085577
238	0xbef8e120	-0.48609257
239	0x3d94c044	0.07263234
240	0x3d44a403	0.048007976
241	0x3e8167ae	0.25274414
242	0xbe49d76a	-0.1971108
243	0xbdf7b9af	-0.12095963
244	0xbde61414	-0.11234298
245	0xbde671a0	-0.11252141
246	0xbdab2e2f	-0.08358418
247	0x3da7dcf4	0.0819644
248	0xbe8cc1c9	-0.27491596
249	0x3e12bc6e	0.14329693
250	0xbde4a115	-0.111635365
251	0x3e5f9d87	0.21837436
252	0x3ce85854	0.02836243
253	0x3c956a82	0.018239263
254	0xbdbe9085	-0.09304909
255	0xbd732b4b	-0.05936746
