lif_results/checkpoints_full_20.0_5e-13_100_0.001_0.1_linear_euler_100_7/best-Conn_Pop1_Pop2-weight.npy (npy, 20608 bytes, 1 tensors)

array f4 [5120]
0	0x3eb1b606	0.34709185
1	0xbef1a0a5	-0.47192875
2	0x3e91fa77	0.28511402
3	0x3e86d3c1	0.2633343
4	0xbe84e38f	-0.25954863
5	0xbe876efd	-0.26451865
6	0x3eb56168	0.35425878
7	0x3f534792	0.8253108
8	0x3e3ffe02	0.1874924
9	0xbe9cce87	-0.30626318
10	0xbd852bab	-0.0650247
11	0xbe287521	-0.16450931
12	0x3e80d726	0.25164145
13	0x3e939805	0.2882692
14	0xbedf1bdf	-0.4357595
15	0xbe4444d8	-0.19166887
16	0x3ef8d27a	0.4859808
17	0x3e21b81e	0.15792891
18	0xbf9ef412	-1.2418234
19	0xbed195df	-0.40934655
20	0xbe039f11	-0.12853648
21	0x3ed1fd05	0.4101335
22	0xbe13f0fe	-0.144474
23	0x3f06bc44	0.5263102
24	0x3dbde8f7	0.0927295
25	0xbe51dd82	-0.20494655
26	0xbf9681df	-1.1758384
27	0xbe6cd88a	-0.23129478
28	0xbf2fb0cd	-0.6862915
29	0x3e9aa14b	0.30201182
30	0x3dc3f938	0.09569019
31	0xbf32a139	-0.69777256
32	0xbeab6301	-0.3347397
33	0x3ea8a83f	0.32940862
34	0x3e663839	0.22482385
35	0x3e18ac8b	0.1490957
36	0xbeb1d0f8	-0.34729743
37	0x3e561b5b	0.20908873
38	0x3f1897e4	0.59606767
39	0x3ea15d28	0.31516385
40	0x3e04758d	0.12935467
41	0x3e665021	0.22491504
42	0xbe541722	-0.2071195
43	0x3d636715	0.05551823
44	0xbe968d85	-0.29404846
45	0x3d884f1b	0.06655713
46	0xbf0ce9bb	-0.55044144
47	0xbeed9d1b	-0.46408924
48	0xbe0cdc28	-0.13755858
49	0x3ee2cf0a	0.44298583
50	0xbe094bbe	-0.134078
51	0xbe7db79c	-0.24777073
52	0x3ee4f041	0.4471455
53	0x3df58dda	0.11989947
54	0x3dd6837e	0.10474299
55	0xbef06f02	-0.46959692
56	0x3f2b0a9d	0.6681307
57	0xbecaf64a	-0.3964103
58	0xbf23542f	-0.6380033
59	0x3eba7656	0.36418408
60	0x3e45b565	0.19307478
61	0xbf086e66	-0.53293455
62	0xbd1b1949	-0.03786591
63	0xbe38f2b0	-0.18061328
64	0x3d5e3e80	0.054258823
65	0xbdd086cc	-0.101819605
66	0x3d804f60	0.062651396
67	0x3f1376cc	0.57603145
68	0x3f23d8ba	0.64002573
69	0xbe8d6ed6	-0.27623624
70	0xbe88d70b	-0.26726565
71	0x3e70f246	0.2352992
72	0x3e1622e3	0.14661746
73	0x3e4cff0d	0.20019169
74	0xbe888e22	-0.2667094
75	0xbc9e1d3e	-0.019301053
76	0x3f0083ff	0.5020141
77	0x3c27b6ba	0.0102364365
78	0xbedeb8a3	-0.43500242
79	0xbf0c783a	-0.5487095
80	0x3f12b951	0.5731402
81	0x3d6097de	0.05483233
82	0x3f899a55	1.0750223
83	0xbc666272	-0.014061557
84	0x3e96564e	0.2936272
85	0xbf0676c6	-0.52524984
86	0x3be47318	0.006971728
87	0x3c92ac71	0.017904492
88	0x3e270a07	0.16312419
89	0xbe9d6c3f	-0.30746648
90	0x3d99f162	0.07516743
91	0xbf242afa	-0.6412808
92	0xbf136c92	-0.5758754
93	0xbeeed68e	-0.46648067
94	0x3ddf9ede	0.109189734
95	0x3e2129de	0.15738627
96	0xbe224e15	-0.15850098
97	0xbd9d186c	-0.07670674
98	0x3eb15e46	0.34642237
99	0xbd383154	-0.044968918
100	0x3e1aec83	0.15129285
101	0xbe8da2df	-0.27663323
102	0xbe783c3c	-0.24241728
103	0x3e09a437	0.13441549
104	0x3f0d3231	0.5515471
105	0x3f7b4605	0.98153716
106	0xbf575731	-0.8411742
107	0xbf1f7a98	-0.6229644
108	0x3d47df6c	0.048797056
109	0x3e8f4134	0.27979434
110	0xbe4de4b0	-0.20106769
111	0x3e6878ed	0.2270238
112	0x3d1a0056	0.037597977
113	0x3ea14e42	0.31505018
114	0x3ea650ab	0.3248342
115	0xbdae45b9	-0.08509392
116	0xbf9bcc83	-1.2171787
117	0xbf3e5a66	-0.7435669
118	0x3e3d541b	0.18489115
119	0xbe1996be	-0.1499891
120	0x3f408099	0.75196224
121	0x3e7ced20	0.24699831
122	0xbe4db638	-0.20089042
123	0xbef46703	-0.47734842
124	0x3f42edef	0.7614431
125	0x3f3a59a8	0.72793055
126	0xbf76f394	-0.9646542
127	0xbec8435a	-0.39113885
128	0xbe38a1a8	-0.18030417
129	0x3f42947d	0.76007825
130	0xbecc8200	-0.39942932
131	0x3eaa2d2b	0.33237585
132	0x3d9c18a6	0.07621889
133	0x3e22aeba	0.15886965
134	0xbe21bc59	-0.15794505
135	0xbf390cf1	-0.7228537
136	0xbf2ef106	-0.6833652
137	0xbf1bfa4d	-0.60928804
138	0x3eab0281	0.33400348
139	0xbed05148	-0.40687013
140	0x3f15ddb0	0.58541393
141	0xbf011498	-0.5042205
142	0xbf09cbf1	-0.53826815
143	0xbee541c5	-0.4477674
144	0xbefc06a3	-0.49223813
145	0xbf266e92	-0.65012467
146	0xbea208db	-0.3164738
147	0xbeac18a1	-0.3361254
148	0x3dbbb82f	0.091659896
149	0xbf38e35a	-0.7222191
150	0x3f5eece1	0.870802
151	0x3ecb6519	0.3972557
152	0x3e71eb77	0.23624979
153	0x3e9f76e2	0.31145388
154	0x3f619fb7	0.8813433
155	0xbfa1c565	-1.2638365
156	0xbe01435f	-0.12623356
157	0x3f29a589	0.6626821
158	0x3ecaf8ec	0.39643037
159	0x3e5d9847	0.2164012
160	0x3f2a256c	0.6646335
161	0x3d444966	0.04792156
162	0x3f35d244	0.71023965
163	0x3e414921	0.18875553
164	0xbd324ea4	-0.04353203
165	0xbf97b5a1	-1.1852304
166	0x3fa5a24c	1.2940154
167	0x3f27ddbc	0.65572715
168	0xbeb9a438	-0.362581
169	0xbff296d6	-1.8952281
170	0x3f9fd47d	1.2486721
171	0x3e51c4e7	0.20485269
172	0xbbeb65b6	-0.0071837557
173	0xbfacb235	-1.3491884
174	0xbed921e8	-0.4240868
175	0x3c19b356	0.009381136
176	0xbd30f05a	-0.043197967
177	0x3ee2610a	0.4421466
178	0xbfa5c2aa	-1.2950032
179	0xbf4229b9	-0.75844914
180	0x3eb044f9	0.34427622
181	0xbf10e509	-0.5659948
182	0xbed8b10b	-0.42322573
183	0xbd5d8808	-0.054084808
184	0x3ed4cf5d	0.41564456
185	0x3f1dc97a	0.61635554
186	0xbf10545a	-0.5637871
187	0xbf211c32	-0.6293365
188	0xbdc1d2e5	-0.09464053
189	0x3eb2722c	0.3485273
190	0xbe7ccb3a	-0.246869
191	0x3e8fad33	0.28061828
192	0xbd1536c1	-0.03642917
193	0x3e99aa9a	0.3001297
194	0x3f25d23a	0.64773905
195	0xbf264e41	-0.64963156
196	0xbf74516c	-0.9543674
197	0xbebe89f5	-0.37214628
198	0x3e962a33	0.2932907
199	0x3e4fea5b	0.20304243
200	0x3dd22009	0.102600165
201	0xbf0d3b8d	-0.5516899
202	0xbeb8dbd9	-0.3610523
203	0xbe10886f	-0.14114545
204	0x3ca7c2f0	0.020478696
205	0xbd358165	-0.044312853
206	0x3e9bcd07	0.3042986
207	0xbf566f36	-0.83763444
208	0x3b59a3bb	0.0033209163
209	0xbe52684f	-0.20547603
210	0x3e34ab8a	0.17643562
211	0x3e7a8c11	0.24467494
212	0x3e3c7ed8	0.18407762
213	0x3cab6c15	0.020925561
214	0x3dfdb11b	0.12387296
215	0x3de18b2e	0.110128745
216	0x3e6a257b	0.2286586
217	0xbe9c5385	-0.3053247
218	0x3ebc0fa0	0.3673067
219	0x3e443c7c	0.19163698
220	0xbef4f6b4	-0.4784447
221	0xbf74f015	-0.95678836
222	0x3fcf704f	1.6206149
223	0x3fa12701	1.2590028
224	0xc04d0605	-3.2034924
225	0xbf210e21	-0.62912184
226	0x3f1ed028	0.6203637
227	0xbed196f3	-0.40935478
228	0xbf0a2ae8	-0.5397172
229	0x4002b2a9	2.0421546
230	0xbffa7b6b	-1.9568914
231	0xbf84d02e	-1.0376031
232	0xc009742d	-2.1477158
233	0xbf95f38f	-1.1714953
234	0x3e908ece	0.2823395
235	0x3f68dc9f	0.9096164
236	0x3f9c2cea	1.2201207
237	0x3f9abd97	1.2089108
238	0x401b0445	2.4221356
239	0x3e454287	0.1926366
240	0xbe27401a	-0.16333047
241	0xbed02eaf	-0.40660617
242	0x3ea28542	0.31742293
243	0xbd7f4c68	-0.062328726
244	0x3f7a3081	0.9773026
245	0x3f1f4467	0.6221375
246	0xbf90adf0	-1.1303082
247	0xbd0400cf	-0.032227334
248	0x3f26cede	0.65159404
249	0x3e5b109a	0.21393052
250	0xbea4397f	-0.32075116
251	0xbd91997b	-0.07109352
252	0xbf501d86	-0.8129505
253	0x3e852b73	0.26009712
254	0xbe8c6da8	-0.2742741
255	0x3ed17c57	0.40915176
