lif_results/checkpoints_full_20.0_5e-13_100_0.001_0.1_linear_euler_100_7/best-Conn_Pop0_Pop1-weight.npy (npy, 716928 bytes, 1 tensors)

array f4 [179200]
00000000: 6167 293f cbc9 0340 d204 b53e 91c7 1ec0
00000010: 0f4b bb3f a4a1 cdbe 426f 1b3e c303 4cbf
00000020: 8c38 613f 0e56 18bf 110a ef3e cb49 d93d
00000030: de23 43bf 1125 36be 8a78 abbf 4637 c63c
00000040: 76a2 c7be bf26 40c0 153d ad3f 88cb 0c3e
00000050: 75c1 623e cdb4 a73e a226 a8bf 10a0 1bbf
00000060: 0200 d8bf c090 1fbf d166 88be 149b 18bf
00000070: 2149 213e 17ba bfbe 2309 92be 6a6e 2e3f
00000080: 3c5e 43c0 f75d a6be 0679 8dbe 8ca0 33bf
00000090: 564f 47bf 0ed4 2c3e be9c dfbf cb42 f23e
000000a0: 12c5 b63e 3f64 b33f cae2 9f3f d619 b4bf
000000b0: 0ed0 69bd 9e4f 15bf 527e be3e 998b 10bf
000000c0: e610 5b3f 7650 94be f6a0 863e 6ca9 2d3e
000000d0: b99b d3bf af63 993f 7831 79be 5373 23bf
000000e0: b0e0 a03e 641a 013f c97f 843f f6dc e3be
000000f0: 591c 1ac0 985c 9abe 49c5 92be 83d2 afbe
00000100: 3620 d0bf 9c7a a6bf cf12 bfbf c6ee 153f
00000110: 44f9 75bf c8be 153f 8aef c0be 1ad0 623f
00000120: 9c03 253f 5e80 55bf 664b 9e3f 7001 fcbe
00000130: 8498 12bf 3746 78bf acfc 7fbf 7845 9ebf
00000140: 5b02 1340 972c b13e 815e a83f 4f75 0cbf
00000150: 6a65 23be 7448 9fbf b893 bfbf 338b 453f
00000160: 0e28 9fbf 2997 81bf 78df cebf f22d acbf
00000170: 6acc 093f 2236 0c40 7892 503f aeb9 50bf
00000180: 2de0 3d3d 8ac8 353f 04b0 42bf c4c5 953f
00000190: 6f38 6ebc 800c 72bf 0c17 0cc0 5b0f dcbe
000001a0: 7ada a5bf cfde 8c3e 57bc 1abe bca1 0d3f
000001b0: 191c a1be 174a 883f b318 853f 73b9 0b40
000001c0: 54e6 abbf b05d 78be c093 0bc0 f269 a2be
000001d0: f203 243f 1532 bb3e 1a40 64bf 6a91 303f
000001e0: 216f 13bf ff02 33be a826 773e 59cb e5bf
000001f0: a5eb 033f a744 66bf 39b9 0fc0 1e38 0240
00000200: e979 a53e d5cd b13c 6c58 503e 5399 55bf
00000210: b1d9 143f 99cd 01c0 7ea4 a3be 4f3c ad3e
00000220: 68ca 933f 145b bfbf c0cd 79bf 13f3 15c0
00000230: b4d2 563f 2374 df3d 51ab f3bf 8c00 a93f
00000240: 3580 a9be 41b1 8d3e 3001 953f 0ce5 2abc
00000250: 6e72 923f 3c61 19bf cf78 343f bd13 b63e
00000260: a392 84bf 548b ce3f 6ce9 363d 91c4 5d3e
00000270: 16e4 1ebf ecb5 a2bd 0767 9a3d bc3f 2e3f
00000280: 01ae 913f 0958 653f 5f70 be3d b684 2e3f
00000290: c248 5d3f d789 873e 8667 d93f 43cb 9fbe
000002a0: fafe b93f 1b4d 833e 6599 fcbc 7f12 e6be
000002b0: 665c 0440 420e debe 6edb c5be 23d5 573f
000002c0: f79c 93bf 2809 04c0 496f 0fbf 4d85 253f
000002d0: d30b bc3f dc63 0fc0 3943 e83e c613 843f
000002e0: e08e e0bf e122 e3be b31f 943f fb9d a1bf
000002f0: 98c7 d2bf 7526 e13f a294 bd3f 6d80 ac3e
00000300: 925b 70be 0ab1 06be 5c5b f6bf bd4c 6cbf
00000310: 6975 e73e 4824 053f 4ad5 dfbf 1da0 d6bf
00000320: d736 233f 559b 29bf 64b2 c7bf bcaf 7a3e
00000330: 7e1b 50be 9e0d 7a3f e63a f5bd 4ae5 f4be
00000340: 95ee c23f a84b c33f 1b3a 25c0 3056 923f
00000350: ab07 f8bf 8407 093f 6e4b 953e 7603 0bbf
00000360: bfe1 283f c0c3 303f 325e 863e 4fd6 013f
00000370: eb79 b43e dac8 bfbf 8aca 06bf daf0 89bf
00000380: 3b17 8ebe 42ad bc3e 9eb7 19bf 5f53 0d3f
00000390: d9c3 5140 3485 0dbf e336 a13f ed8a 0340
000003a0: be9b 993f b3c0 75bf dc5d 1340 671d 533f
000003b0: cfed 01c0 647c 9f3f 851f cdbf 78c8 523f
000003c0: b6ec 8cbf e849 0e3e 2d55 f83e 17a0 05c0
000003d0: 75a1 0e3f a0a7 38bf a47e e5be 49fc 1740
000003e0: 9705 b53e 0209 14bf 17b3 213f b96e 3a3e
000003f0: f2ea 343f eabb 2dbf 733c 043e 0ee0 0c3f
0.6617337 2.0591915 0.3535524 -2.4809306 1.4632281 -0.40162385 0.1517916 -0.7969324
0.8797691 -0.5950631 0.46687368 0.10609778 -0.76226604 -0.17787577 -1.3396161 0.024196278
-0.38991135 -3.0023649 1.3534266 0.13749516 0.2214411 0.32755128 -1.313679 -0.6079111
-1.6875002 -0.62330246 -0.26640943 -0.5961163 0.15750553 -0.37446663 -0.28522596 0.6813723
-3.0526266 -0.32493564 -0.27631396 -0.7016685 -0.7785543 0.16877767 -1.7469709 0.47316584
0.35697228 1.4014968 1.2491086 -1.4070385 -0.057083182 -0.5832461 0.3720575 -0.5646301
0.8557266 -0.28967637 0.26294678 0.1695916 -1.6531898 1.1983546 -0.24335277 -0.63847846
0.31421423 0.50430894 1.0351497 -0.44504517 -2.4079802 -0.30148768 -0.28666142 -0.34340295
-1.625983 -1.3006167 -1.4927615 0.58567464 -0.96083474 0.58494234 -0.37682754 0.8859879
0.6445863 -0.83399 1.236676 -0.49219847 -0.5726397 -0.9698214 -0.9999492 -1.236495
2.2970188 0.34604332 1.315384 -0.548665 -0.15956655 -1.2443986 -1.4966955 0.77165526
-1.2434099 -1.0124255 -1.6161947 -1.3451521 0.53827536 2.190804 0.81473494 -0.81533325
0.04635637 0.71009123 -0.7604983 1.1700978 -0.014539822 -0.94550323 -2.1889067 -0.42980465
-1.2957299 0.2751374 -0.15110908 0.5532491 -0.3146675 1.064761 1.0398163 2.183194
-1.3429666 -0.24254489 -2.180893 -0.31721455 0.6406852 0.36561647 -0.8916031 0.68971884
-0.57591444 -0.17481612 0.2413584 -1.7952682 0.5153144 -0.89948505 -2.24568 2.0346751
0.32319573 0.021704594 0.2034623 -0.8343708 0.5814467 -2.0281737 -0.31961435 0.33835074
1.1546144 -1.494967 -0.97579575 -2.342961 0.8391526 0.10910823 -1.9036657 1.3203292
-0.33105627 0.27674296 1.1640987 -0.010430586 1.1441171 -0.5991399 0.7049684 0.35561934
-1.035725 1.613627 0.044656202 0.21657015 -0.6206678 -0.07944855 0.07539182 0.68066
1.1381227 0.89587456 0.09298777 0.6817125 0.86439145 0.2647235 1.6984718 -0.31209764
1.4530938 0.25644764 -0.030834863 -0.44935986 2.0681396 -0.43370253 -0.38643974 0.84309596
-1.1532277 -2.0630589 -0.5602918 0.64656526 1.4691108 -2.24047 0.45363787 1.0318534
-1.7543602 -0.44362548 1.1572174 -1.2626337 -1.6467161 1.7589861 1.4810984 0.3369173
-0.23472431 -0.13153473 -1.9246631 -0.92304593 0.45206764 0.52008486 -1.7486966 -1.6767613
0.63755554 -0.6625264 -1.5601315 0.244811 -0.20322987 0.9767703 -0.119741246 -0.47831184
1.522906 1.5257463 -2.5816715 1.1432552 -1.937734 0.5352709 0.2915911 -0.54302156
0.6596946 0.6904869 0.2624374 0.50717634 0.35249266 -1.498317 -0.526528 -1.0776627
-0.27752098 0.36850935 -0.600458 0.5520534 3.2775786 -0.55281377 1.2594875 2.0553544
1.2000654 -0.9599716 2.3026037 0.8246674 -2.0301397 1.2459836 -1.6025244 0.8233714
-1.1009738 0.1389538 0.48502484 -2.087896 0.55715114 -0.72130775 -0.44823182 2.3747733
0.35355827 -0.57826245 0.63163894 0.182063 0.70671 -0.6786486 0.12913685 0.5502938
